crowd_nav/data/output-lab-base-cases/il_model.pth (torch_old, 389196 bytes, 20 tensors)

mlp1.0.weight f4 [150, 13]
0.24881652 0.07805765 0.1471301 0.107724704 0.0609907 -0.3379638 -0.13591997 0.33107892
-0.0416163 0.06307846 0.10939289 -0.17580222 0.07895203 -0.12126194 -0.22577968 -0.011109471
0.24821529 0.10106027 -0.12155591 -0.038048267 -0.04324387 0.23323372 0.06626934 -0.05961047
-0.10078412 -0.23203644 0.0021756152 -0.25360426 -0.22452861 -0.029997038 -0.24718095 -0.26643786
0.060730234 0.18905164 -0.19608171 0.2482497 -0.11919663 0.124524534 -0.20922683 0.14801446
0.21929072 0.2143557 -0.0047830176 -0.07335808 -0.25391382 0.2196937 0.039718278 -0.23230505
-0.10736361 0.21721362 0.05734658 0.036296427 -0.18109241 -0.20540673 -0.023282796 -0.05372823
-0.02046549 0.2294817 0.29592147 -0.004368954 0.20102344 -0.0869374 -0.20043546 -0.18964458
0.16043165 0.17531577 -0.09051528 -0.1678648 0.018742915 -0.021184508 -0.16781126 -0.08309604
-0.21967742 0.08229888 -0.25296432 -0.13139161 0.20496938 0.25426158 0.1783124 -0.17612942
0.10830122 0.0895363 0.08451164 -0.23286024 -0.14895274 -0.29181397 0.18570943 -0.14126475
-0.19367644 0.0218055 0.16005732 -0.2429641 0.09667603 0.20995459 0.25760347 -0.05672147
0.088777296 0.1575109 0.01081018 0.22043884 0.031963505 0.05887795 -0.12188708 -0.18983987
0.11978128 -0.14153385 -0.11955471 -0.18456106 0.06891938 -0.052866165 0.2767852 -0.092631206
-0.21912035 -0.10852037 0.1005551 0.167604 -0.20406261 -0.20192218 -0.051526528 -0.098248914
0.26739243 -0.104458295 -0.24588054 -0.26907566 0.078700304 -0.0039827423 -0.08771615 0.2152525
0.120808914 -0.13350597 0.090767376 0.20584048 0.24258336 0.20397559 -0.059863284 0.11320361
-0.20341663 -0.21212633 0.041302253 0.2329906 0.24878159 0.09247483 -0.22489876 -0.16517186
0.04474387 0.22204968 -0.11852933 -0.13568522 0.028506098 -0.0052860845 0.14675057 0.2768107
-0.17225625 0.0905643 -0.24797305 -0.045250345 -0.034848377 -0.029215423 0.01719883 0.14029995
-0.061997537 0.007059127 -0.23160252 -0.006753055 -0.20953539 -0.27656806 -0.1841309 0.26428562
0.07968019 -0.18520911 -0.19120562 -0.005870849 -0.16988622 0.20701699 -0.2568622 -0.14617111
0.26546925 -0.26167485 -0.24478513 -0.19643535 -0.06522302 -0.0794047 0.095489115 -0.009981012
0.122371495 -0.19143957 0.05193427 -0.23067544 -0.287722 -0.14032759 -0.025979059 -0.007615986
0.18364099 -0.2246964 -0.1989995 -0.17843968 -0.060859323 -0.06133014 0.19227694 0.22724347
-0.04984207 -0.20898843 0.057585463 0.2248014 -0.095272444 -0.19198461 -0.21502267 0.08465878
-0.027594658 -0.07385796 -0.11220832 0.035573065 -0.21674435 -0.009795791 -0.008862369 0.2408711
0.27190885 0.064899966 -0.005438824 0.056201957 0.12452555 -0.18664472 -0.08862034 0.013088226
-0.049538855 0.121068016 -0.17369747 0.25007758 0.060027864 0.24436699 0.15162061 0.22206984
-0.098311305 0.27322698 0.14889391 -0.001289029 -0.20053917 -0.012777517 -0.2746376 0.15341207
-0.27229515 0.05750762 -0.16845357 0.21910234 -0.13951594 -0.23339008 -0.14120731 0.10254429
0.160562 0.15629926 0.25367537 -0.17207482 0.26118544 0.26230487 -0.21268836 -0.13409357
00000000: c2c9 7e3e b0dc 9f3d 46a9 163e c59e dc3d
00000010: 62d1 793d 9709 adbe 9b2e 0bbe 2d83 a93e
00000020: da75 2abd 482f 813d 6109 e03d 7f05 34be
00000030: 9ab1 a13d 2e58 f8bd ca32 67be 8004 36bc
00000040: 262c 7e3e b0f8 ce3d 4ef2 f8bd 80d8 1bbd
00000050: 7c20 31bd d2d4 6e3e 38b8 873d 1c2a 74bd
00000060: e867 cebd f69a 6dbe c494 0e3b 6bd8 81be
00000070: d4ea 65be 59bc f5bc 011d 7dbe 8b6a 88be
00000080: 44c0 783d c196 413e a5c9 48be 2b35 7e3e
00000090: 5d1d f4bd b806 ff3d 8f3f 56be 1a91 173e
000000a0: bf8d 603e 1080 5b3e dcba 9cbb c33c 96bd
000000b0: fe00 82be 63f7 603e a2af 223d 60e1 6dbe
000000c0: 74e1 dbbd 3f6d 5e3e 3fe4 6a3d 90ab 143d
000000d0: 4a70 39be 2456 52be 90bb bebc 2212 5cbd
000000e0: 3ea7 a7bc 40fd 6a3e 0583 973e 7129 8fbb
000000f0: 17d9 4d3e 3c0c b2bd f43e 4dbe 3032 42be
00000100: 3248 243e fa85 333e 1360 b9bd c0e4 2bbe
00000110: be8a 993c 228b adbc b7d6 2bbe 422e aabd
00000120: 1ef3 60be 518c a83d 8a84 81be 868b 06be
00000130: 7ee3 513e 932e 823e 8797 363e 455b 34be
00000140: 08cd dd3d cf5e b73d 7014 ad3d ea72 6ebe
00000150: 1187 18be a468 95be 9d2a 3e3e b5a7 10be
00000160: 1e53 46be 73a1 b23c 11e6 233e 95cb 78be
00000170: 15fe c53d 56fe 563e 9ae4 833e c654 68bd
00000180: dfd0 b53d 8a4a 213e 2e1d 313c b8ba 613e
00000190: 2aec 023d 012a 713d ef9f f9bd 6265 42be
000001a0: e34f f53d 40ee 10be 1ad9 f4bd 93fd 3cbe
000001b0: 9b25 8d3d 318a 58bd cab6 8d3e 6eb5 bdbd
000001c0: 1661 60be ee3f debd d5ef cd3d 62a0 2b3e
000001d0: caf5 50be b0c4 4ebe 7b0d 53bd ba36 c9bd
000001e0: a9e7 883e 3bee d5bd 1cc8 7bbe 49c4 89be
000001f0: a02d a13d aa81 82bb 86a4 b3bd 276b 5c3e
00000200: aa6a f73d cab5 08be 3fe4 b93d d9c7 523e
00000210: c667 783e fade 503e 3433 75bd 4bd7 e73d
00000220: 734c 50be a537 59be 8d2c 293d 1695 6e3e
00000230: 9ac0 7e3e 7263 bd3d dc4b 66be d022 29be
00000240: 5945 373d fe60 633e 81bf f2bd 11f1 0abe
00000250: 9f85 e93c e436 adbb c845 163e 22ba 8d3e
00000260: f163 30be c779 b93d a6ec 7dbe 6d58 39bd
00000270: 2cbd 0ebd 2f55 efbc 90e4 8c3c caaa 0f3e
00000280: 21f1 7dbd 4050 e73b 3629 6dbe bb48 ddbb
00000290: 7290 56be 549a 8dbe d08c 3cbe 7250 873e
000002a0: 5e2f a33d 75a7 3dbe 68cb 43be 4060 c0bb
000002b0: a7f6 2dbe 43fc 533e 7183 83be e1ad 15be
000002c0: 96eb 873e 3ffa 85be f4a8 7abe 5926 49be
000002d0: a693 85bd ee9e a2bd cc8f c33d 6687 23bc
000002e0: e89d fa3d bc08 44be 07b9 543d 2f36 6cbe
000002f0: 4c50 93be 09b2 0fbe 09d2 d4bc 858f f9bb
00000300: 620c 3c3e d016 66be 86c6 4bbe e4b8 36be
00000310: a047 79bd 5035 7bbd 3fe4 443e 83b2 683e
00000320: 3327 4cbd 1001 56be bcde 6b3d 5732 663e
00000330: 331e c3bd 9d97 44be e72e 5cbe 9561 ad3d
00000340: 310e e2bc d842 97bd 7acd e5bd 10b5 113d
00000350: 3bf2 5dbe 867e 20bc 7833 11bc eaa6 763e
00000360: a337 8b3e 46ea 843d 2a38 b2bb 0634 663d
00000370: 4007 ff3d cb1f 3fbe 957e b5bd 0070 563c
00000380: 41e9 4abd 82f2 f73d c0dd 31be 2b0a 803e
00000390: c7df 753d 573b 7a3e 6f42 1b3e 4766 633e
000003a0: 7057 c9bd 68e4 8b3e a577 183e a3f4 a8ba
000003b0: 245a 4dbe ca58 51bc 4d9d 8cbe 0e18 1d3e
000003c0: 456a 8bbe 1c8d 6b3d 187f 2cbe 5d5c 603e
000003d0: 44dd 0ebe cffd 6ebe a698 10be be02 d23d
000003e0: 5d6a 243e ea0c 203e bde1 813e 6234 30be
000003f0: 19ba 853e d34c 863e faca 59be d34f 09be

mlp1.0.bias f4 [150]
0.008867884 0.07742846 -0.17488623 0.21525873 0.09529305 0.18641284 0.20408943 -0.09106327
-0.07909148 -0.2682303 0.109444164 0.22257596 0.19527704 0.09402018 0.26409277 0.15567568
0.24245866 -0.06089869 -0.06192226 0.105529524 0.17512487 0.052828528 -0.038890697 0.27246517
0.0013358946 0.2343281 0.14644569 -0.19117212 -0.024586946 -0.12605527 -0.18611416 0.22481565
-0.133074 -0.28000006 -0.21790092 0.16288115 -0.17239273 -0.20065667 -0.057060566 -0.09669661
-0.17850894 0.25115734 -0.21837081 0.19942294 -0.028698519 0.16793503 0.22745262 -0.27500275
-0.23013559 0.25271037 -0.059033394 -0.13944189 0.21961696 -0.1961079 -0.032598652 -0.25659823
-0.14886056 0.23055083 0.08978901 -0.10697382 0.25277486 0.011203549 0.1944091 -0.25268263
-0.13254265 -0.21110855 0.2838921 -0.17920896 -0.13942118 -0.26032704 0.024111979 0.2559105
-0.003761048 -0.1873721 0.17065752 0.21016775 0.08476217 -0.14333221 0.16995148 -0.21031879
0.24665569 0.21439962 -0.2543349 -0.00035292172 -0.23239025 -0.17349891 0.08484144 0.010855223
0.17118968 0.1450545 0.23487492 0.057610836 -0.06637829 0.11367024 0.17594127 -0.111002624
-0.22135778 0.13244851 -0.1963555 0.22078294 -0.23026744 -0.019704325 0.14768663 -0.19708334
-0.25716302 0.07236778 0.1850765 0.17042501 -0.14363945 -0.10795635 0.060725298 -0.09773955
0.09228461 0.071992956 0.14624076 -0.0051147793 -0.26038235 0.23300463 -0.044454057 -0.27593914
0.22267453 -0.15299918 0.017719248 0.08793832 -0.16953795 0.28092954 -0.2098935 -0.20343243
0.14567077 0.18517998 -0.15632458 0.13689294 -0.22693469 -0.25653324 0.106606446 -0.16171211
-0.24432364 0.114179544 -0.122396596 0.18062928 -0.035411313 -0.23157597 0.105608985 0.13636582
0.20569548 -0.19053511 0.034461066 0.24191555 0.23232749 -0.092669845
00000000: 9a4a 113c d092 9e3d 6015 33be c96c 5c3e
00000010: 0129 c33d 02e3 3e3e d2fc 503e 617f babd
00000020: b7fa a1bd 7b55 89be 4324 e03d f4ea 633e
00000030: b4f6 473e a78d c03d 2b37 873e 7269 1f3e
00000040: 1547 783e e870 79bd 32a2 7dbd dd1f d83d
00000050: ef53 333e ba62 583d da4b 1fbd 8e80 8b3e
00000060: 2f19 af3a b5f3 6f3e dcf5 153e a0c2 43be
00000070: 906a c9bc a214 01be b694 3ebe 1336 663e
00000080: 8d44 08be 2b5c 8fbe 6b21 5fbe 51ca 263e
00000090: b887 30be f178 4dbe 57b8 69bd df08 c6bd
000000a0: 0ccb 36be b297 803e 999c 5fbe 8735 4c3e
000000b0: 2819 ebbc 29f7 2b3e 57e9 683e 29cd 8cbe
000000c0: aaa8 6bbe 4163 813e 00cd 71bd dbc9 0ebe
000000d0: 45e3 603e 82d0 48be 2a86 05bd d860 83be
000000e0: e76e 18be 8415 6c3e 4de3 b73d 1715 dbbd
000000f0: b56b 813e 178f 373c 2e13 473e 9e5f 81be
00000100: 43b9 07be d72c 58be 4e5a 913e 8e82 37be
00000110: 6dc4 0ebe 9649 85be 7c86 c53c b306 833e
00000120: ea7b 76bb 79de 3fbe d8c0 2e3e 3736 573e
00000130: ca97 ad3d aec5 12be c307 2e3e cf5d 57be
00000140: 4f93 7c3e 938b 5b3e 2f38 82be 5a08 b9b9
00000150: b6f7 6dbe b3a9 31be 59c1 ad3d 1bda 313c
00000160: 594c 2f3e 2b89 143e 0d83 703e 57f9 6b3d
00000170: 57f1 87bd f1cb e83d f329 343e 5855 e3bd
00000180: 9dab 62be 95a0 073e 6b11 49be ec14 623e
00000190: 3acb 6bbe f76a a1bc 2a3b 173e 37d0 49be
000001a0: dfaa 83be 8f35 943d b284 3d3e e583 2e3e
000001b0: 3816 13be 3818 ddbd 17bb 783d ac2b c8bd
000001c0: b7ff bc3d 0b71 933d 23c0 153e e199 a7bb
000001d0: d650 85be c498 6e3e 7515 36bd e547 8dbe
000001e0: cb04 643e d1ab 1cbe f527 913c 0219 b43d
000001f0: 5b9b 2dbe ffd5 8f3e 52ee 56be 9750 50be
00000200: b82a 153e d29f 3d3e 8d13 20be aa2d 0c3e
00000210: 9161 68be 5358 83be 7b54 da3d dc97 25be
00000220: fa2f 7abe f7d6 e93d 11ab fabd e2f6 383e
00000230: 740b 11bd 4022 6dbe 8649 d83d 7ba3 0b3e
00000240: d6a1 523e a31b 43be 0c27 0d3d b6b8 773e
00000250: 42e7 6d3e b0c9 bdbd

mlp1.2.weight f4 [100, 150]
-0.021898601 -0.07987011 -0.04855017 0.008208924 -0.047671027 -0.055189203 -0.04254488 0.046699595
-0.03925848 -0.06589065 -0.00906421 -0.053599365 0.010537585 0.041858643 -0.040362626 -0.029315013
0.06913143 0.054819413 -0.054678313 0.08547144 -0.016476119 0.06192847 0.110459246 0.092529565
0.050592598 0.049422346 0.029047223 0.037132684 -0.052018005 0.097741 -0.046389196 0.042915393
0.019227386 -0.053680643 0.0038019123 0.055066336 -0.044723317 0.025387248 0.0115574105 -0.013726906
-0.067170806 0.005144129 0.014209892 -0.022014791 -0.045575533 -0.017446484 -0.06690643 -0.11278026
-0.02513492 0.020476112 0.022486962 0.07726859 -0.07026706 0.027557917 0.012499874 -0.0053824284
-0.00084931595 -0.045479603 -0.0015738949 -0.021647178 0.025415376 0.004906277 -0.005259481 -0.0016876499
0.07599396 -0.02695547 -0.043236487 0.052300874 0.056045555 0.04019412 0.016671918 0.03499194
-0.08250436 -0.0021553705 0.002914957 -0.07002293 0.09751213 -0.02270866 -0.03618174 0.04891061
0.07734851 -0.018042644 -0.08748284 0.001348998 0.0557044 0.012763054 0.031149715 0.013248563
-0.047920827 -0.019507296 0.07063927 -0.10242866 0.078549586 -0.024962218 0.078526415 0.06259525
0.07445965 -0.028674778 0.079953656 -0.07794194 0.0106613245 -0.030052695 -0.058519587 -0.054929625
-0.014916974 -0.049627047 0.031914968 -0.045351353 -0.07359007 -0.021123065 -0.05164936 0.05629462
-0.080140255 0.07117337 0.0030742793 -0.0005730551 -0.071315095 -0.08523872 0.079080015 -0.07522947
0.052913096 0.013721818 0.017682496 0.059552055 -0.008867311 0.06994366 0.0040636705 0.045545816
-0.055950727 0.054480404 0.0646448 -0.008798556 -0.034110714 0.0049854554 -0.023447484 -0.026790176
0.05741624 0.079480894 0.039837517 0.0031858084 -0.081600875 0.088154376 -0.06573205 -0.04479847
-0.05995113 -0.06955472 -0.055723954 -0.031832762 0.02165023 -0.054280225 -0.024779666 -0.0018490404
-0.06108408 -0.058815964 0.05834441 0.07986602 -0.028552331 -0.010103859 0.075566426 -0.031166632
-0.018540807 0.024682648 0.0010349303 0.0067595243 0.042927086 -0.017827258 -0.073421195 -0.0074105337
0.0046370775 -0.066547245 -0.0030519068 0.05923888 0.03312461 0.0060486346 0.055888146 0.045650795
-0.059284084 -0.048011057 -0.06602132 -0.005734645 0.030855253 -0.025334936 0.017912664 -0.07149707
-0.025670134 0.038162813 -0.067519605 -0.011029631 0.04346636 -0.058916442 0.032350466 -0.015973084
-0.019710306 -0.07172401 -0.0616055 -0.078153335 -0.009034365 -0.05547774 -0.02604917 0.017059796
-0.080529645 -0.07066997 -0.07216343 -0.030762874 -0.038593322 -0.06273944 -0.04302594 -0.0013541207
0.014377087 -0.05698262 0.010982998 0.02189374 -0.01532913 -0.014941879 0.0042237863 0.023737162
0.08044945 0.023258947 -0.038229283 -0.04115205 -0.012335904 -0.04848787 0.012319617 0.06608562
0.027252607 -0.08017181 -0.04349991 0.06257075 -0.04158532 0.034998305 -0.042916033 0.059142217
0.039181024 -0.07632701 -0.036707602 -0.07941836 -0.022673134 0.052482516 0.055417776 -0.048284438
0.05303681 0.04674901 0.033807203 -0.0381282 0.03829784 -0.06789312 -0.015908927 0.01532843
-0.03348464 0.05955243 -0.0385683 -0.035914768 -0.054685462 -0.03156104 0.07883294 -0.010633893
00000000: b264 b3bc f192 a3bd 8bdc 46bd b97e 063c
00000010: b242 43bd 130e 62bd 8a43 2ebd 1348 3f3d
00000020: 80cd 20bd adf1 86bd 0d82 14bc 028b 5bbd
00000030: d6a5 2c3c f873 2b3d 4853 25bd 0a26 f0bc
00000040: c794 8d3d 528a 603d 5ef6 5fbd a60b af3d
00000050: edf8 86bc b5a8 7d3d 7538 e23d 2480 bd3d
00000060: 2f3a 4f3d 166f 4a3d 71f4 ed3c 7118 183d
00000070: d510 55bd 6f2c c83d 9902 3ebd 0dc8 2f3d
00000080: c082 9d3c 3ce0 5bbd 8129 793b 3d8d 613d
00000090: cc2f 37bd ebf8 cf3c 4b5b 3d3c d1e6 60bc
000000a0: d990 89bd 1590 a83b 9bd0 683c 5d58 b4bc
000000b0: 69ad 3abd eeeb 8ebc 3d06 89bd 56f9 e6bd
000000c0: bfe7 cdbc 85bd a73c 9436 b83c ff3e 9e3d
000000d0: 2de8 8fbd 24c1 e13c 46cc 4c3c 155f b0bb
000000e0: a1a4 5eba d248 3abd 264b ceba 6c55 b1bc
000000f0: e833 d03c d6c4 a03b b957 acbb 2234 ddba
00000100: b9a2 9b3d b8d1 dcbc be18 31bd 7139 563d
00000110: 0690 653d 97a2 243d 8c93 883c b553 0f3d
00000120: 0cf8 a8bd 1e41 0dbb dd08 3f3b 2f68 8fbd
00000130: 71b4 c73d 8307 babc 4e33 14bd 7e56 483d
00000140: e568 9e3d 2bce 93bc 342a b3bd ddd0 b03a
00000150: 4c2a 643d 211c 513c b02d ff3c 8010 593c
00000160: a148 44bd c4cd 9fbc 52ab 903d 1ec6 d1bd
00000170: 9bde a03d 917d ccbc 75d2 a03d f031 803d
00000180: 4d7e 983d 5ee7 eabc bebe a33d 06a0 9fbd
00000190: d6ac 2e3c 1231 f6bc 3cb2 6fbd e3fd 60bd
000001a0: 5366 74bc bb45 4bbd 45b9 023d 57c2 39bd
000001b0: 64b6 96bd 470a adbc 488e 53bd 3095 663d
000001c0: 9320 a4bd 58c3 913d d979 493b 1439 16ba
000001d0: a60d 92bd a391 aebd b4f4 a13d e911 9abd
000001e0: 67bb 583d 7ad1 603c e2da 903c dbec 733d
000001f0: 3348 11bc 9f3e 8f3d 8a28 853b 408e 3a3d
00000200: 972c 65bd d826 5f3d 7e64 843d d227 10bc
00000210: adb7 0bbd 085d a33b f014 c0bc 1277 dbbc
00000220: 4b2d 6b3d e1c6 a23d aa2c 233d ffc8 503b
00000230: 5c1e a7bd 488a b43d 869e 86bd 9a7e 37bd
00000240: 518f 75bd b472 8ebd cd3e 64bd 1263 02bd
00000250: d35b b13c f154 5ebd bafe cabc 805b f2ba
00000260: 4d33 7abd 02e9 70bd 8cfa 6e3d cc90 a33d
00000270: 94e6 e9bc a88a 25bc 92c2 9a3d 2a51 ffbc
00000280: e4e2 97bc 4433 ca3c 80a6 873a 007f dd3b
00000290: 50d4 2f3d 780a 92bc da5d 96bd 10d4 f2bb
000002a0: a0f2 973b ec49 88bd 8002 48bb 78a4 723d
000002b0: acad 073d a033 c63b f8ea 643d 54fc 3a3d
000002c0: ded3 72bd 3ea7 44bd 3036 87bd b0e9 bbbb
000002d0: 28c4 fc3c 368b cfbc 94bd 923c 0e6d 92bd
000002e0: 2c4a d2bc 9c50 1c3d b847 8abd a0b5 34bc
000002f0: c809 323d 5e52 71bd ec81 043d fcd9 82bc
00000300: 8277 a1bc 0ae4 92bd 0c56 7cbd db0e a0bd
00000310: e004 14bc a03c 63bd 1265 d5bc fcc0 8b3c
00000320: baec a4bd 6bbb 90bd 6cca 93bd 6c02 fcbc
00000330: 0814 1ebd 897d 80bd f83b 30bd c07c b1ba
00000340: e08d 6b3c 9c66 69bd 08f2 333c 805a b33c
00000350: 0827 7bbc c8ce 74bc b067 8a3b 7074 c23c
00000360: aec2 a43d 8c89 be3c 4f96 1cbd 0d8f 28bd
00000370: 881c 4abc 379b 46bd 38d8 493c e657 873d
00000380: dc40 df3c 1e31 a4bd f62c 32bd 1825 803d
00000390: 5e55 2abd 625a 0f3d b9c8 2fbd 1c3f 723d
000003a0: 487c 203d 5651 9cbd b65a 16bd 18a6 a2bd
000003b0: 02bd b9bc e8f7 563d c0fd 623d e7c5 45bd
000003c0: 203d 593d e47b 3f3d 6c79 0a3d 512c 1cbd
000003d0: 32de 1c3d 8c0b 8bbd 7053 82bc 1824 7b3c
000003e0: 3127 09bd 40ed 733d cbf9 1dbd 5d1b 13bd
000003f0: ddfd 5fbd 2646 01bd 2a73 a13d c839 2ebc

mlp1.2.bias f4 [100]
0.014539671 -0.0479321 -0.0525679 0.036349025 -0.037177283 0.070963226 -0.079521 0.0305815
-0.069620796 0.0008077435 -0.032453038 0.07052037 -0.04155403 -0.074084856 0.051826935 -0.014027608
0.11873838 0.05356099 0.003925232 0.051115207 0.0667152 0.060475007 0.0652376 -0.080577545
-0.08279009 0.03778813 0.08260289 0.0042402167 -0.029991515 0.079653084 0.032188777 0.097023055
0.048073698 0.053064406 0.070014246 -0.0011640416 0.06930893 -0.062021334 0.06791823 0.026389558
-0.03515833 0.013236079 -0.0695049 0.043098234 -0.031361006 -0.046414606 0.008328589 0.036628976
-0.0528188 -0.07045876 0.015373964 0.019751338 -0.09083837 0.08500469 0.013162794 -0.022680616
0.015232452 0.062366705 0.009090126 0.0592709 0.049454954 0.009020892 0.021566756 -0.03271858
-0.064633556 0.09040083 0.04123847 0.018427156 -0.00053001475 -0.0033020827 -0.0582489 0.007894335
-0.024221305 -0.082400635 0.0367835 0.07406203 -0.065439776 -0.04291049 -0.018895762 -0.036561172
0.053756084 0.036601886 -0.021223309 0.03662411 -0.013933704 -0.054504078 0.010272651 -0.042583823
-0.0067998217 -0.042982783 0.02359959 -0.06759544 0.02721941 -0.04771126 -0.03139874 0.04255298
0.08130861 -0.07350941 0.015817583 0.042306762
00000000: cd37 6e3c 7354 44bd 7051 57bd b7e2 143d
00000010: 3547 18bd 2b55 913d e8db a2bd 0e86 fa3c
00000020: 5995 8ebd c0be 533a 7aed 04bd fc6c 903d
00000030: 8f34 2abd cdb9 97bd 7b48 543d 0dd4 65bc
00000040: 1c2d f33d c562 5b3d 3c9f 803b 2e5e 513d
00000050: fba1 883d a4b4 773d 4a9b 853d d705 a5bd
00000060: da8d a9bd bac7 1a3d b42b a93d 84f1 8a3b
00000070: c4b0 f5bc 2821 a33d 61d8 033d 06b4 c63d
00000080: ede8 443d 105a 593d a163 8f3d c192 98ba
00000090: d7f1 8d3d 150a 7ebd b718 8b3d ea2e d83c
000000a0: 2e02 10bd 24dc 583c 9658 8ebd c687 303d
000000b0: 6674 00bd 3e1d 3ebd a274 083c 4408 163d
000000c0: 8758 58bd af4c 90bd 14e3 7b3c 8fcd a13c
000000d0: 7809 babd f016 ae3d c2a8 573c b3cc b9bc
000000e0: 8991 793c 3b74 7f3d c0ee 143c 0bc6 723d
000000f0: 4791 4a3d 5dcc 133c c4ac b03c eb03 06bd
00000100: 995e 84bd 1224 b93d abe9 283d 8cf4 963c
00000110: b0f0 0aba c167 58bb 6696 6ebd 3e57 013c
00000120: c26b c6bc aac1 a8bd 4caa 163d d5ad 973d
00000130: 4a05 86bd e9c2 2fbd 49cb 9abc 2bc1 15bd
00000140: 572f 5c3d dceb 153d 81dc adbc 2a03 163d
00000150: 314a 64bc ab3f 5fbd 9f4e 283c 606c 2ebd
00000160: 0ad1 debb b70e 30bd ed53 c13c 7a6f 8abd
00000170: 3dfb de3c e26c 43bd f79b 00bd 094c 2e3d
00000180: 2185 a63d 1a8c 96bd e093 813c db49 2d3d

mlp2.0.weight f4 [100, 100]
0.06360045 -0.019811511 0.0817269 0.020756744 -0.03794867 0.104144305 -0.06558551 -0.009578719
0.04281857 -0.14154674 0.051927313 0.091973126 -0.08789124 -0.08861301 -0.009491275 0.045323696
0.10983391 0.11171456 -0.056809757 0.04530033 -0.034457207 0.053737503 -0.026626827 -0.06953265
-0.080500185 0.006232411 -0.12319803 -0.12605052 -0.024956437 0.07820121 0.077947274 0.109740384
-0.30597174 -0.13469303 -0.09960795 0.11841155 0.0033150918 0.08575465 -0.056875665 0.05696639
-0.019363925 0.071486905 -0.0020577698 0.043111466 -0.23961417 0.10594739 0.07306992 0.095548324
-0.07263241 -0.11868631 0.019093808 -0.022418538 0.14369462 -0.12542386 0.037163083 -0.0945803
-0.008310702 -0.09486385 -0.09687537 0.087135784 -0.11498102 0.018935187 0.051862225 -0.061802
-0.061863095 -0.021963935 0.039488293 -0.021718794 -0.15143669 0.08528209 -0.0419784 0.006927285
0.0031638527 0.07013695 0.08901204 0.07215113 -0.0047887596 -0.1637233 -0.060925398 -0.14246203
-0.19391997 0.025686622 -0.16296326 0.0141366 -0.0013159176 0.09648073 0.01728949 0.14832857
0.030704884 0.077898264 0.068003304 0.006390492 -0.02720742 0.096460216 -0.024057383 -0.014299009
0.065282844 -0.13952236 0.06972713 -0.11299412 0.12316557 -0.054843295 -0.036568873 0.03816625
0.08309194 0.028982673 -0.029829161 0.090992734 0.0054926346 -0.034011662 0.04258008 0.032863427
-0.040651638 -0.031671688 0.09838913 0.0016085936 0.112136416 0.09136977 -0.050276887 0.06267822
0.0013645046 0.041402273 -0.06873368 0.07627577 0.0953879 0.07622257 -0.025119035 0.02627156
-0.034794595 -0.024913894 0.050610743 0.011904233 0.01258681 -0.083807684 0.049765076 -0.09129859
0.09175217 -0.003844883 -0.07761548 -0.033284053 0.08703304 0.09160392 -0.024134915 -0.0046414733
0.08703535 0.08020001 -0.055556364 -0.093917824 0.063196786 0.017098844 0.070168324 -0.095144585
0.040836755 -0.0064203115 0.023346169 -0.001693783 -0.0349803 -0.04737191 -0.111572735 0.088130035
-0.021445857 0.028755687 0.03858127 0.020977065 0.050363354 -0.0094969915 0.08606133 -0.06736464
0.05083303 -0.10483565 -0.06539702 -0.10835995 0.03494104 0.08224244 -0.074596085 0.088234715
-0.11382965 -0.066048294 0.0199726 -0.008014261 0.072369784 0.024461383 0.04036787 -0.028411193
-0.017868929 -0.003668786 0.08276368 -0.006926053 -0.03506748 0.08754662 0.055069856 0.061654028
-0.11494873 0.0034991957 -0.08425908 -0.092706636 0.005763358 0.03372147 0.095464505 -0.0049091424
-0.01840873 0.07973734 -0.03906706 -0.025587192 0.083942905 0.020744305 0.09901156 0.062051438
0.07662941 0.09845369 -0.019695362 0.038708176 -0.015091261 0.08870554 -0.086725295 0.03803996
0.026398951 0.080419846 0.051197104 0.015356292 0.0792724 -0.03381058 -0.031443335 0.057230163
0.015673762 0.09101032 -0.08848272 -0.09850939 -0.021095268 0.05428272 0.093195245 -0.01078801
0.0267055 0.050791875 -0.027667264 0.0022183903 0.027812919 0.02933959 0.014131454 0.08975584
-0.06488286 -0.030579451 -0.045753926 0.034959845 0.09158868 -0.050539277 0.0018226466 -0.012833677
-0.049669888 -0.03391419 0.09759806 0.021482266 0.04421703 -0.032308914 0.028323947 0.067764446
00000000: f440 823d c04b a2bc 6f60 a73d 0c0a aa3c
00000010: 1170 1bbd 9c49 d53d b251 86bd 0ff0 1cbc
00000020: 8662 2f3d a1f1 10be bcb1 543d 685c bc3d
00000030: 5300 b4bd bd7a b5bd 4b81 1bbc 57a5 393d
00000040: 9af0 e03d 9aca e43d 59b1 68bd d78c 393d
00000050: 0023 0dbd db1b 5c3d 8120 dabc 2267 8ebd
00000060: 48dd a4bd 4139 cc3b 404f fcbd 6313 01be
00000070: 7171 ccbc f527 a03d d2a2 9f3d 91bf e03d
00000080: 54a8 9cbe f8ec 09be 41ff cbbd c181 f23d
00000090: 0342 593b 22a0 af3d 75f6 68bd 9755 693d
000000a0: 18a1 9ebc ba67 923d a6db 06bb a695 303d
000000b0: 6b5d 75be f2fa d83d afa5 953d d7ae c33d
000000c0: 4dc0 94bd cf11 f3bd 9e6a 9c3c 15a7 b7bc
000000d0: af24 133e 1d6f 00be 5138 183d 51b3 c1bd
000000e0: 9c29 08bc fa47 c2bd 9866 c6bd 3f74 b23d
000000f0: 2b7b ebbd f71d 9b3c 7c6d 543d 1824 7dbd
00000100: 2864 7dbd b6ed b3bc 7abe 213d 9deb b1bc
00000110: 3812 1bbe 60a8 ae3d 8bf1 2bbd 47fe e23b
00000120: a458 4f3b f6a3 8f3d f24b b63d f9c3 933d
00000130: 07eb 9cbb 15a7 27be e98c 79bd 91e1 11be
00000140: f592 46be c06c d23c d7df 26be 339d 673c
00000150: de7a acba b097 c53d b0a2 8d3c 72e3 173e
00000160: cf88 fb3c 2089 9f3d 5145 8b3d 5567 d13b
00000170: 18e2 debc ef8c c53d fd13 c5bc 6446 6abc
00000180: 03b3 853d f3de 0ebe 19cd 8e3d 7669 e7bd
00000190: 3b3e fc3d 5da3 60bd 3ec9 15bd 3754 1c3d
000001a0: 1b2c aa3d 126d ed3c 495c f4bc 665a ba3d
000001b0: 8ffb b33b d04f 0bbd 7368 2e3d cd9b 063d
000001c0: 5582 26bd 2cba 01bd 3d80 c93d 72d7 d23a
000001d0: c7a7 e53d 1320 bb3d 23ef 4dbd 705d 803d
000001e0: 2dd9 b23a 6e95 293d 3ec4 8cbd 7936 9c3d
000001f0: bb5a c33d 941a 9c3d 6fc6 cdbc 7437 d73c
00000200: c784 0ebd 3918 ccbc 364d 4f3d f909 433c
00000210: e838 4e3c 5da3 abbd 77d6 4b3d c1fa babd
00000220: 90e8 bb3d 6ffa 7bbb ddf4 9ebd dc54 08bd
00000230: 613e b23d d69a bb3d 96b6 c5bc 8017 98bb
00000240: 973f b23d e73f a43d 128f 63bd fd57 c0bd
00000250: 516d 813d e012 8c3c 69b4 8f3d 2adb c2bd
00000260: 7144 273d 7a61 d2bb 7740 bf3c ed01 deba
00000270: 8147 0fbd 0c09 42bd 3f80 e4bd 857d b43d
00000280: 39af afbc 0c91 eb3c 6507 1e3d 18d8 ab3c
00000290: ce49 4e3d 4599 1bbc ec40 b03d 79f6 89bd
000002a0: 4c36 503d 13b4 d6bd dfee 85bd d2eb ddbd
000002b0: 561e 0f3d b96e a83d d5c5 98bd 67b4 b43d
000002c0: 851f e9bd 5444 87bd 949d a33c 3f4e 03bc
000002d0: 9c36 943d 3d63 c83c c858 253d 97be e8bc
000002e0: dc61 92bc 0470 70bb 0180 a93d f2f3 e2bb
000002f0: eba2 0fbd a44b b33d ee90 613d ef88 7c3d
00000300: 3d6a ebbd c352 653b 0690 acbd fadc bdbd
00000310: 8dda bc3b 861f 0a3d e582 c33d dfdc a0bb
00000320: e8cd 96bc 554d a33d c804 20bd 3b9c d1bc
00000330: 42ea ab3d f6ef a93c 93c6 ca3d a629 7e3d
00000340: e1ef 9c3d 17a2 c93d 2b58 a1bc 778c 1e3d
00000350: 5641 77bc 40ab b53d 089d b1bd cacf 1b3d
00000360: 9d42 d83c 29b3 a43d 0eb4 513d f598 7b3c
00000370: 9159 a23d f67c 0abd baca 00bd 2d6a 6a3d
00000380: 4366 803c 9e63 ba3d 6e36 b5bd 4bbf c9bd
00000390: fccf acbc 8f57 5e3d 26dd be3d 32c0 30bc
000003a0: 7ec5 da3c 240b 503d 75a6 e2bc 6a62 113b
000003b0: ebd7 e33c 9459 f03c 9d87 673c e9d1 b73d
000003c0: 4ee1 84bd c281 fabc 7868 3bbd 0e32 0f3d
000003d0: d992 bb3d 4602 4fbd dfe5 ee3a 5844 52bc
000003e0: a772 4bbd 9be9 0abd 7ee1 c73d 94fb af3c
000003f0: eb1c 353d 5a56 04bd 9f07 e83c 16c8 8a3d

mlp2.0.bias f4 [100]
0.03699569 -0.0609586 0.00389249 -0.0072374893 0.04829707 -0.06426508 0.013099984 0.07393668
-0.044253193 -0.014289382 -0.017609077 0.069091834 -0.051040623 0.0758975 0.05137577 -0.07512472
0.04436416 -0.059621233 0.096539415 -0.007780618 0.07082825 0.07203243 0.05203093 -0.070544645
0.08475075 -0.03896644 0.018768834 0.0036340689 0.06630861 -0.029177466 -0.025593307 0.0761934
0.025335923 -0.06742396 -0.050192337 0.08090637 0.027251441 0.063490465 0.06967031 0.07258146
-0.0048769745 -0.07997989 0.03472465 -0.032719262 -0.0594144 0.0066733663 -0.07878341 0.003976803
0.021511808 0.010973011 0.029616134 0.0008620605 -0.029642107 0.017918594 0.04597679 0.029547341
-0.04694918 0.09443797 -0.08106554 0.07481691 -0.018665954 -0.020786943 -0.0108706 -0.046134114
-0.01637724 -0.086903475 -0.027059563 -0.045181364 0.01257678 -0.055497617 -0.031721298 -0.016172992
-0.014376805 -0.028851995 -0.017025061 0.022754421 -0.0079161925 0.07515085 0.082030416 -0.07035753
-0.044998668 -0.0781859 0.070193395 0.00041366933 0.03587552 -0.0005160758 0.034760963 -0.078148305
-0.0027144782 0.057815496 -0.0024879095 -0.011711268 -0.07770299 0.05536084 0.030067762 0.0886711
0.048926175 -0.03755552 0.09119513 0.008513545
00000000: cb88 173d baaf 79bd 2519 7f3b 7628 edbb
00000010: 26d3 453d 699d 83bd 51a1 563c 1d6c 973d
00000020: d642 35bd 031e 6abc e940 90bc 0580 8d3d
00000030: f90f 51bd 2670 9b3d 666f 523d fdda 99bd
00000040: 32b7 353d 6535 74bd 75b6 c53d 8ef4 febb
00000050: 670e 913d bd85 933d 621e 553d b679 90bd
00000060: cd91 ad3d 469b 1fbd 19c1 993c 8f29 6e3b
00000070: cfcc 873d 9505 efbc 0ea9 d1bc 490b 9c3d
00000080: 488d cf3c 9315 8abd 7b96 4dbd 3db2 a53d
00000090: 6a3e df3c 4a07 823d 4faf 8e3d 97a5 943d
000000a0: 07cf 9fbb 7fcc a3bd 6f3b 0e3d a204 06bd
000000b0: 845c 73bd 41ac da3b 3259 a1bd d74f 823b
000000c0: 8839 b03c 25c8 333c 899d f23c e7fb 613a
000000d0: 01d4 f2bc 04ca 923c 2952 3c3d 440d f23c
000000e0: c94d 40bd b268 c13d b105 a6bd 9c39 993d
000000f0: 58e9 98bc 6149 aabc 9a1a 32bc 20f7 3cbd
00000100: 9029 86bc 73fa b1bd 04ac ddbc 1810 39bd
00000110: d70e 4e3c 7851 63bd 31ee 01bd 397d 84bc
00000120: b18c 6bbc 055b ecbc 2478 8bbc 7b67 ba3c
00000130: ebb2 01bc b0e8 993d 90ff a73d 9c17 90bd
00000140: 8650 38bd ee1f a0bd 8ec1 8f3d c2e1 d839
00000150: 36f2 123d 4349 07ba 8361 0e3d 380c a0bd
00000160: 63e5 31bb f1cf 6c3d 320c 23bb 9ee0 3fbc
00000170: bf22 9fbd 0cc2 623d ab50 f63c 3299 b53d
00000180: d066 483d d1d3 19bd 83c4 ba3d 657c 0b3c

mlp2.2.weight f4 [50, 100]
0.09365981 0.038590636 0.06616654 -0.07173541 0.035289258 -0.0047796834 0.023449605 0.03548985
-0.032268185 -0.026898095 -0.056689903 -0.0744433 0.02726655 0.022203868 -0.056692276 -0.048695996
0.07194786 0.032314975 0.09622004 -0.06198662 0.032413002 -0.041202154 -0.029152289 -0.02747169
-0.016970506 0.08713479 0.056478888 -0.054685973 -0.06271002 0.0055280845 0.05084269 -0.030543065
-0.061941765 0.07045818 0.02184371 -0.076352336 0.050978545 -0.05063216 0.08750463 0.0349371
0.043831408 0.089826435 -0.037555456 -0.027148513 0.032027192 0.006846637 -0.049352325 0.024352709
0.022138773 0.068644874 -0.03505024 0.07644492 0.083950795 0.067099586 -0.0718809 0.023682773
0.018592568 0.025643222 -0.0868671 0.047353804 -0.016182736 0.010047937 0.0945605 0.02208701
0.05699369 0.027011666 0.100999594 0.019954732 -0.047400765 0.0041396236 -0.008743101 0.03717614
-0.0076989452 -0.059220064 0.07534931 -0.05421701 -0.06492649 -0.03811777 0.010166632 -0.009707889
0.07611954 0.012662441 -0.08074304 -0.05923256 -0.094791636 -0.0662493 0.045949366 -0.060937792
0.07802415 -0.078697644 -0.049019165 -0.015186228 -0.03461067 0.03365848 0.08813013 -0.091659434
-0.032004412 0.006723873 0.03372737 -0.091852404 -0.18789852 -0.035846543 -0.0707623 0.017748008
-0.086949475 -0.029988782 -0.0098176915 -0.06936903 0.048031237 -0.07177112 0.08903642 -0.021220604
-0.04772116 -0.027838234 -0.0939633 0.09150779 0.049882933 -0.14953181 -0.096385404 -0.08043782
-0.03108505 0.11359469 0.111158274 0.08597969 0.019463122 0.063985094 -0.06807876 -0.10286977
0.08615035 -0.1184723 0.04627142 -0.05368866 -0.017689908 0.073356286 -0.011238434 0.033230383
0.086454004 -0.027836615 0.026875617 0.11458197 0.0058888374 -0.06115167 0.1168791 0.05054143
0.067382656 -0.100353576 0.0071636587 0.018546784 0.039093077 0.047772527 0.10181901 -0.11291961
0.08839527 0.015780924 -0.1266012 -0.059481073 0.05616574 0.06574104 0.04512063 -0.04799612
0.0443644 -0.08704565 0.020903265 -0.025108319 -0.08467405 -0.040436864 -0.034402497 -0.005806578
0.010115398 -0.009419506 -0.091384135 -0.06557416 -0.09770048 -0.08666758 0.07591188 -0.069645375
-0.09461062 0.018155018 0.015158768 0.031965274 0.009087323 -0.03350196 0.052845374 0.017197054
0.081518516 -0.07163897 0.08714596 0.06705066 -0.10149438 0.023484616 0.0042526065 -0.018731862
-0.07587603 -0.03336495 0.10488918 -0.07806588 -0.019090846 -0.12917626 -0.023753319 0.036642313
0.12287311 -0.052056614 -0.023383113 0.10090956 0.05276685 0.08909196 0.06478901 -0.08512388
-0.060427297 -0.051879924 0.056892037 0.014537816 -0.041491892 0.07831438 0.004299952 0.03654273
0.07716822 0.0019803867 -0.066981494 0.08939656 0.024358777 -0.042350605 -0.08340519 0.05694686
-0.03738127 -0.09364919 0.013559289 0.10491888 -0.04549303 0.11347865 -0.07130996 0.077167094
0.014935072 -0.015822802 -0.001988752 0.04949415 0.063685365 0.074819356 -0.031068964 0.008626334
-0.02915834 -0.009120682 -0.06194876 -0.07129493 0.08658982 -0.016056122 -0.027825035 -0.07376975
-0.059258174 0.016004587 0.073651895 0.08920979 0.0618591 0.08925568 0.06006297 0.04925745
00000000: b7d0 bf3d 3711 1e3d 5382 873d 04ea 92bd
00000010: 788b 103d e49e 9cbb 6319 c03c ce5d 113d
00000020: a52b 04bd 6559 dcbc ac33 68bd bb75 98bd
00000030: 1a5e df3c e3e4 b53c 2936 68bd 7475 47bd
00000040: 6659 933d b55c 043d 030f c53d afe5 7dbd
00000050: 7fc3 043d 97c3 28bd c8d0 eebc 4f0c e1bc
00000060: bb05 8bbc ba73 b23d 6856 673d 66fe 5fbd
00000070: 1c6e 80bd ef24 b53b 6d40 503d 7335 fabc
00000080: a6b6 7dbd 614c 903d 95f1 b23c 9d5e 9cbd
00000090: e1ce 503d ab63 4fbd a135 b33d 341a 0f3d
000000a0: 9088 333d ecf6 b73d c0d3 19bd 8f66 debc
000000b0: f22e 033d c159 e03b aa25 4abd 557f c73c
000000c0: 5f5c b53c af95 8c3d d790 0fbd 278f 9c3d
000000d0: 65ee ab3d 826b 893d 4b36 93bd 6002 c23c
000000e0: 714f 983c bc11 d23c 61e7 b1bd 10f6 413d
000000f0: a891 84bc 1aa0 243c efa8 c13d d1ef b43c
00000100: 3772 693d 9247 dd3c e0d8 ce3d 1b78 a33c
00000110: 4e27 42bd aea5 873b 393f 0fbc 0246 183d
00000120: 6f47 fcbb bd90 72bd bd50 9a3d a812 5ebd
00000130: 2ef8 84bd 6121 1cbd f291 263c d60d 1fbc
00000140: 90e4 9b3d 2076 4f3c 9b5c a5bd d79d 72bd
00000150: 1e22 c2bd b7ad 87bd 6735 3c3d e899 79bd
00000160: 20cb 9f3d 3b2c a1bd 52c8 48bd a8cf 78bc
00000170: ebc3 0dbd 79dd 093d 927d b43d f1b7 bbbd
00000180: 0f17 03bd ef53 dc3b b625 0a3d 1d1d bcbd
00000190: 7868 40be d3d3 12bd d3eb 90bd 4564 913c
000001a0: 9112 b2bd 09ab f5bc 62da 20bc 5a11 8ebd
000001b0: 67bc 443d bdfc 92bd ba58 b63d d5d6 adbc
000001c0: 4377 43bd 020d e4bc d56f c0bd 7068 bb3d
000001d0: 0c52 4c3d de1e 19be b665 c5bd 95bc a4bd
000001e0: 13a6 febc 55a4 e83d f3a6 e33d 1f16 b03d
000001f0: 2071 9f3c 9e0a 833d e06c 8bbd 63ad d2bd
00000200: 986f b03d 9ba1 f2bd 1a87 3d3d a4e8 5bbd
00000210: 6dea 90bc d23b 963d 6921 38bc 951c 083d
00000220: cc0e b13d 9d09 e4bc 412a dc3c f4a9 ea3d
00000230: 26f7 c03b 2c7a 7abd 4f5e ef3d 8804 4f3d
00000240: ebff 893d 2d86 cdbd 20bd ea3b 6def 973c
00000250: 1020 203d 20ad 433d 7c86 d03d 6642 e7bd
00000260: 9408 b53d ff46 813c bfa3 01be 6da2 73bd
00000270: 0c0e 663d 3da3 863d 69d0 383d 9497 44bd
00000280: 72b7 353d fd44 b2bd 533d ab3c f6af cdbc
00000290: 9769 adbd 20a1 25bd a2e9 0cbd 1b45 bebb
000002a0: 0ebb 253c 4654 1abc 9b27 bbbd bf4b 86bd
000002b0: 3017 c8bd c67e b1bd b077 9b3d 3ca2 8ebd
000002c0: 36c3 c1bd d5b9 943c 7b5c 783c 05ee 023d
000002d0: ffe2 143c 5a39 09bd 6474 583d d6e0 8c3c
000002e0: 2ef3 a63d 74b7 92bd 9579 b23d db51 893d
000002f0: 49dc cfbd cf62 c03c 7359 8b3b 9073 99bc
00000300: e464 9bbd b0a9 08bd 23d0 d63d 01e1 9fbd
00000310: 6864 9cbc c846 04be 5296 c2bc 4016 163d
00000320: e6a4 fb3d 5139 55bd f18d bfbc aca9 ce3d
00000330: 0d22 583d d875 b63d 1ab0 843d 6e55 aebd
00000340: 9d82 77bd 0b80 54bd a007 693d 0530 6e3c
00000350: 67f3 29bd 4a63 a03d 9de6 8c3b d4ad 153d
00000360: 5f0a 9e3d 60c9 013b 982d 89bd 8b15 b73d
00000370: 0f8c c73c d477 2dbd 57d0 aabd 1c41 693d
00000380: 1a1d 19bd 26cb bfbd c827 5e3c b6df d63d
00000390: e656 3abd 7f67 e83d f50a 92bd c809 9e3d
000003a0: 3bb2 743c d29e 81bc b955 02bb 61ba 4a3d
000003b0: 796d 823d e43a 993d 5784 febc 7855 0d3c
000003c0: 79dd eebc ea6e 15bc fcbd 7dbd 1403 92bd
000003d0: 0156 b13d 2188 83bc 54f1 e3bc 9814 97bd
000003e0: b3b8 72bd 0d1c 833c ced6 963d 9fb3 b63d
000003f0: f85f 7d3d afcb b63d 9704 763d 2ec2 493d

mlp2.2.bias f4 [50]
0.009862284 -0.07526667 0.0015026378 0.037175942 0.06438425 -0.023611292 0.07284015 -0.04379709
-0.033017017 -0.07490022 0.06823819 0.00269519 -0.06417461 0.06979481 -0.105108105 0.0004370123
0.06245374 0.021390397 0.08291453 -0.003296182 -0.06716743 0.04142495 -0.08949652 -0.070818715
-0.013524509 0.00915771 -0.027938103 -0.07252988 -0.08379349 0.06859489 -0.020622065 0.0628435
-0.0002370507 -0.085827366 0.023701882 0.05569827 -0.024995703 -0.089878276 -0.074248 -0.030222744
0.067874216 -0.09851346 -0.08797515 0.033001058 0.06316982 0.018507738 -0.020675868 0.022223314
-0.08488099 -0.048711248
00000000: 6b95 213c 6925 9abd 28f4 c43a cd45 183d
00000010: e4db 833d 786c c1bc 372d 953d 9464 33bd
00000020: da3c 07bd 4965 99bd 77c0 8b3d c9a1 303b
00000030: fa6d 83bd 95f0 8e3d eb42 d7bd cc1e e539
00000040: 7ecf 7f3d ea3a af3c 18cf a93d c204 58bb
00000050: 148f 89bd 35ad 293d f449 b7bd 6709 91bd
00000060: e795 5dbc 380a 163c 73de e4bc 8c8a 94bd
00000070: ec9b abbd 7a7b 8c3d 9bef a8bc 18b4 803d
00000080: d090 78b9 42c6 afbd 732a c23c df23 643d
00000090: cac3 ccbc 1a12 b8bd 560f 98bd b095 f7bc
000000a0: a301 8b3d 6dc1 c9bd 512c b4bd 1e2c 073d
000000b0: 2e5f 813d 8a9d 973c 7060 a9bc ab0d b63c
000000c0: 16d6 adbd 7285 47bd

attention.0.weight f4 [100, 200]
-0.03583562 0.0054616705 -0.05233269 -0.03347849 0.040547743 -0.008099761 0.054600053 0.03231463
-0.008123778 -0.0674158 0.035379115 0.06741281 0.024467215 -0.023340663 0.033167575 -0.060636528
-0.033501517 -0.0021330547 0.02700103 -0.0042285244 -0.0018525389 -0.051063612 0.001286854 0.058516823
-0.06253893 -0.053824168 0.021148942 -0.050138414 0.063996434 0.054673534 0.0028677296 -0.0029370703
-0.019150123 -0.06741067 -0.007169229 0.029237522 -0.06995311 -0.056836504 -0.03364524 -0.039708357
-0.0522819 0.062928684 0.0491648 0.05013123 -0.012533834 -0.06672832 0.0016057376 -0.017495673
0.016392618 -0.07006653 0.015906569 -0.06795936 0.06783203 -0.019020023 -0.06278549 -0.067072146
-0.04296123 0.027532855 -0.023667205 0.019152347 0.05053816 -0.021286275 0.006376606 0.049318224
-0.0019671544 -0.021758407 0.04804122 0.06626718 -0.06285479 0.06855885 -0.028279768 0.067434154
0.0063959733 -0.044875186 0.032426354 -0.007884602 -0.048527002 -0.025635432 -0.03089525 -0.044363607
0.05605472 0.025527216 0.032352563 0.062043175 0.04319965 0.008161815 0.041439775 -0.05248866
-0.05503628 -0.030570146 -0.03087512 0.046155415 0.025506822 0.0076367627 -0.033833094 0.027173448
-0.03141502 -0.017919734 0.011007249 0.026320718 -0.045463484 0.028079823 0.06854374 -0.015874755
-0.04331225 0.048895154 0.00062382966 -0.066846006 -0.045023035 0.058798227 0.046564348 -0.0544211
0.040325455 0.006512782 -0.0685618 0.032867625 -0.048664913 -0.010269039 -0.03173397 -0.055556737
0.02500797 0.005627243 0.04542871 0.05586844 -0.02017483 0.009147204 0.055149518 -0.0028033375
-0.053067524 0.008257302 -0.018279254 0.011910239 -0.022214489 -0.03141717 -0.013383801 0.053775355
-0.012793229 -0.06345502 -0.067741245 0.06674173 0.004217908 -0.056543034 -0.034814257 -0.039601035
0.06006084 0.008717221 0.049616657 -0.040074892 -0.043839537 0.06649969 -0.05169128 -0.06197656
0.018943043 0.059770912 0.060681574 0.041963924 -0.07001043 0.06435694 0.03004232 0.0009685794
0.019667467 -0.047213033 0.04343688 -0.040278777 0.033608623 0.018817829 0.0005363026 0.004807628
-0.0035981864 0.043841843 -0.013694597 0.0451814 -0.0027220692 0.06743411 0.06000625 0.06552117
0.017021649 -0.029374333 -0.06368294 0.019794226 -0.048376456 -0.0490506 -0.0667569 0.05383971
-0.058898717 -0.00970315 -0.06275099 -0.056911964 -0.011508938 -0.010209101 0.04734838 -0.048946016
-0.068042114 -0.06274989 0.05638442 0.023891052 0.041960303 -0.06989725 0.022921547 -0.018126002
0.027676798 0.02633506 -0.025233556 -0.0003217486 0.06794565 0.07024165 -0.047273476 0.00818447
-0.05000208 0.012165361 -0.037591323 0.0054973825 -0.012918279 -0.044492517 -0.06673426 -0.0669581
-0.0036161393 -0.025273215 0.068594016 -0.046233974 0.013594925 -0.05744958 -0.027008852 0.023254544
0.049102373 0.04064858 -0.04902165 -0.022490699 -0.020047233 0.06435504 -0.047200665 -0.055910032
-0.0321873 -0.035469037 0.050484873 -0.030255329 0.0618053 -0.06630432 -0.048229747 -0.039635167
0.0064590797 -0.033130348 0.051385812 -0.021737896 0.05467204 -0.011358846 0.051673207 0.015548378
-0.017279238 -0.03388923 0.03123381 -0.048513714 0.0075927377 0.06120821 0.050560392 -0.0032265037
00000000: 5fc8 12bd d0f7 b23b ce5a 56bd be20 09bd
00000010: 6415 263d dcb4 04bc 4ea4 5f3d 585c 043d
00000020: 9819 05bc 4c11 8abd b1e9 103d ba0f 8a3d
00000030: 786f c83c eb34 bfbc b9da 073d 025e 78bd
00000040: e338 09bd b8ca 0bbb 4431 dd3c 6f8f 8abb
00000050: e4d0 f2ba 1428 51bd a8ab a83a 56af 6f3d
00000060: 6914 80bd bb76 5cbd 8c40 ad3c f05d 4dbd
00000070: 9010 833d 5bf1 5f3d 85f0 3b3b dd7b 40bb
00000080: b8e0 9cbc 9b0e 8abd daeb eabb 8783 ef3c
00000090: 9343 8fbd 65cd 68bd 97cf 09bd 3ba5 22bd
000000a0: 8c25 56bd c1e0 803d 0861 493d 6856 4d3d
000000b0: b65a 4dbc dca8 88bd 9d77 d23a 1653 8fbc
000000c0: d049 863c 0a7f 8fbd 7e4e 823c 472e 8bbd
000000d0: 85eb 8a3d e1cf 9bbc ae95 80bd 1f5d 89bd
000000e0: 1df8 2fbd 958c e13c bae1 c1bc 62e5 9c3c
000000f0: 1a01 4f3d 8e60 aebc d9f2 d03b e801 4a3d
00000100: 60eb 00bb b03e b2bc dfc6 443d 16b7 873d
00000110: 03ba 80bd 9568 8c3d f9aa e7bc eb1a 8a3d
00000120: 5095 d13b 0bcf 37bd 7fd1 043d 6b2e 01bc
00000130: 40c4 46bd 6601 d2bc 0918 fdbc 9db6 35bd
00000140: a299 653d 741e d13c 1f84 043d fc20 7e3d
00000150: 1ef2 303d 22b9 053c c1bc 293d 59fe 56bd
00000160: b96d 61bd 3e6e fabc d2ed fcbc 760d 3d3d
00000170: aff3 d03c cf3d fa3b 9294 0abd da9a de3c
00000180: 09ad 00bd 68cc 92bc c057 343c 8c9e d73c
00000190: eb37 3abd a807 e63c a960 8c3d c60b 82bc
000001a0: 3068 31bd 4946 483d 8088 233a 8fe6 88bd
000001b0: 136a 38bd 69d6 703d 42ba 3e3d a9e8 5ebd
000001c0: 4e2c 253d 2d69 d53b 216a 8cbd 34a0 063d
000001d0: dc54 47bd 793f 28bc 7bfb 01bd 768f 63bd
000001e0: 84dd cc3c bc64 b83b 7413 3a3d 4ed6 643d
000001f0: af45 a5bc 28de 153c 76e4 613d 33b8 37bb
00000200: 555d 59bd a349 073c 60be 95bc 2a23 433c
00000210: 29fb b5bc 4aaf 00bd bb47 5bbc 8c43 5c3d
00000220: b19a 51bc b5f4 81bd ecbb 8abd e3af 883d
00000230: 6036 8a3b ab99 67bd 6599 0ebd b234 22bd
00000240: 5b02 763d add2 0e3c d63a 4b3d 9225 24bd
00000250: 1691 33bd fd30 883d 3cba 53bd 22db 7dbd
00000260: 712e 9b3c 58d2 743d 3e8d 783d 5de2 2b3d
00000270: a161 8fbd 92cd 833d 501b f63c 43e8 7d3a
00000280: ab1d a13c 7462 41bd dfea 313d 5cfb 24bd
00000290: 32a9 093d d927 9a3c a996 0c3a 4f89 9d3b
000002a0: 8dcf 6bbb 8193 333d 4e5f 60bc 2210 393d
000002b0: be64 32bb e51a 8a3d 1dc9 753d f72f 863d
000002c0: fc70 8b3c 71a2 f0bc 346c 82bd 8027 a23c
000002d0: 6426 46bd 48e9 48bd d7b7 88bd 0787 5c3d
000002e0: c83f 71bd f6f9 1ebc 9783 80bd 851c 69bd
000002f0: fc8f 3cbc 1344 27bc 60f0 413d 9e7b 48bd
00000300: aa59 8bbd 0483 80bd 59f3 663d 2bb7 c33c
00000310: 91de 2b3d 4a26 8fbd f8c5 bb3c fb7c 94bc
00000320: 74ba e23c a0bc d73c 9ab6 cebc 5eb0 a8b9
00000330: 1727 8b3d dbda 8f3d d5a1 41bd 2818 063c
00000340: fbce 4cbd 3951 473c 5cf9 19bd 6323 b43b
00000350: 30a7 53bc c93d 36bd f9ab 88bd 5421 89bd
00000360: c0fc 6cbb c609 cfbc 057b 8c3d d65f 3dbd
00000370: 40bd 5e3c 4050 6bbd ab41 ddbc 5080 be3c
00000380: 921f 493d 207f 263d edca 48bd 6a3e b8bc
00000390: 183a a4bc 93cc 833d 7c55 41bd eb01 65bd
000003a0: d5d6 03bd fb47 11bd 3ac9 4e3d 06da f7bc
000003b0: 8e27 7d3d 8fca 87bd 8e8c 45bd 7c58 22bd
000003c0: b0a6 d33b b0b3 07bd ee79 523d ac13 b2bc
000003d0: caef 5f3d 741a 3abc 49a7 533d a0be 7e3c
000003e0: 308d 8dbc 6fcf 0abd 0cde ff3c 51b6 46bd
000003f0: 80cc f83b 76b5 7a3d 6a18 4f3d c073 53bb

attention.0.bias f4 [100]
-0.009611955 -0.030058373 0.05011568 -0.0024272227 -0.056766197 -0.021422116 -0.016261118 0.03397932
0.020121204 0.022318698 -0.067592084 -0.05422394 -0.0010511961 0.016444175 -0.06395285 -0.0385752
0.0037300952 0.00025305076 0.06827344 -0.03148212 0.021059632 0.054870743 0.010801117 0.038476408
-0.032007124 -0.04555204 0.033237223 -0.014473232 -0.018211864 0.020484626 0.03465133 0.009303563
-0.062453236 0.04887152 -0.035685327 0.00027937425 -0.0335249 0.026654815 -0.06230099 -0.009321391
-0.038411252 0.06476342 0.055506915 -0.007419076 0.020763738 -0.037054673 0.053683087 0.063669614
-0.01798776 -0.01425183 -0.014493797 -0.016755266 0.07364965 0.018286796 -0.052817177 -0.071656466
0.0638963 0.02906838 0.02663508 0.03284988 0.06275484 -0.020428434 0.033879817 0.001600416
-0.01629119 -0.056082085 0.042940244 0.05420498 0.014276217 0.055782206 -0.05557683 -0.051011402
-0.057868473 -0.04105893 -0.02798361 -0.06835374 -0.0041665724 -0.04755484 -0.019089477 -0.019224321
0.041316643 -0.05065268 0.052743085 -0.027233873 -0.06941398 -0.060330674 -0.016908215 -0.026486743
0.04251897 0.035985973 0.032327298 0.025642194 -0.04590012 -0.0189896 0.018037528 -0.035769824
-0.051655497 -0.069781005 -0.039041057 -0.029659614
00000000: 767b 1dbc fa3c f6bc 1946 4d3d 0a12 1fbb
00000010: ac83 68bd 6f7d afbc 0936 85bc e62d 0b3d
00000020: 39d5 a43c b4d5 b63c b86d 8abd ec19 5ebd
00000030: 4ac8 89ba efb5 863c b6f9 82bd 0701 1ebd
00000040: 9d74 743b e6ab 8439 f2d2 8b3d 65f3 00bd
00000050: 4085 ac3c 25c0 603d 2bf7 303c 7099 1d3d
00000060: e719 03bd c794 3abd c123 083d 2321 6dbc
00000070: 0c31 95bc 60cf a73c 8eee 0d3d f96d 183c
00000080: f7ce 7fbd 812d 483d c72a 12bd fa78 9239
00000090: 6851 09bd 335b da3c 532f 7fbd bfb8 18bc
000000a0: 1e55 1dbd afa2 843d 385b 633d b81b f3bb
000000b0: b718 aa3c a4c6 17bd cce2 5b3d 3765 823d
000000c0: 115b 93bc 8280 69bc 6477 6dbc 5742 89bc
000000d0: a1d5 963d 31ce 953c d356 58bd a0c0 92bd
000000e0: 10dc 823d d020 ee3c d031 da3c 998d 063d
000000f0: 9c85 803d 8859 a7bc 90c5 0a3d 0dc5 d13a
00000100: 1a75 85bc 54b6 65bd 1ce2 2f3d 0b06 5e3d
00000110: cbe6 693c e27b 643d 88a4 63bd 55f1 50bd
00000120: 7e07 6dbd 692d 28bd e23d e5bc 0cfd 8bbd
00000130: be87 88bb ddc8 42bd 8961 9cbc 537c 9dbc
00000140: a43b 293d 2f79 4fbd 2209 583d 9219 dfbc
00000150: eb28 8ebd 4c1d 77bd 1983 8abc bafa d8bc
00000160: 5f28 2e3d 0766 133d a169 043d 940f d23c
00000170: c401 3cbd 1490 9bbc 70c3 933c 6183 12bd
00000180: b794 53bd 58e9 8ebd 84e9 1fbd b8f8 f2bc

attention.2.weight f4 [100, 100]
0.093493976 -0.044548 0.08328433 0.06418058 -0.017103516 0.032979853 0.093563214 -0.05004677
0.058079865 0.044501532 0.04109902 0.050091837 0.0896002 -0.005172174 0.038703028 -0.055235382
-0.0420621 -0.09257427 -0.052760873 -0.06378795 -0.080886096 -0.042783402 -0.08140913 0.098172404
0.07180813 0.0007048677 -0.057691976 -0.080561645 0.0061698966 -0.04045605 -0.06773771 -0.051385976
-0.09079837 -0.08627009 -0.01516991 -0.029028427 -0.0133352205 0.015458833 0.07380119 0.09058923
-0.0010166317 -0.033478793 -0.04736962 0.0010467693 0.08769483 -0.0072896495 0.023725087 0.08289207
-0.044789843 0.021924462 0.009286758 -0.07859397 0.06472124 0.09552332 0.02992012 0.021130806
0.08031416 -0.06161183 0.05143897 0.091697484 0.012297524 0.03645161 -0.020496737 0.053772755
0.014144882 0.09494838 -0.08027981 -0.039293278 -0.05926062 -0.050937824 0.07642709 -0.09120556
-0.0031561027 -0.030716956 0.08664258 -0.09136453 -0.094282895 0.029748008 -0.052690808 -0.033582643
0.0025119649 -0.052871633 -0.094027214 -0.037336648 -0.004472221 0.051735025 0.033608764 -0.07021928
0.09671151 0.020911582 0.07236182 0.040565427 0.06830922 -0.0944612 -0.02460194 0.07911117
0.016628258 -0.08298705 0.086334236 -0.06684291 -0.08958409 0.04696683 0.086148374 -0.039324258
0.07607297 0.09619246 -0.01254436 -0.0824112 0.04065055 0.047280136 0.07330606 0.03849834
0.06389667 0.06552257 0.008272008 -0.072700374 -0.04765823 -0.040980197 -0.004431504 -0.08879901
-0.09202091 -0.054942437 0.04493776 0.0037509028 0.03194664 0.037446108 -0.0042136307 -0.035815526
0.0464127 -0.010745605 -0.023733305 0.08513505 0.038789928 -0.0694636 0.052196164 0.07948196
-0.047155473 0.07170009 0.031028556 -0.05543924 0.0250695 -0.076763645 -0.08951174 0.09237356
0.036279656 0.09269714 0.047546253 -0.08925832 -0.0678758 -0.048759714 -0.05507212 0.028653352
0.0708898 -0.093440905 -0.011864891 0.012679441 0.06314315 -0.07423029 0.06553665 -0.088914394
-0.058194634 0.099193156 -0.03364908 0.058374815 -0.04808273 -0.059941515 0.045953684 -0.007816098
0.07145963 -0.09339467 0.07938147 -0.02037215 -0.005773778 -0.026953973 -0.09648995 0.06251586
0.07419347 -0.09363404 0.048085805 -0.09317472 0.017764589 -0.013734764 -0.08739154 -0.08008431
-0.054376226 0.049565077 0.07620624 -0.07611645 0.030074079 0.049555514 -0.066251636 0.05615661
0.01477272 0.03999797 0.08210866 -0.051614966 0.047164865 0.003100758 -0.003778958 0.009036386
0.066424675 0.034831412 0.041589208 -0.012783013 0.070161365 -0.08010627 0.046154328 0.04822748
-0.024049021 -0.046833683 0.024223581 -0.05994424 -0.010490015 0.014545426 -0.014263354 -0.0007741302
0.04164373 -0.0101128 -0.04948304 -0.05042089 0.05314357 0.078864716 0.0824179 -0.09552281
0.07804198 -0.0609756 0.050341837 -0.054116823 0.072866626 -0.09398587 0.07691605 -0.09926456
-0.008344986 -0.055167984 0.061284386 -0.0007006675 0.024020687 6.790459e-05 0.01611489 -0.054335523
-0.074240245 -0.057126712 -0.032674447 -0.027095161 -0.090834975 -0.061248936 -0.053184927 -0.023239508
-0.049562465 0.012249827 -0.06362842 0.03776104 0.06236229 -0.08698509 -0.01013355 0.012778543
00000000: c579 bf3d f777 36bd fa90 aa3d 1c71 833d
00000010: ac1c 8cbc e215 073d 129e bf3d d8fd 4cbd
00000020: 27e5 6d3d 3d47 363d 7257 283d 192d 4d3d
00000030: 4f80 b73d 577b a9bb 1187 1e3d 7f3e 62bd
00000040: 4f49 2cbd 9497 bdbd c91b 58bd 42a3 82bd
00000050: 9ca7 a5bd a63d 2fbd d4b9 a6bd 9d0e c93d
00000060: 2410 933d dfc6 383a 6c4e 6cbd 81fd a4bd
00000070: d82c ca3b 3eb5 25bd 12ba 8abd 1a7a 52bd
00000080: 7ff4 b9bd 5fae b0bd 378b 78bc 06cd edbc
00000090: f87b 5abc 0c47 7d3c 1425 973d d986 b93d
000000a0: 8040 85ba 0f21 09bd a606 42bd c033 893a
000000b0: 5999 b33d 03de eebb 1d5b c23c 51c3 a93d
000000c0: 8e75 37bd ee9a b33c 7c27 183c e0f5 a0bd
000000d0: 928c 843d bba1 c33d 0a1b f53c 831a ad3c
000000e0: c07b a43d b05c 7cbd abb1 523d e4cb bb3d
000000f0: 8e7b 493c 494e 153d c6e8 a7bc d240 5c3d
00000100: efbf 673c 4c74 c23d be69 a4bd fdf1 20bd
00000110: 44bb 72bd 2ea4 50bd ce85 9c3d fbc9 babd
00000120: 9ed6 4ebb 20a2 fbbc aa71 b13d 541d bbbd
00000130: 6417 c1bd 18b2 f33c 51d2 57bd f48d 09bd
00000140: c79f 243b ed8f 58bd 5791 c0bd 50ee 18bd
00000150: b58b 92bb 1be8 533d 58a9 093d 20cf 8fbd
00000160: af10 c63d c44e ab3c 6f32 943d ef27 263d
00000170: b4e5 8b3d e074 c1bd 028a c9bc 0905 a23d
00000180: fc37 883c 1df5 a9bd 01d0 b03d f0e4 88bd
00000190: dd77 b7bd 4a60 403d 8f6e b03d 7912 21bd
000001a0: 25cc 9b3d 8d00 c53d dc86 4dbc 34c7 a8bd
000001b0: 3181 263d d1a8 413d 7d21 963d 6fb0 1d3d
000001c0: 42dc 823d b230 863d 5187 073c efe3 94bd
000001d0: 4735 43bd dada 27bd 2636 91bb 41dc b5bd
000001e0: 7575 bcbd 520b 61bd a810 383d b5d1 753b
000001f0: 7bda 023d 1761 193d 7f12 8abb 4db3 12bd
00000200: 3e1b 3e3d 560e 30bc 596c c2bc 495b ae3d
00000210: 30e2 1e3d ef42 8ebd a5cb 553d 70c7 a23d
00000220: 1926 41bd 7fd7 923d 992f fe3c 4214 63bd
00000230: 8d5e cd3c 4236 9dbd ee51 b7bd 592e bd3d
00000240: fa99 143d 00d8 bd3d dcbf 423d 11cd b6bd
00000250: 7802 8bbd 44b8 47bd 4e93 61bd 6fba ea3c
00000260: ac2e 913d f25d bfbd f664 42bc 6ebd 4f3c
00000270: 3251 813d 0d06 98bd 1438 863d c018 b6bd
00000280: 7f5d 6ebd c825 cb3d 9ed3 09bd 6e1a 6f3d
00000290: 66f2 44bd 3c85 75bd ee39 3c3d 170f 00bc
000002a0: 6d59 923d b445 bfbd c192 a23d 7fe3 a6bc
000002b0: f631 bdbb 94ce dcbc 869c c5bd 5108 803d
000002c0: bff2 973d 34c3 bfbd 9ff5 443d 63d2 bebd
000002d0: 0b87 913c c707 61bc 56fa b2bd 3e03 a4bd
000002e0: 9bb9 5ebd c004 4b3d 0412 9c3d f1e2 9bbd
000002f0: ea5d f63c b9fa 4a3d f0ae 87bd 7904 663d
00000300: 4709 723c e9d4 233d 9628 a83d 376a 53bd
00000310: f22f 413d 1636 4b3b 65a8 77bb 5a0d 143c
00000320: a909 883d 62ab 0e3d 7259 2a3d d86f 51bc
00000330: c3b0 8f3d c20e a4bd 520c 3d3d 2e8a 453d
00000340: 7402 c5bc add4 3fbd 8870 c63c 1788 75bd
00000350: 50de 2bbc f04f 6e3c d8b0 69bc 00ef 4aba
00000360: 9e92 2a3d 28b0 25bc baae 4abd 2386 4ebd
00000370: 12ad 593d d383 a13d b7ca a83d 77a1 c3bd
00000380: 79d4 9f3d 8dc1 79bd 3e33 4e3d 9aa9 5dbd
00000390: 193b 953d aa7b c0bd 2986 9d3d 384b cbbd
000003a0: 68b9 08bc d3f7 61bd 5605 7b3d 00ad 37ba
000003b0: 08c7 c43c 0068 8e38 6003 843c ed8e 5ebd
000003c0: 450b 98bd b3fd 69bd a4d5 05bd acf6 ddbc
000003d0: b007 babd 2ae0 7abd 70d8 59bd c860 bebc
000003e0: 0302 4bbd 80b3 483c 9e4f 82bd 52ab 1a3d
000003f0: 9a6f 7f3d 3d25 b2bd 3007 26bc 185d 513c
