crowd_nav/data/output-lab-base-cases/rl_model.pth (torch_old, 389196 bytes, 20 tensors)

mlp1.0.weight f4 [150, 13]
0	0x3e653ba0	0.22386026
1	0x3d9fe1d2	0.07806744
2	0x3e16a946	0.1471301
3	0x3ddca296	0.10773198
4	0x3d5e9e25	0.054350037
5	0xbe9c09c2	-0.30476195
6	0xbe1f0c27	-0.1553198
7	0x3eccfe67	0.40037844
8	0xbd312e17	-0.043256845
9	0x3d23290e	0.039834075
10	0x3de00d32	0.10940017
11	0xbe3ff71a	-0.18746606
12	0x3da1b477	0.07895749
13	0xbdf8582e	-0.12126194
14	0xbe6732ca	-0.22577968
15	0xbc360480	-0.011109471
16	0x3e7e2c26	0.24821529
17	0x3dcef8af	0.101060264
18	0xbdf8f24e	-0.12155591
19	0xbd1bd880	-0.038048267
20	0xbd311b80	-0.043239117
21	0x3e6ed4d2	0.23323372
22	0x3d87b838	0.06626934
23	0xbd742a1c	-0.05961047
24	0xbdce6800	-0.1007843
25	0xbe6d9af6	-0.23203644
26	0x3c4e70f0	0.012600169
27	0xbe80e555	-0.25174966
28	0xbe65ead4	-0.22452861
29	0xbcf12d9a	-0.02944069
30	0xbe888f31	-0.26671746
31	0xbe8833a6	-0.26601905
32	0x3d4ee791	0.050513808
33	0x3e52c331	0.20582272
34	0xbe4e6e5b	-0.20159285
35	0x3e80265e	0.25029272
36	0xbdf2fc23	-0.118644975
37	0x3e04f88a	0.12985435
38	0xbe551e5b	-0.20812361
39	0x3e099c18	0.13438451
40	0x3e6a9cf4	0.22911435
41	0x3e5b8010	0.2143557
42	0xbaf0808b	-0.0018348856
43	0xbdafcda9	-0.085841484
44	0xbe882789	-0.26592663
45	0x3e6bbcc6	0.2302123
46	0x3d19a701	0.037512783
47	0xbe83f1b2	-0.25770336
48	0xbde5e45e	-0.11225198
49	0x3e6173fe	0.22016904
50	0x3ca94b60	0.020665824
51	0x3d2cd284	0.04219295
52	0xbe3fef84	-0.18743712
53	0xbe52b088	-0.20575154
54	0xbcbebb90	-0.023282796
55	0xbd5c79c1	-0.05382705
56	0xbc8cda61	-0.017193975
57	0x3e683c2d	0.22679205
58	0x3e9697ab	0.29412588
59	0xbbbee844	-0.005826028
60	0x3e4eebbd	0.20207115
61	0xbdb390d0	-0.08767855
62	0xbe4d7eac	-0.20067853
63	0xbe44288f	-0.19156097
64	0x3e23fc4d	0.16014214
65	0x3e26574e	0.16244242
66	0xbdb2f27c	-0.087376565
67	0xbe2be4c0	-0.1678648
68	0x3ca142ae	0.019685116
69	0xbc9864a5	-0.018602679
70	0xbe3eae6b	-0.18621223
71	0xbdd96a66	-0.10615997
72	0xbe7c2511	-0.24623515
73	0x3daadb5c	0.08342621
74	0xbe8e53b9	-0.2779825
75	0xbe0592c5	-0.1304427
76	0x3e40379f	0.18771218
77	0x3e832753	0.2561594
78	0x3e30093a	0.1719102
79	0xbe39035d	-0.18067689
80	0x3dddcd08	0.10830122
81	0x3db494c5	0.08817438
82	0x3db88ff6	0.09011833
83	0xbe805d99	-0.2507141
84	0xbe2f08dc	-0.17093223
85	0xbe9e557d	-0.30924597
86	0x3e4fa9c6	0.20279607
87	0xbe196ade	-0.14982173
88	0xbe47b97e	-0.19504353
89	0x3c4cee7c	0.012508031
90	0x3e211c0c	0.15733355
91	0xbe78c371	-0.24293305
92	0x3dc66aae	0.09688316
93	0x3e56fe56	0.20995459
94	0x3e83eb1d	0.25765315
95	0xbd68607a	-0.056732632
96	0x3db637e9	0.08897383
97	0x3e217225	0.15766199
98	0x3c2ff389	0.010739216
99	0x3e61c403	0.22047429
100	0x3d02baaa	0.031916298
101	0x3d716693	0.058935713
102	0xbdf9425c	-0.1217086
103	0xbe424925	-0.18973215
104	0x3e133dbb	0.14379017
105	0xbe01f304	-0.1269036
106	0xbdf4d91a	-0.11955471
107	0xbe387f4d	-0.18017311
108	0x3da563fa	0.0807571
109	0xbd98a20a	-0.074527815
110	0x3e8b4a98	0.27205348
111	0xbde11864	-0.1099098
112	0xbe5bacef	-0.21452688
113	0xbde610a3	-0.11233642
114	0x3dd6ee00	0.10494614
115	0x3e2bf517	0.16792713
116	0xbe47f79c	-0.19528049
117	0xbe517ebc	-0.20458502
118	0xbd6f1be3	-0.058376204
119	0xbdc936ba	-0.098248914
120	0x3e87db87	0.26534674
121	0xbdd50caa	-0.10402806
122	0xbe7b01b3	-0.24512367
123	0xbe862bbb	-0.2620524
124	0x3da307cf	0.07960474
125	0xb94411b3	-0.0001869861
126	0xbdae89c5	-0.08522371
127	0x3e5a4d4a	0.21318546
128	0x3debfa02	0.115222946
129	0xbe0ce95c	-0.13760895
130	0x3d938df1	0.072048075
131	0x3e5bcff0	0.2146604
132	0x3e7867c6	0.24258336
133	0x3e5393d0	0.20661855
134	0xbdb928fe	-0.09041022
135	0x3e012ebb	0.12615483
136	0xbe546db8	-0.2074498
137	0xbe66edd6	-0.22551665
138	0x3d0bafc7	0.03410318
139	0x3e88d760	0.26726818
140	0x3e80bb8d	0.2514309
141	0x3d968fd1	0.073516496
142	0xbe60e1e0	-0.21961164
143	0xbe2a4a51	-0.16629912
144	0x3d3710a6	0.04469361
145	0x3e6360fe	0.22204968
146	0xbdf30247	-0.11865669
147	0xbe08fb8d	-0.13377209
148	0x3ce6bb5c	0.028165512
149	0xbb1395ef	-0.0022519787
150	0x3e1871a2	0.14887097
151	0x3e8c290a	0.2737506
152	0xbe317327	-0.17329083
153	0x3db93701	0.09043694
154	0xbe7d107e	-0.24713323
155	0xbd397f55	-0.04528745
156	0xbcc6dd73	-0.024275517
157	0xbd1fd6a6	-0.039023064
158	0x3c8ce490	0.01719883
159	0x3e0ca68f	0.13735412
160	0xbd47edc3	-0.04881073
161	0xbb8c0c15	-0.004273901
162	0xbe8d149b	-0.27554783
163	0xbba1ee78	-0.004941758
164	0xbe7eed33	-0.24895172
165	0xbe8f6555	-0.28006998
166	0xbe3f910b	-0.18707673
167	0x3e96b800	0.29437256
168	0x3d972093	0.0737926
169	0xbe3c143d	-0.18367095
170	0xbe43569e	-0.1907601
171	0xbbc06040	-0.005870849
172	0xbe2dd24d	-0.16974755
173	0x3e50c15e	0.20386264
174	0xbe83ca4d	-0.2574028
175	0xbe123259	-0.14277019
176	0x3e8a7953	0.27045688
177	0xbe840346	-0.25783747
178	0xbe792c3b	-0.24333279
179	0xbe4901ff	-0.19629668
180	0xbd5f597f	-0.05452871
181	0xbda215ca	-0.07914312
182	0x3daa5136	0.08316271
183	0xba909010	-0.0011029262
184	0x3dfa9de8	0.122371495
185	0xbe415051	-0.18878295
186	0x3d9dc864	0.07704237
187	0xbe852d89	-0.26011303
188	0xbe9ec35c	-0.31008422
189	0xbe1166fc	-0.14199442
190	0xbcdb6fe5	-0.026786754
191	0xbca336b0	-0.019923538
192	0x3e3ec4cd	0.18629761
193	0xbe888eac	-0.2667135
194	0xbe465283	-0.19367413
195	0xbe3c54e7	-0.18391763
196	0xbd6c0a2f	-0.0576269
197	0xbd7b3550	-0.06133014
198	0x3e45efb2	0.19329718
199	0x3e625dfb	0.22106163
200	0xbd2ac6b3	-0.0416934
201	0xbe564493	-0.20924596
202	0x3d4e27bf	0.050330874
203	0x3e674cda	0.2258791
204	0xbdbd863e	-0.0925412
205	0xbe438c2a	-0.19096437
206	0xbe5d6b6a	-0.21623006
207	0x3db15a8d	0.08659849
208	0x3b7a4389	0.0038187227
209	0xbd816f5f	-0.063200705
210	0xbde5cd7a	-0.11220832
211	0x3d1ece11	0.03877074
212	0xbe3b6905	-0.1830178
213	0x3c61b434	0.013775874
214	0x3d842b9e	0.06453632
215	0x3e6ddb52	0.23228195
216	0x3e9fe53e	0.31229585
217	0x3dc9ae79	0.09847731
218	0xbb12db32	-0.0022408483
219	0x3de16de5	0.11007289
220	0x3e060ee4	0.13091618
221	0xbe3a272c	-0.18179005
222	0xbdb3ff1e	-0.08788894
223	0x3c567000	0.013088226
224	0xbd4a040b	-0.049320262
225	0x3df935a1	0.12168432
226	0xbe34b15d	-0.17645784
227	0x3e7a33f5	0.24433883
228	0x3d8dfe4a	0.069332674
229	0x3e802601	0.25028995
230	0x3e1c00f9	0.15234746
231	0x3e63a01e	0.22229049
232	0xbdd8c3ad	-0.10584197
233	0x3e8c1e3f	0.27366826
234	0x3e146674	0.14492208
235	0x3ae6fec2	0.0017623531
236	0xbe4d5a24	-0.20053917
237	0xbc425755	-0.011861642
238	0xbe9a7351	-0.30166104
239	0x3e211c42	0.15733436
240	0xbe8adcff	-0.27121732
241	0x3dc5e392	0.09662546
242	0xbe47ba30	-0.19504619
243	0x3e485e89	0.19567312
244	0xbe0ded1f	-0.13859986
245	0xbe7a1eae	-0.24425766
246	0xbe0eb74e	-0.13937113
247	0x3db53417	0.08847826
248	0x3e2d3680	0.16915321
249	0x3e200cea	0.15629926
250	0x3e833346	0.25625056
251	0xbe2ae439	-0.16688623
252	0x3e8557f3	0.26043662
253	0x3e91479f	0.28374955
254	0xbe65b249	-0.22431292
255	0xbe0a465d	-0.13503404

mlp1.0.bias f4 [150]
0	0x3c0be31a	0.008538032
1	0x3d94f983	0.07274153
2	0xbe312ffa	-0.17303458
3	0x3e47f7cd	0.19528122
4	0x3dc6f03e	0.09713791
5	0x3e435d5e	0.19078586
6	0x3e5d6f6c	0.21624535
7	0xbdba12c8	-0.090856135
8	0xbd84055e	-0.06446336
9	0xbe8cd576	-0.27506608
10	0x3deade56	0.114681885
11	0x3e710db3	0.23540382
12	0x3e4dd22e	0.20099708
13	0x3db9a145	0.09063963
14	0x3e897c20	0.26852512
15	0x3e27a100	0.1637001
16	0x3e82c005	0.25537124
17	0xbd767495	-0.060169775
18	0xbd7122e7	-0.058871176
19	0x3dc110f7	0.09427064
20	0x3e3e7587	0.1859952
21	0x3d93d136	0.07217638
22	0xbd201467	-0.039081957
23	0x3e85e9e8	0.2615502
24	0xbc0a2406	-0.00843144
25	0x3e62e11a	0.22156182
26	0x3e1e09bb	0.154334
27	0xbe63e6c9	-0.22256006
28	0xbcce359a	-0.025172044
29	0xbe02893c	-0.12747663
30	0xbe3e7bb9	-0.18601884
31	0x3e731d87	0.23741733
32	0xbe08448d	-0.133074
33	0xbe91292e	-0.2835173
34	0xbe5ef551	-0.21773268
35	0x3e1b35b5	0.15157206
36	0xbe30c982	-0.17264369
37	0xbe4f31b6	-0.20233807
38	0xbd7485ab	-0.05969779
39	0xbde716aa	-0.1128362
40	0xbe41a6de	-0.18911311
41	0x3e882b47	0.26595518
42	0xbe676754	-0.2259801
43	0x3e66a643	0.22524361
44	0xbcc5f58c	-0.024164937
45	0x3e2816c0	0.16414928
46	0x3e5db349	0.21650423
47	0xbe894ce2	-0.2681647
48	0xbe6b6caa	-0.22990671
49	0x3e6fc7f3	0.23416118
50	0xbd71cd00	-0.059033394
51	0xbe125f13	-0.1429408
52	0x3e45bccf	0.19310306
53	0xbe550d32	-0.20805815
54	0xbcc6cca4	-0.024267502
55	0xbe8429e8	-0.25813222
56	0xbdffa9f4	-0.12483588
57	0x3e6886de	0.22707698
58	0x3dbb8998	0.09157103
59	0xbdfb1410	-0.12259686
60	0x3e7b43ec	0.24537629
61	0x3cebfe09	0.028807657
62	0x3e4153ce	0.18879625
63	0xbe62d8e8	-0.22153056
64	0xbe0ac1f7	-0.13550554
65	0xbe5c9f13	-0.21545057
66	0x3e95141d	0.29116908
67	0xbe37da21	-0.17954303
68	0xbe0c8912	-0.13724163
69	0xbe819609	-0.2530978
70	0x3ab43e10	0.0013751406
71	0x3e877e4f	0.26463553
72	0xbc96ec0a	-0.0184231
73	0xbe3880dc	-0.18017906
74	0x3e2cd09b	0.16876452
75	0x3e4ccb52	0.19999436
76	0x3d8a4b41	0.06752635
77	0xbe0cf4b3	-0.1376522
78	0x3e2016ab	0.15633647
79	0xbe65a827	-0.22427426
80	0x3e7580b4	0.23974878
81	0x3e787e1a	0.24266854
82	0xbe83d9d5	-0.2575213
83	0x3b529e1a	0.0032137693
84	0xbe660039	-0.22461022
85	0xbe4b74ff	-0.19868849
86	0x3dbcee45	0.09225134
87	0x3c0abf60	0.008468479
88	0x3e2af98c	0.16696757
89	0x3e0e9294	0.13923103
90	0x3e7b9b04	0.24570853
91	0x3d4a4768	0.049384505
92	0xbd11c5fd	-0.035589207
93	0x3dd9904d	0.10623226
94	0x3e21f948	0.1581775
95	0xbd9cdcf9	-0.07659335
96	0xbe612d42	-0.2198992
97	0x3e154377	0.14576517
98	0xbe48b1d3	-0.19599085
99	0x3e897b7c	0.26852024
100	0xbe84312a	-0.2581876
101	0xbc553d8f	-0.013015165
102	0x3e26c34d	0.16285439
103	0xbe62ac63	-0.22136073
104	0xbe7aa52a	-0.24477068
105	0x3daa96e9	0.08329565
106	0x3e440a37	0.19144522
107	0x3e3f1e74	0.1866396
108	0xbe0e20b7	-0.13879667
109	0xbdf61de6	-0.120174214
110	0x3d738f49	0.05946282
111	0xbdc39750	-0.09550345
112	0x3dd7a81c	0.10530111
113	0x3dbcef79	0.09225363
114	0x3e13f7bd	0.14449973
115	0xbbe55f9f	-0.0069999243
116	0xbe86f45a	-0.263583
117	0x3e780e6c	0.24224252
118	0xbd018f1c	-0.03163062
119	0xbe8d47e5	-0.27593914
120	0x3e770f4f	0.24126934
121	0xbe40e541	-0.18837453
122	0x3d591b77	0.05300471
123	0x3da92d4c	0.08260593
124	0xbe1f5e8f	-0.15563415
125	0x3e983dd3	0.29734668
126	0xbe44eae5	-0.1923023
127	0xbe50509b	-0.20343249
128	0x3e1c5ed9	0.15270557
129	0x3e42d3eb	0.19026153
130	0xbe23475f	-0.15945195
131	0x3e0ef57f	0.13960837
132	0xbe6b6ba2	-0.22990277
133	0xbe821295	-0.25404802
134	0x3da7b1bf	0.08188199
135	0xbe1bc5e3	-0.15212207
136	0xbe69696b	-0.2279412
137	0x3e03d096	0.12872538
138	0xbe016410	-0.12635827
139	0x3e354540	0.17702198
140	0xbd110b74	-0.035411313
141	0xbe708bea	-0.23490873
142	0x3df591d3	0.119907044
143	0x3e0a6356	0.13514456
144	0x3e56ed6c	0.20989007
145	0xbe463a37	-0.19358145
146	0x3d8ed172	0.06973542
147	0x3e72ea06	0.23722085
148	0x3e9118ca	0.28339225
149	0xbdb14899	-0.08656425

mlp1.2.weight f4 [100, 150]
0	0xbc9d83c8	-0.019227877
1	0xbda4afb4	-0.08041325
2	0xbd2e4e95	-0.04255541
3	0x3bb1441f	0.005409732
4	0xbd48fd40	-0.049069643
5	0xbd814658	-0.06312245
6	0xbd734ce8	-0.059399515
7	0x3d3f3d28	0.046689183
8	0xbd428f96	-0.047500215
9	0xbd84eedb	-0.064908706
10	0xbb010727	-0.00196881
11	0xbd5ba100	-0.05362034
12	0x3bfeaf79	0.007772383
13	0x3d29fed5	0.041502792
14	0xbd294d98	-0.041333765
15	0xbce33026	-0.02773292
16	0x3d36e388	0.044650584
17	0x3d35f77b	0.04442547
18	0xbd1614f7	-0.036641087
19	0x3db1b51d	0.08677123
20	0xbc5764c4	-0.013146583
21	0x3d77eb8f	0.06052738
22	0x3deec339	0.116583295
23	0x3dde3f81	0.10851956
24	0x3d5a32c9	0.05327109
25	0x3d193560	0.037404418
26	0x3ccb449a	0.024812985
27	0x3bda4944	0.006661566
28	0xbd551d95	-0.052030165
29	0x3dbe13a0	0.09281087
30	0xbd58af69	-0.05290166
31	0x3d6bd0f2	0.057572313
32	0x3c9d82c0	0.019227386
33	0xbd95fec3	-0.073239826
34	0x3b774a9e	0.0037733684
35	0x3d6195c6	0.055074476
36	0xbd372c48	-0.044719964
37	0x3cd02241	0.025406959
38	0x3a2408ab	0.0006257395
39	0xbc7d00d3	-0.015442091
40	0xbd86302c	-0.06552157
41	0x3b3b80be	0.0028610672
42	0x3c95ed25	0.018301556
43	0xbcbee34f	-0.023301749
44	0xbd25ea4f	-0.040506657
45	0xbcfc13e0	-0.030771196
46	0xbd9339a7	-0.07188731
47	0xbde16e53	-0.11007371
48	0xbccf09fb	-0.025273314
49	0x3c168154	0.009186108
50	0x3cb83694	0.022486962
51	0x3d974c61	0.07387615
52	0xbdc66945	-0.09688047
53	0x3d041a06	0.03225138
54	0x3c0ffa1c	0.008787658
55	0xbb40bcbf	-0.0029409376
56	0xbc04c0cc	-0.008102607
57	0xbd2ff359	-0.042956684
58	0xbab57b04	-0.0013845866
59	0xbc76809e	-0.015045313
60	0x3d03af83	0.032149803
61	0xb646c215	-2.961727e-06
62	0xbc9472a2	-0.018121067
63	0xbbebf632	-0.0072009796
64	0x3da487c7	0.0803371
65	0xbd00d8a9	-0.031456623
66	0xbd53a660	-0.05167234
67	0x3d564997	0.052316274
68	0x3d7f92d7	0.062395897
69	0x3d1f4d2a	0.03889195
70	0xbb5c9b24	-0.0033661807
71	0x3d044c90	0.03229958
72	0xbda80163	-0.082033895
73	0xb9564e67	-0.00020437838
74	0x3b39216a	0.0028248676
75	0xbd8bb335	-0.068212904
76	0x3df52b93	0.11971202
77	0xbc6363cd	-0.013878775
78	0xbd2002b1	-0.039065067
79	0x3cbf9915	0.023388425
80	0x3d8e6962	0.06953694
81	0xbcd8da4f	-0.026471285
82	0xbdbbe4c7	-0.09174495
83	0xbc4dbd0e	-0.012557281
84	0x3d8c9b5d	0.06865571
85	0xbca74bec	-0.020421945
86	0x3cd47fe7	0.025939895
87	0x3c9f6c16	0.01946072
88	0xbd361383	-0.0444522
89	0xbcc36267	-0.023850633
90	0x3daa1cd3	0.08306279
91	0xbde961d2	-0.11395611
92	0x3d8e7d2a	0.06957467
93	0xba025f67	-0.00049733225
94	0x3dbfd578	0.09366888
95	0x3dc2d355	0.09512965
96	0x3d9d1db5	0.07671682
97	0xbbac4bea	-0.005258073
98	0x3da1b514	0.07895866
99	0xbda7613b	-0.08172842
100	0x3c73aeaa	0.014873186
101	0xbd018407	-0.03162005
102	0xbd834b7d	-0.064108826
103	0xbd523c2e	-0.051326923
104	0xbce2befa	-0.027678955
105	0xbd206c26	-0.03916564
106	0x3d2c3388	0.04204133
107	0xbd43d8c3	-0.047814142
108	0xbdb54159	-0.08850355
109	0xbca82a67	-0.020528032
110	0xbd8a74a8	-0.06760532
111	0x3d8a3d95	0.06750027
112	0xbd84ce45	-0.06484655
113	0x3d8c2ac1	0.06844092
114	0x3c36bb2e	0.011153026
115	0xbbb6ff44	-0.0055846293
116	0xbd9facfd	-0.07796667
117	0xbdb1a339	-0.086737104
118	0x3db11d7b	0.08648201
119	0xbd9a11e9	-0.07522947
120	0x3d42ea42	0.047586687
121	0xbac71363	-0.0015188273
122	0x3cad594f	0.02116075
123	0x3d973133	0.07382431
124	0xbaa78704	-0.0012781327
125	0x3d8ad837	0.06779521
126	0xbc458ee7	-0.012057996
127	0x3d3a8e40	0.045545816
128	0xbd7087c8	-0.05872324
129	0x3d5efa94	0.05443819
130	0x3d81c054	0.06335512
131	0xbb8ebdd1	-0.004356124
132	0xbce1149e	-0.027475651
133	0x3ba67120	0.0050794035
134	0xba1663fe	-0.0005736946
135	0xbc62fb12	-0.013853805
136	0x3d6e9566	0.058247946
137	0x3d9560ed	0.07293878
138	0x3d220705	0.039557476
139	0x3c28843f	0.010285436
140	0xbda71e5c	-0.081600875
141	0x3dc6f1a9	0.09714062
142	0xbd735d15	-0.05941494
143	0xbcdf0837	-0.027225597
144	0xbd7d5564	-0.061849013
145	0xbd8dd6ef	-0.06925761
146	0xbd83c59d	-0.06434176
147	0xbcac8626	-0.02106006
148	0x3bf6955c	0.0075251292
149	0xbd53a9d9	-0.05167565
150	0xbca8a47c	-0.020586245
151	0xbaf25b80	-0.0018490404
152	0xbd7a4351	-0.061099354
153	0xbd706550	-0.05869037
154	0x3d6efa8c	0.05834441
155	0x3da8a342	0.08234264
156	0xbcc1dc93	-0.023664748
157	0xbc258aa8	-0.010103859
158	0x3d96ddf6	0.073665544
159	0xbcff512a	-0.031166632
160	0xbc8a5037	-0.016883953
161	0x3cca3344	0.024682648
162	0xbb37bc81	-0.002803594
163	0x3bdd7f00	0.0067595243
164	0x3d3ab1c4	0.045579687
165	0xbc920a78	-0.017827258
166	0xbd91d1a5	-0.07120065
167	0xbbf2d410	-0.0074105337
168	0x3b6bfa84	0.0036007473
169	0xbd8d74d5	-0.069070496
170	0xba125c94	-0.0005583253
171	0x3d736a4f	0.059427556
172	0x3d015956	0.031579338
173	0x3c1bd36d	0.009510857
174	0x3d64eaf8	0.055888146
175	0x3d4eb7c4	0.05046822
176	0xbd72b29d	-0.05925237
177	0xbd4a8870	-0.049446523
178	0xbd873630	-0.06602132
179	0xbbbc0d75	-0.005738909
180	0x3d0bdcd7	0.034146156
181	0xbcd1e4ba	-0.02562176
182	0x3c92bd94	0.017912664
183	0xbd909148	-0.0705896
184	0xbcd24a2c	-0.025670134
185	0x3d126559	0.035741184
186	0xbd8a47b8	-0.067519605
187	0xbc34b5a0	-0.011029631
188	0x3d2ba57f	0.041905876
189	0xbd7150ac	-0.058914825
190	0x3d0469b1	0.032327358
191	0xbc82d84e	-0.015972283
192	0xbc948a47	-0.018132342
193	0xbd92e40a	-0.07172401
194	0xbd7782e4	-0.06042756
195	0xbd9fc072	-0.07800378
196	0xbbc50095	-0.0060120323
197	0xbd580095	-0.05273493
198	0xbcd56512	-0.02604917
199	0x3ca21f1e	0.019790228
200	0xbda4ecba	-0.080529645
201	0xbd8f8d6a	-0.070093945
202	0xbd8b32c3	-0.067967914
203	0xbcfdfd41	-0.03100455
204	0xbd1e078b	-0.038581412
205	0xbd84f68a	-0.06492336
206	0xbd2f693e	-0.042824976
207	0xbb4d5dc9	-0.0031336418
208	0x3c69beb9	0.014266663
209	0xbd6aa24b	-0.05728368
210	0x3c338e1e	0.010959176
211	0x3cb1675f	0.021655736
212	0xbc67b43d	-0.014142093
213	0xbc78cd6c	-0.015185695
214	0x3b8a67b0	0.0042237863
215	0x3ccd44a8	0.025057152
216	0x3da9675a	0.08271666
217	0x3cbe898c	0.023258947
218	0xbd0fb798	-0.035087198
219	0xbd288f0d	-0.04115205
220	0xbc0040e9	-0.007827976
221	0xbd469dd1	-0.04849035
222	0x3c3f81b3	0.011688638
223	0x3d8884bf	0.06665944
224	0x3ce0f5f9	0.027461039
225	0xbd9d38ae	-0.076768264
226	0xbd31833a	-0.043338038
227	0x3d8014e9	0.06253988
228	0xbd26b2ba	-0.04069779
229	0x3d0ceb5d	0.034404147
230	0xbd2d77cf	-0.042350587
231	0x3d70d09a	0.058792688
232	0x3d1bc851	0.038032833
233	0xbd9b5ada	-0.07585688
234	0xbd1a3a67	-0.037653353
235	0xbda411a2	-0.08011176
236	0xbcc34313	-0.023835694
237	0x3d6b50f5	0.057450254
238	0x3d602425	0.05472197
239	0xbd3b844d	-0.04578047
240	0x3d668554	0.056279495
241	0x3d4b8bf5	0.04969402
242	0x3d1086ae	0.03528469
243	0xbd121528	-0.035664707
244	0x3d1cec54	0.038311318
245	0xbd8823aa	-0.066474274
246	0xbc829e88	-0.015944734
247	0x3c84ba62	0.016202156
248	0xbd0022b5	-0.0312831
249	0x3d7d0190	0.06176907
250	0xbd141e7d	-0.03616189
251	0xbd12e0e6	-0.03585901
252	0xbd5fcaff	-0.05463695
253	0xbd00e173	-0.031465005
254	0x3da976ba	0.082745984
255	0xbbeee023	-0.007289903

mlp1.2.bias f4 [100]
0	0x3c8a999c	0.01691895
1	0xbd38e19c	-0.045137033
2	0xbd2cd351	-0.042193715
3	0x3cf8ca20	0.030369818
4	0xbd30d870	-0.04317516
5	0x3d8cea09	0.06880576
6	0xbda309e5	-0.079608716
7	0x3d2b799a	0.041864015
8	0xbd907768	-0.07054025
9	0xbca1f627	-0.019770695
10	0xbcf3e6d3	-0.029773152
11	0x3db998e5	0.090623654
12	0xbd3a6893	-0.045509886
13	0xbd964c57	-0.073387794
14	0x3d3f8b8e	0.04676395
15	0xbcbd4bb2	-0.023107383
16	0x3e28784f	0.16452144
17	0x3da620fc	0.0811176
18	0xbb545886	-0.0032401397
19	0x3d7f01ff	0.062257763
20	0x3d856fd1	0.06515468
21	0x3d6d84e7	0.057988074
22	0x3d6109bc	0.054940924
23	0xbdb1440c	-0.08655557
24	0xbdbaf80c	-0.091293424
25	0x3d407d78	0.046994656
26	0x3d9c59cb	0.07634314
27	0x3bf29c6f	0.0074039022
28	0xbcc05dcc	-0.023482226
29	0x3de0d823	0.10978725
30	0x3cbbe8a2	0.022938076
31	0x3dbc029b	0.091801845
32	0x3d632f5f	0.0554651
33	0x3d84c603	0.0648308
34	0x3d8fe5f5	0.07026283
35	0x3bbf347a	0.005835113
36	0x3d58c46e	0.052921705
37	0xbd0910a2	-0.033463128
38	0x3d8535f6	0.06504433
39	0x3cf77624	0.030207701
40	0xbd10022e	-0.03515833
41	0x3c733713	0.014844674
42	0xbd47afcc	-0.048751637
43	0x3d3087c6	0.043098234
44	0xbd4c0bf6	-0.049816094
45	0xbd47f37b	-0.048816185
46	0x3c5b7f5d	0.013397065
47	0x3d160844	0.036628976
48	0xbd585887	-0.0528188
49	0xbd400f78	-0.046889752
50	0x3cbd0eca	0.023078341
51	0x3cb8e929	0.022572117
52	0xbddd3269	-0.108006306
53	0x3e039257	0.12848793
54	0xbb89f6b6	-0.0042103184
55	0xbce8138d	-0.028329635
56	0x3d0f016a	0.034913458
57	0x3d86ef7d	0.065886475
58	0x3ca616e3	0.020274585
59	0x3d8a0a4d	0.06740246
60	0x3d3fc1da	0.04681573
61	0x3c3f7b41	0.011687101
62	0x3b361cb2	0.00277881
63	0xbca5fca9	-0.02026208
64	0xbd7490ea	-0.059708513
65	0x3df26d6f	0.11837279
66	0x3cd60608	0.026125923
67	0x3bc4b8ee	0.0060034906
68	0x3b650154	0.0034943419
69	0x3bdce091	0.0067406376
70	0xbd53544b	-0.05159406
71	0x3ce24035	0.027618507
72	0xbccbd000	-0.024879456
73	0xbdb7c40e	-0.08972941
74	0x3d00234a	0.031283654
75	0x3dcf7160	0.101290464
76	0xbda6fb26	-0.081533715
77	0xbd247764	-0.040152922
78	0xbbc2507e	-0.0059300056
79	0xbd359fd5	-0.04434188
80	0x3d72f27a	0.059313275
81	0x3d55672e	0.052100353
82	0xbd1682ea	-0.036745943
83	0x3cb7ccd6	0.02243654
84	0xbc527614	-0.012845535
85	0xbd5f0ec4	-0.05445744
86	0x3d2c78c7	0.04210737
87	0xbd2d81fd	-0.042360295
88	0xbd69e487	-0.057102706
89	0xbcf820ba	-0.030289043
90	0x3d2ab191	0.041673247
91	0xbd6d1f8a	-0.057891406
92	0x3cb0c505	0.021578321
93	0xbd8a422e	-0.06750904
94	0xbc8b1b2a	-0.016980726
95	0x3d5b14bb	0.053486567
96	0x3dbcefc6	0.09225421
97	0xbd707f4d	-0.058715153
98	0x3c71addc	0.014750924
99	0x3d0097fb	0.03139494

mlp2.0.weight f4 [100, 100]
0	0x3dcf2044	0.10113576
1	0xbbe55659	-0.006998819
2	0x3dc1bfe9	0.09460432
3	0xbb2d6451	-0.0026457498
4	0xbd172630	-0.036901653
5	0x3e09bff3	0.13452129
6	0xbd8651b2	-0.06558551
7	0xbb34f5cd	-0.002761233
8	0x3d2f50c8	0.04280165
9	0xbe08edee	-0.13372013
10	0xbc49679e	-0.012292771
11	0x3dd67c21	0.104728945
12	0xbdb3b372	-0.08774461
13	0xbdbe154d	-0.092814066
14	0xbc8ad4b7	-0.016947133
15	0x3d555bf3	0.052089643
16	0x3e8b9ce1	0.27268127
17	0x3e3b271c	0.18276638
18	0xbc99d4b8	-0.01877819
19	0x3db6d615	0.08927552
20	0xbc9ab723	-0.018886155
21	0x3ddc4f2b	0.107572876
22	0xbda19585	-0.07889847
23	0xbd8e264a	-0.06940897
24	0xbdf6655e	-0.12031053
25	0x3a117a33	0.000554952
26	0xbe07a013	-0.13244657
27	0xbded01b8	-0.115725935
28	0xbc7d4564	-0.015458439
29	0x3dc2b1b8	0.095065534
30	0x3d4efa64	0.05053176
31	0x3e1655eb	0.14681213
32	0xbe7dd5b3	-0.24788551
33	0xbe14a6e6	-0.14516792
34	0xbdb40555	-0.087900795
35	0x3e181560	0.14851904
36	0xbba08182	-0.004898251
37	0x3dc0fb7c	0.09422967
38	0xbd5f8e7f	-0.054579254
39	0x3d68283c	0.056678995
40	0xbc9ea118	-0.019363925
41	0x3da5809b	0.0808117
42	0x3cbeb915	0.023281613
43	0x3d3095a6	0.043111466
44	0xbe81bc1b	-0.25338826
45	0x3da96ba6	0.082724854
46	0x3dbc1425	0.0918353
47	0x3dc3aed7	0.095548324
48	0xbd94c04d	-0.07263241
49	0xbe0ec3c2	-0.13941863
50	0x3d18d5d0	0.037313282
51	0xbd7b8399	-0.0614048
52	0x3e251bb9	0.16123857
53	0xbe479433	-0.19490127
54	0x3d51de15	0.051237185
55	0xbde5ff16	-0.112302944
56	0xbce2f4c3	-0.027704602
57	0xbe4089d2	-0.18802574
58	0xbdfd3087	-0.123627715
59	0x3dd1bc61	0.102410085
60	0xbe111f1f	-0.14172028
61	0x3d766a5a	0.06016002
62	0x3ce0fe48	0.027465
63	0xbd5e54a9	-0.054279957
64	0xbda49204	-0.08035663
65	0x3d1b3e8a	0.03790144
66	0x3d710a4f	0.05884772
67	0xbd376586	-0.044774555
68	0xbe66a9d0	-0.22525716
69	0x3de3d790	0.111251
70	0xbde60356	-0.11231105
71	0x3c2b6585	0.010461216
72	0x3b3753de	0.0027973573
73	0x3db9ee0e	0.090786085
74	0x3ddae4dc	0.10688183
75	0x3d74dad3	0.059779
76	0xba2d6652	-0.0006614673
77	0xbe6ed1b2	-0.2332218
78	0xbd8571f1	-0.06515873
79	0xbe100730	-0.14065242
80	0xbe240daa	-0.16020837
81	0x3d02fc61	0.03197897
82	0xbe4db2e3	-0.20087771
83	0x3c52c5af	0.012864514
84	0x3d4c047c	0.049808964
85	0x3da70afb	0.08156391
86	0x3d83cef8	0.064359605
87	0x3e53f7d0	0.20700002
88	0xbc36f769	-0.011167386
89	0x3e068d94	0.13139945
90	0x3d94e2a5	0.072697915
91	0x3d1ac4ec	0.037785456
92	0xbd547d4f	-0.051877316
93	0x3d8ea6ed	0.06965432
94	0xbdce18d6	-0.10063331
95	0xbc313ffc	-0.010818478
96	0x3dea45b4	0.11439076
97	0xbe3b4f1b	-0.18291895
98	0x3d90f3f5	0.07077781
99	0xbe1f6a20	-0.15567827
100	0x3df737df	0.120712034
101	0xbd64eb73	-0.055888604
102	0xbd30d41e	-0.04317104
103	0x3cd4903d	0.025947684
104	0x3da9b760	0.08286929
105	0x3d079a7f	0.033106323
106	0xbcf48857	-0.029850168
107	0x3dbde546	0.09272246
108	0x3bb3fb8f	0.0054926346
109	0xbd0df7fd	-0.03466033
110	0x3d4f1658	0.050558418
111	0x3d0d0937	0.034432616
112	0xbd268255	-0.040651638
113	0xbcd6dd38	-0.026228532
114	0x3dca3994	0.098742634
115	0x3baa2f3e	0.00519362
116	0x3df3d4e4	0.1190584
117	0x3db7bd4b	0.08971652
118	0xbd3d029a	-0.04614506
119	0x3d668d98	0.056287378
120	0x3acfab44	0.0015843888
121	0x3d6d5ccb	0.057949822
122	0xbd84dc45	-0.064873256
123	0x3d9c3536	0.07627337
124	0x3dddbce3	0.10827043
125	0x3db93583	0.0904341
126	0xbc19555e	-0.009358732
127	0x3d204ebd	0.03913759
128	0xbd03bd5d	-0.032163013
129	0xbd09347f	-0.03349733
130	0x3d5b1045	0.053482313
131	0x3bb4378a	0.005499785
132	0x3c2a3643	0.010388914
133	0xbda93e3d	-0.08263824
134	0x3d2464d0	0.040135205
135	0xbda86bb9	-0.082236715
136	0x3deccf2d	0.11562953
137	0xbd1250af	-0.035721477
138	0xbd9af1a9	-0.07565624
139	0xbd2ed978	-0.042687863
140	0x3db23e61	0.08703304
141	0x3dbc18f3	0.09184446
142	0xbca1ac94	-0.019735612
143	0xbb981780	-0.0046414733
144	0x3d851d6b	0.06499752
145	0x3db2fe8d	0.08739958
146	0xbd952881	-0.07283116
147	0xbdc057fd	-0.093917824
148	0x3d816d51	0.063196786
149	0x3c0a9474	0.008458246
150	0x3d99286c	0.07478413
151	0xbdc0e198	-0.094180286
152	0x3d2c9be9	0.042140875
153	0x3b2f60ee	0.0026760655
154	0x3be69e4f	0.007037915
155	0xbbc1ae27	-0.005910653
156	0xbd3aa89e	-0.045570962
157	0xbd35c532	-0.044377513
158	0xbdfcc362	-0.12341954
159	0x3d8ffc7c	0.070305794
160	0xbc666e11	-0.014064328
161	0x3d07adda	0.033124782
162	0x3d361c8b	0.044460814
163	0x3c646a52	0.013941364
164	0x3d2f4d34	0.042798236
165	0xbc8015eb	-0.015635451
166	0x3db24a16	0.08705537
167	0xbd870cda	-0.06594248
168	0x3d9c50a6	0.0763257
169	0xbdd5ea92	-0.10445131
170	0xbd48ebe4	-0.049053088
171	0xbdf56fc1	-0.11984206
172	0x3d0f1e56	0.03494104
173	0x3dae30bd	0.0850539
174	0xbd7f9956	-0.062402092
175	0x3d911c6d	0.070855
176	0xbde633de	-0.11240362
177	0xbd7677a6	-0.0601727
178	0x3ca38bb8	0.019964084
179	0xbbfd9324	-0.007738488
180	0x3d949561	0.07255054
181	0x3cc1b6f3	0.023646807
182	0x3d16292b	0.036660355
183	0xbcf50890	-0.02991131
184	0xbcb96ac5	-0.02263392
185	0xbba95790	-0.005167909
186	0x3db6d7ca	0.08927877
187	0xbc24eccd	-0.010066223
188	0xbd2bd8fd	-0.041954983
189	0x3dadab3c	0.08479926
190	0x3d8a2e94	0.06747165
191	0x3d8da543	0.06916287
192	0xbdcaaf4c	-0.098967165
193	0x3c290cd2	0.010317998
194	0xbdac9613	-0.08427062
195	0xbdbde201	-0.092716224
196	0xbc0aff8f	-0.0084837815
197	0x3d309343	0.04310919
198	0x3dc382e5	0.095464505
199	0x3b45bb13	0.003017132
200	0xbc4faa0a	-0.012674818
201	0x3da2d3f9	0.07950587
202	0xbd2e12ca	-0.042498387
203	0xbc93fe6f	-0.01806566
204	0x3daaba32	0.08336295
205	0x3ccc66c6	0.02495135
206	0x3dcac693	0.09901156
207	0x3d827fb7	0.06372016
208	0x3d9cef4d	0.076628305
209	0x3ddd435e	0.10803865
210	0xbcb4c9ef	-0.022068946
211	0x3d21761a	0.03941927
212	0xbc774860	-0.015092939
213	0x3dc6d524	0.09708622
214	0xbda9f90b	-0.08299454
215	0x3d261508	0.0405474
216	0x3cd63214	0.026146926
217	0x3da42530	0.080149055
218	0x3d3a84c5	0.045536775
219	0x3c87f6a8	0.016597107
220	0x3d9f9590	0.07792199
221	0xbd176f1f	-0.036971208
222	0xbcc5bc93	-0.02413777
223	0x3d6a34cc	0.057179257
224	0x3c5c8f02	0.01346183
225	0x3dba002f	0.09082066
226	0xbdb61bf5	-0.08892051
227	0xbdcd8a0f	-0.10036098
228	0xbc84511a	-0.016151953
229	0x3d6da88d	0.05802207
230	0x3dd1798b	0.102282606
231	0xbc082789	-0.008310207
232	0x3cbe9094	0.0232623
233	0x3d5a3989	0.053277526
234	0xbcd7ab68	-0.02632685
235	0x3ae116dd	0.0017172951
236	0x3cc84fce	0.024452116
237	0x3d03c82c	0.03217332
238	0x3c1ba481	0.00949967
239	0x3db8cf53	0.09023919
240	0xbd84e14e	-0.06488286
241	0xbcfb2afd	-0.030660147
242	0xbd4006d9	-0.04688153
243	0x3d0f320e	0.034959845
244	0x3db5bd3c	0.08873984
245	0xbd626950	-0.055276215
246	0x3c0bfb25	0.008543764
247	0xbc524458	-0.012833677
248	0xbd4b72a7	-0.049669888
249	0xbcd5cef1	-0.026099654
250	0x3dc126aa	0.09431203
251	0x3cf68bce	0.030095961
252	0x3d28cc50	0.041210473
253	0xbd054fbc	-0.032546744
254	0x3ccdf164	0.025139518
255	0x3d8e7eb1	0.06957758

mlp2.0.bias f4 [100]
0	0x3c4d65bd	0.012536463
1	0xbda4f98a	-0.08055408
2	0x3bad1fd6	0.005283336
3	0x3b56e6ea	0.0032791444
4	0x3d640a68	0.055673987
5	0xbd860645	-0.065441646
6	0x3c580273	0.013184178
7	0x3d6c3ee1	0.057677153
8	0xbd8da3ab	-0.06915983
9	0xbc8af5b0	-0.016962856
10	0xbc910879	-0.017704235
11	0x3d72efd9	0.059310768
12	0xbd946172	-0.07245149
13	0x3d9510cb	0.07278594
14	0x3dcee5ef	0.1010245
15	0xbd7f1463	-0.0622753
16	0x3d18b4bf	0.037281748
17	0xbd65e98c	-0.05613093
18	0x3e3a37ee	0.18185398
19	0x3b6bafe9	0.0035963005
20	0x3dcc83c7	0.09986072
21	0x3dbf23b7	0.09332984
22	0x3d3faf4c	0.046798036
23	0xbd93ea22	-0.07222392
24	0x3ddb9dfd	0.10723493
25	0xbd202740	-0.03909993
26	0x3c2a81fa	0.010406965
27	0x3c2f7ffb	0.010711665
28	0x3d889b55	0.06670252
29	0xbc6ee428	-0.014580764
30	0x3c2d14f2	0.010564076
31	0x3da8629b	0.082219325
32	0x3c2a7a6b	0.010405163
33	0xbd66a606	-0.056310676
34	0xbd8f8d8d	-0.070094205
35	0x3dc629f6	0.09675972
36	0x3d5bcb7f	0.053660866
37	0x3d86b94c	0.06578311
38	0x3d96afcd	0.0735775
39	0x3dbb5b51	0.091482766
40	0x3aa79e39	0.0012788243
41	0xbdbe5393	-0.09293284
42	0x3d1465be	0.03622984
43	0xbcbe2116	-0.023209136
44	0xbd8e55d6	-0.06949966
45	0x3cc3142d	0.023813331
46	0xbda15932	-0.07878341
47	0x3b83a4a0	0.0040174276
48	0x3d1622dc	0.03665434
49	0x3d314d77	0.043286767
50	0x3d953a1d	0.07286475
51	0xbcbb0d0f	-0.022833375
52	0x3bb66a72	0.0055668885
53	0x3cc4ae00	0.02400875
54	0x3d76295a	0.06009803
55	0x3cf20d44	0.029547341
56	0xbd41fdab	-0.047361057
57	0x3dba44b9	0.09095139
58	0xbd637acf	-0.05553704
59	0x3d83f382	0.0644293
60	0xbc98e958	-0.018665954
61	0xbcfd823b	-0.030945888
62	0x3cbec8a1	0.023289027
63	0xbd549a13	-0.05190475
64	0xbc61416d	-0.013748509
65	0xbdd7e685	-0.10542015
66	0xbbcdd8b2	-0.0062819356
67	0xbd96a883	-0.0735636
68	0xbbb55500	-0.0055338144
69	0xbd7495d6	-0.059713207
70	0xbccbfe11	-0.024901422
71	0xbca94c16	-0.020666163
72	0x3c35c299	0.011093759
73	0xbcb398e2	-0.021923486
74	0xbcc4419a	-0.023957063
75	0x3ab0a7c7	0.0013477736
76	0x3d064d63	0.032788645
77	0x3db256ae	0.08707939
78	0x3d9581d5	0.07300154
79	0xbd90bae1	-0.07066894
80	0xbcf80eeb	-0.030280551
81	0xbd7b3406	-0.06132891
82	0x3da4ab68	0.08040506
83	0x3c45d01d	0.012073544
84	0x3d042675	0.032263238
85	0x3c0b570f	0.008504643
86	0x3cb50c96	0.022100728
87	0xbda866cd	-0.08222733
88	0x3b037cf9	0.0020063503
89	0x3d3fe50e	0.046849303
90	0xbc39d541	-0.011342348
91	0x3bea4235	0.007149006
92	0xbd9e93a5	-0.07743005
93	0x3d1878f1	0.037224714
94	0x3d262325	0.04056086
95	0x3dc7a2f3	0.09747877
96	0x3d877773	0.0661458
97	0xbd06b09f	-0.032883283
98	0x3da37fbe	0.07983349
99	0xbc956302	-0.018235687

mlp2.2.weight f4 [50, 100]
0	0x3de14521	0.109995134
1	0x3d174727	0.03693309
2	0x3d85a4f4	0.06525603
3	0xbd78287e	-0.06058549
4	0x3d0ad1b2	0.033891387
5	0xbbc71919	-0.00607599
6	0x3d0f120a	0.034929313
7	0x3d264f9d	0.04060327
8	0xbd172a2b	-0.03690545
9	0xbcbc117b	-0.022957554
10	0xbd689a3d	-0.056787718
11	0xbd8c094f	-0.06837713
12	0x3cfc74a5	0.03081734
13	0x3cc1cff2	0.023658726
14	0xbd882c0e	-0.06649028
15	0xbd4d831f	-0.050173875
16	0x3d93b78c	0.07212743
17	0x3d3d4e31	0.046217147
18	0x3dcd7b6c	0.100333065
19	0xbd742527	-0.059605744
20	0x3cc80ef2	0.024421189
21	0xbd36c066	-0.04461708
22	0xbc8445a3	-0.016146487
23	0xbce12af7	-0.027486308
24	0xbc9927a7	-0.018695666
25	0x3db2725f	0.08713221
26	0x3d7229ff	0.05912208
27	0xbd529680	-0.05141306
28	0xbd762033	-0.0600893
29	0x3b623f71	0.0034522677
30	0x3d57b6ab	0.05266444
31	0xbcdfaa75	-0.02730296
32	0xbd83bd88	-0.064326346
33	0x3d9b39ea	0.075794056
34	0x3cbbee25	0.022940705
35	0xbdac1c93	-0.084038876
36	0x3d2c0873	0.042000245
37	0xbd2274fb	-0.039662343
38	0x3db3e711	0.08784307
39	0x3cf031bc	0.02932059
40	0x3d3a3e27	0.04546943
41	0x3db73c4a	0.08947046
42	0xbd132b2a	-0.035929836
43	0xbcd1656f	-0.025561063
44	0x3cfdd71b	0.03098636
45	0x3c2d560f	0.0105796
46	0xbd4a25aa	-0.049352325
47	0x3cc77f55	0.024352709
48	0x3c44b5ec	0.012006264
49	0x3d8a7ad3	0.06761708
50	0xbd1f4de0	-0.038892627
51	0x3da441a9	0.08020336
52	0x3daebbde	0.085319266
53	0x3d8d7ba8	0.06908351
54	0xbd941000	-0.07229614
55	0x3cc20260	0.023682773
56	0x3c8a1fa8	0.016860798
57	0x3c96e9f2	0.0184221
58	0xbdae2f65	-0.085051335
59	0x3d65b720	0.056082845
60	0xbc8491a8	-0.016182736
61	0x3c37547c	0.011189576
62	0x3de0044f	0.10938322
63	0x3cc98573	0.024599766
64	0x3d66a470	0.056309164
65	0x3cf32902	0.02968264
66	0x3ddccffa	0.10781856
67	0x3c9835be	0.018580314
68	0xbd46136d	-0.04835837
69	0x3b9f53a6	0.0048622666
70	0xbbd9c0c3	-0.0066452934
71	0x3d18b437	0.03728124
72	0x3b8627f7	0.0040941196
73	0xbd76d55d	-0.060262073
74	0x3da85d93	0.08220973
75	0xbd68c493	-0.056828093
76	0xbd76dccd	-0.060269166
77	0xbd2b9b1f	-0.041895982
78	0x3ca1a8b9	0.019733774
79	0xbc4227c6	-0.011850303
80	0x3da8572e	0.08219753
81	0x3c731bb7	0.014838151
82	0xbdab73c9	-0.08371694
83	0xbd80369b	-0.06260415
84	0xbdc8eea6	-0.098111436
85	0xbd804dc7	-0.06264835
86	0x3d5065f4	0.05087848
87	0xbd73ce0b	-0.05952267
88	0x3dab83b2	0.08374728
89	0xbd9729cc	-0.07381019
90	0xbd3c9ae1	-0.04604614
91	0xbbf4816b	-0.007461717
92	0xbd0539c0	-0.032525778
93	0x3d1a0ab5	0.037607867
94	0x3dacfb96	0.08446424
95	0xbdcf5cbb	-0.10125109
96	0xbd163663	-0.03667296
97	0x3c946b6f	0.018117635
98	0x3d01fc66	0.031734847
99	0xbdc1dd58	-0.09466046
100	0xbe76bdec	-0.24095887
101	0xbd00d901	-0.03145695
102	0xbd8d6fa8	-0.06906062
103	0xbaf86909	-0.0018952201
104	0xbdab614d	-0.08368168
105	0xbcc33c27	-0.023832394
106	0xbd0aa0e1	-0.033844832
107	0xbda4400c	-0.080200285
108	0x3d743c8e	0.059628062
109	0xbdb58493	-0.08863177
110	0x3db6cd8e	0.08925925
111	0xbcfcddce	-0.030867483
112	0xbd66edd1	-0.056379143
113	0xbcf4b448	-0.029871121
114	0xbd9ca9ed	-0.07649598
115	0x3dc59266	0.09647064
116	0x3d3293f9	0.04359815
117	0xbe43c043	-0.19116311
118	0xbdf35163	-0.11880758
119	0xbda9e5b1	-0.08295763
120	0xbd0f9ba2	-0.035060532
121	0x3dea5fac	0.11444029
122	0x3db8dd0c	0.09026536
123	0x3db070f3	0.08615293
124	0x3c9e71fa	0.019341458
125	0x3d82f9ae	0.06395279
126	0xbd97a300	-0.07404137
127	0xbddecd45	-0.10878996
128	0x3d890e66	0.066921994
129	0xbe0391d0	-0.12848592
130	0x3d28f626	0.04125037
131	0xbd7764e5	-0.060398955
132	0xbcb6ece9	-0.022329764
133	0x3d6d4031	0.057922546
134	0xbb62218e	-0.0034504863
135	0x3d40dc22	0.047084935
136	0x3dd760f9	0.10516543
137	0xbd5b446a	-0.05353204
138	0x3cd4a20a	0.025956172
139	0x3df798a5	0.120896615
140	0xbc00ed82	-0.007869126
141	0xbd802ef2	-0.06258954
142	0x3df5922d	0.119907714
143	0x3d179567	0.037007716
144	0x3d8e9936	0.069628164
145	0xbddc1c43	-0.10747578
146	0x3beabd20	0.0071636587
147	0x3c97efd6	0.01854698
148	0x3d35a192	0.04434354
149	0x3d5e57ad	0.054282833
150	0x3dd371eb	0.103244625
151	0xbe008194	-0.1254943
152	0x3db60068	0.08886796
153	0x3c9293fa	0.017892826
154	0xbe0cce0b	-0.13750474
155	0xbd73a26d	-0.059481073
156	0x3d856344	0.06513074
157	0x3d99f89c	0.075181216
158	0x3d280767	0.041022684
159	0xbd87f32f	-0.066381805
160	0x3d35b772	0.0443644
161	0xbdb5def4	-0.088804156
162	0xbaafcf45	-0.0013413212
163	0xbcefb7bf	-0.029262422
164	0xbd9db377	-0.07700246
165	0xbd199793	-0.037498068
166	0xbd5c9191	-0.05384976
167	0x3c28a05d	0.01029214
168	0x3c8f518b	0.017494937
169	0xbb0d656d	-0.0021575347
170	0xbdc36aa2	-0.09541823
171	0xbd83d9eb	-0.06438049
172	0xbdfdc389	-0.12390811
173	0xbdab22fb	-0.08356281
174	0x3d7a7d45	0.061154623
175	0xbd673939	-0.056451056
176	0xbde28075	-0.110596575
177	0x3ce026d8	0.027362272
178	0x3c314584	0.0108197965
179	0x3d1cf167	0.038316157
180	0x3acfcba0	0.0015853532
181	0xbd1e8a12	-0.038705893
182	0x3d70defb	0.0588064
183	0x3c9752a8	0.01847203
184	0x3dc0f45f	0.0942161
185	0xbdadbae3	-0.084829114
186	0x3db1a7a9	0.08674557
187	0x3d83a539	0.06427998
188	0xbdde2f3b	-0.10848852
189	0x3c9ceffd	0.019157404
190	0x3b9e51a8	0.0048315115
191	0xbccd9e9a	-0.025100041
192	0xbda7512a	-0.08169778
193	0xbd1bb4b5	-0.038014133
194	0x3de436c6	0.1114326
195	0xbd78b5b0	-0.060720146
196	0xbc0cd0b4	-0.008594681
197	0xbe25fbb7	-0.16209303
198	0xbd00e762	-0.031470664
199	0x3d3eb403	0.04655839
200	0x3e19cf76	0.15020546
201	0xbd76656a	-0.06015531
202	0xbcbfc9f3	-0.023411727
203	0x3dc72cbf	0.097253315
204	0x3d6bcec7	0.057570245
205	0x3daf1ba3	0.08550193
206	0x3d302976	0.04300829
207	0xbd9a5d99	-0.075373836
208	0xbd8e42af	-0.06946313
209	0xbd450f00	-0.04811001
210	0x3d67c8de	0.056588046
211	0x3c55bd01	0.01304555
212	0xbd14bad1	-0.036310975
213	0x3da03ebd	0.078244664
214	0x3b6d4e2c	0.0036209924
215	0x3d0387eb	0.032112043
216	0x3d92fa71	0.07176674
217	0x3cb69674	0.022288539
218	0xbd42ecba	-0.04758904
219	0x3dbcc393	0.0921699
220	0x3d0a1994	0.0337158
221	0xbd549c1b	-0.051906686
222	0xbdaa6da8	-0.083216965
223	0x3d693e8a	0.056944408
224	0xbd0820e7	-0.033234503
225	0xbdbfca1c	-0.09364721
226	0x3c360118	0.011108659
227	0x3dd9af8f	0.10629188
228	0xbd13a593	-0.036046576
229	0x3dccd56f	0.10001647
230	0xbda5affa	-0.080902055
231	0x3da7f8c8	0.08201748
232	0x3c89de5e	0.016829666
233	0xbcba92b6	-0.022775035
234	0xb9cb73cf	-0.0003880546
235	0x3d3c3dec	0.04595749
236	0x3d75deda	0.06002698
237	0x3da72151	0.081606515
238	0xbcfb5a8f	-0.03068283
239	0x3bb958cd	0.005656338
240	0xbcc3430c	-0.023835681
241	0xbcd63ff2	-0.026153538
242	0xbd6d3c16	-0.05791863
243	0xbd982bad	-0.074302055
244	0x3dae23d4	0.085029274
245	0xbcdce9ea	-0.026967008
246	0xbce3f154	-0.027825035
247	0xbd971498	-0.07376975
248	0xbd5d4865	-0.05402412
249	0x3ca41186	0.020027887
250	0x3d97d189	0.074130125
251	0x3dc92765	0.09821967
252	0x3d73e1e8	0.059541613
253	0x3dbd73b5	0.09250585
254	0x3d816f3b	0.06320044
255	0x3d49c22e	0.04925745

mlp2.2.bias f4 [50]
0	0xb9cba05b	-0.0003883865
1	0xbd9c1591	-0.07621301
2	0x3bc57d77	0.0060269195
3	0x3d4df119	0.050278757
4	0x3d931b1f	0.07182907
5	0xbce2a517	-0.027666612
6	0x3db8eaa4	0.09029129
7	0xbd235b25	-0.039881844
8	0xbcc1a522	-0.023638312
9	0xbd7f677e	-0.062354557
10	0x3d878454	0.066170365
11	0xbaac379c	-0.0013139131
12	0xbd8fd4b5	-0.070229925
13	0x3d8dfded	0.06933198
14	0xbde091f7	-0.109653406
15	0xbbabb020	-0.0052395016
16	0x3d8357ef	0.064132564
17	0x3c0f0e3d	0.008731422
18	0x3d99b681	0.07505513
19	0xbc541ec5	-0.012946789
20	0xbdab8580	-0.083750725
21	0x3d496e25	0.049177308
22	0xbdc3c42f	-0.095589034
23	0xbd9624d1	-0.07331241
24	0xbd06b02b	-0.03288285
25	0x3c8f7d49	0.017515795
26	0xbc2b7d3f	-0.010466873
27	0xbd8b4657	-0.06800526
28	0xbd95d4c1	-0.0731597
29	0x3d5956e9	0.0530614
30	0xbd0a2ce2	-0.03373421
31	0x3d9aa08b	0.075501524
32	0xbc52634b	-0.012841056
33	0xbd9539e7	-0.072864346
34	0x3c710f35	0.014713098
35	0x3d53463d	0.051580656
36	0xbb9121b2	-0.0044290656
37	0xbdb9688f	-0.09053146
38	0xbdb2f73d	-0.08738563
39	0xbcd03ceb	-0.025419673
40	0x3da757cd	0.081710435
41	0xbdd265fb	-0.102733575
42	0xbdb34d46	-0.08754973
43	0x3d1016d8	0.035178035
44	0x3d969dae	0.07354294
45	0x3c06ffae	0.00823967
46	0xbcb8aec3	-0.02254427
47	0x3ce08f38	0.027412042
48	0xbdb9ef46	-0.09078841
49	0xbd76e133	-0.06027336

attention.0.weight f4 [100, 200]
0	0xbd12c873	-0.035835695
1	0x3bb2f7d0	0.0054616705
2	0xbd565af6	-0.05233284
3	0xbd09276c	-0.03348486
4	0x3d261564	0.040547743
5	0xbc06656a	-0.00820289
6	0x3d5fa44e	0.054600053
7	0x3d045c58	0.03231463
8	0xbc051998	-0.008123778
9	0xbd8a1180	-0.06741619
10	0x3d10e82c	0.035377666
11	0x3d8a0bcf	0.067405336
12	0x3cc86f78	0.024467215
13	0xbcbf4048	-0.023346081
14	0x3d07d758	0.033164352
15	0xbd785e03	-0.06063653
16	0xbd093cf1	-0.033505384
17	0xbb1aed16	-0.002363985
18	0x3cdd3139	0.02700101
19	0xbb904e9a	-0.0044039013
20	0xbb00d513	-0.0019658252
21	0xbd512819	-0.05106363
22	0x3a6225b2	0.0008626833
23	0x3d6faf56	0.058516823
24	0xbd80147c	-0.06253907
25	0xbd5c7b2a	-0.053828396
26	0x3cace233	0.021103954
27	0xbd4d5df0	-0.050138414
28	0x3d83107e	0.0639963
29	0x3d5f5f72	0.054534383
30	0x3b3b8144	0.0028610984
31	0xbb409886	-0.0029387786
32	0xbc9d010b	-0.019165536
33	0xbd8a14a2	-0.06742217
34	0xbbeb9cd6	-0.007190327
35	0x3cef8346	0.0292374
36	0xbd8f4393	-0.06995311
37	0xbd68d0cf	-0.05683976
38	0xbd09d0ab	-0.033646267
39	0xbd22a53b	-0.039708357
40	0xbd56258c	-0.0522819
41	0x3d80e0c1	0.062928684
42	0x3d496108	0.0491648
43	0x3d4d5668	0.05013123
44	0xbc4d62af	-0.012535735
45	0xbd88a8dc	-0.06672832
46	0x3abb64d3	0.0014297016
47	0xbc8f5316	-0.017495673
48	0x3c8649d0	0.016392618
49	0xbd8f7f0a	-0.07006653
50	0x3c822f58	0.015891716
51	0xbd8b3156	-0.067965195
52	0x3d8aeb85	0.06783203
53	0xbc9fa131	-0.019486042
54	0xbd8095ae	-0.06278549
55	0xbd895d1f	-0.067072146
56	0xbd2ff8bc	-0.04296182
57	0x3cdfac5c	0.027303867
58	0xbcc46a4c	-0.023976468
59	0x3c9b04f4	0.01892326
60	0x3d4efb2c	0.050532505
61	0xbcae618c	-0.021286748
62	0x3bcf8d77	0.0063340026
63	0x3d4a01e8	0.049318224
64	0xbb00fa89	-0.001968058
65	0xbcb5835c	-0.022157364
66	0x3d44c161	0.048035983
67	0x3d87b700	0.06626701
68	0xbd80ba03	-0.06285479
69	0x3d8c6895	0.06855885
70	0xbce7bf57	-0.02828948
71	0x3d8a1aeb	0.067434154
72	0x3bd19550	0.0063959733
73	0xbd37cf0b	-0.044875186
74	0x3d04c8df	0.032418128
75	0xbc0a837e	-0.008454202
76	0xbd46c440	-0.048527002
77	0xbcd201c4	-0.025635608
78	0xbcfd2963	-0.030903524
79	0xbd35b69d	-0.044363607
80	0x3d6599a2	0.05605472
81	0x3cceba2f	0.025235264
82	0x3d04841c	0.03235255
83	0x3d7e20fc	0.062043175
84	0x3d30f1e7	0.043199446
85	0x3c05b638	0.00816112
86	0x3d29bcc0	0.04143977
87	0xbd56fe5f	-0.05248868
88	0xbd617c32	-0.055050083
89	0xbcfa6e3e	-0.030570146
90	0xbcfceedd	-0.030875618
91	0x3d3d0d76	0.046155415
92	0x3cd0e867	0.025501443
93	0x3bf9805a	0.0076141777
94	0xbd0a9cfc	-0.03384112
95	0x3cde9a30	0.027173132
96	0xbd00c18a	-0.031434573
97	0xbc92ced1	-0.017920883
98	0x3c3457c0	0.011007249
99	0x3cd78898	0.02631025
100	0xbd3a3a75	-0.045465905
101	0x3ce607a8	0.028079823
102	0x3d8c6022	0.068542734
103	0xbc84844d	-0.016176367
104	0xbd316830	-0.04331225
105	0x3d4831a0	0.04887545
106	0x3a238880	0.00062382966
107	0xbd88e68f	-0.066846006
108	0xbd386a13	-0.045023035
109	0x3d6fdaf0	0.058558404
110	0x3d3eb9c8	0.046563894
111	0xbd5f109a	-0.05445919
112	0x3d252c4e	0.040325455
113	0x3bc63d8f	0.006049819
114	0xbd8c6d5e	-0.06856798
115	0x3d069d4e	0.03286486
116	0xbd475afb	-0.04867075
117	0xbc2ae735	-0.010431101
118	0xbd01fb7c	-0.031733975
119	0xbd6399da	-0.055566646
120	0x3cccd755	0.025005022
121	0x3bb6be5c	0.005576892
122	0x3d38053b	0.044926863
123	0x3d64d64e	0.05586844
124	0xbca54bc4	-0.02017773
125	0x3c14e849	0.009088584
126	0x3d61df2f	0.055144485
127	0xbb3ce708	-0.0028824229
128	0xbd5974af	-0.053089794
129	0x3bf9cc6a	0.007623245
130	0xbc9671f9	-0.018364893
131	0x3c431bc6	0.011908477
132	0xbcb7a3e8	-0.022417024
133	0xbd016813	-0.031593394
134	0xbc5b7e5b	-0.013396825
135	0x3d5c4386	0.053775333
136	0xbc54728a	-0.012966761
137	0xbd81f898	-0.063462436
138	0xbd8abbec	-0.067741245
139	0x3d88afe3	0.06674173
140	0x3b8a3660	0.004217908
141	0xbd6799ab	-0.056543034
142	0xbd0e9965	-0.034814257
143	0xbd2234b2	-0.039601035
144	0x3d76025b	0.06006084
145	0x3c0ec3be	0.008713661
146	0x3d4a5ec5	0.049406786
147	0xbd242592	-0.040074892
148	0xbd339116	-0.043839537
149	0x3d882cab	0.06649145
150	0xbd53ba5c	-0.051691398
151	0xbd7f2e03	-0.06229974
152	0x3c9b2e71	0.018943043
153	0x3d7327ac	0.059364006
154	0x3d788d3e	0.060681574
155	0x3d2be0ad	0.041962314
156	0xbd8f6276	-0.07001202
157	0x3d837eb0	0.06420648
158	0x3cf24e11	0.02957824
159	0x3a1c322a	0.0005958403
160	0x3ca0d40c	0.019632362
161	0xbd416274	-0.047213033
162	0x3d31c9b6	0.043405257
163	0xbd250088	-0.04028371
164	0x3d09a834	0.033607677
165	0x3c96f4e8	0.018427327
166	0x39d0fdc3	0.0003986192
167	0x3b950dfe	0.004548787
168	0xbb6bcf71	-0.00359818
169	0x3d339381	0.043841843
170	0xbc61c745	-0.01378042
171	0x3d391022	0.0451814
172	0xbb327bfb	-0.0027234543
173	0x3d8a1a04	0.06743243
174	0x3d75986d	0.059959818
175	0x3d8628f6	0.065507814
176	0x3c8b64c2	0.017015819
177	0xbcf0a30a	-0.029374618
178	0xbd826c34	-0.06368294
179	0x3ca22780	0.019794226
180	0xbd462664	-0.048376456
181	0xbd49531d	-0.04915153
182	0xbd88b98b	-0.066760145
183	0x3d5c8707	0.05383971
184	0xbd714902	-0.058907516
185	0xbc246993	-0.0100349365
186	0xbd808397	-0.06275099
187	0xbd691c85	-0.056911964
188	0xbc411acf	-0.011786177
189	0xbc274418	-0.010209106
190	0x3d41f060	0.04734838
191	0xbd487bf9	-0.048946355
192	0xbd8b6350	-0.06806052
193	0xbd8099a7	-0.06279307
194	0x3d66ef72	0.056380697
195	0x3cc3aba4	0.023885556
196	0x3d2ad2c2	0.0417049
197	0xbd8f264a	-0.06989725
198	0x3cbbc5f8	0.022921547
199	0xbc97060e	-0.018435504
200	0x3ce2ba74	0.027676798
201	0x3cd7bca0	0.02633506
202	0xbcceb197	-0.025231166
203	0xb972d8e9	-0.00023159724
204	0x3d8b2717	0.06794565
205	0x3d8fe201	0.07025529
206	0xbd41a1d5	-0.047273476
207	0x3c061828	0.00818447
208	0xbd4ccefb	-0.05000208
209	0x3c49dc77	0.012320629
210	0xbd19f95c	-0.037591323
211	0x3bb4f437	0.0055222767
212	0xbc53a730	-0.012918279
213	0xbd35f48c	-0.04442267
214	0xbd88abd4	-0.066733986
215	0xbd892154	-0.0669581
216	0xbb6ce1be	-0.0036145295
217	0xbccf011d	-0.025269086
218	0x3d8c7b05	0.068594016
219	0xbd3d57ff	-0.046226498
220	0x3c5ec79c	0.013597395
221	0xbd6b5040	-0.05744958
222	0xbcdc6aed	-0.026906455
223	0x3cbe8050	0.023254544
224	0x3d491f92	0.049102373
225	0x3d26834b	0.040652554
226	0xbd48caf2	-0.04902167
227	0xbcb82a68	-0.022481158
228	0xbca3f4ac	-0.02001413
229	0x3d83dab6	0.064382
230	0xbd413cc2	-0.047177084
231	0xbd6501eb	-0.055910032
232	0xbd03ad45	-0.032147665
233	0xbd114654	-0.03546746
234	0x3d4ec93a	0.050484873
235	0xbcf7d272	-0.030251715
236	0x3d7d3cd5	0.061825592
237	0xbd87ca2a	-0.066303566
238	0xbd458bc6	-0.048229
239	0xbd22587c	-0.039635167
240	0x3bd3a6b0	0.0064590797
241	0xbd07b3b0	-0.033130348
242	0x3d5279ee	0.051385812
243	0xbcb213ac	-0.021737896
244	0x3d5fefca	0.05467204
245	0xbc3a1a6d	-0.011358839
246	0x3d53dc63	0.05172385
247	0x3c7ebea0	0.015548378
248	0xbc8d8d30	-0.017279238
249	0xbd0ab14a	-0.033860482
250	0x3cffde18	0.031233832
251	0xbd466603	-0.04843713
252	0x3bf8cc80	0.0075927377
253	0x3d7add2f	0.061246093
254	0x3d4f186a	0.050560392
255	0xbb537716	-0.0032267026

attention.0.bias f4 [100]
0	0xbc481c07	-0.0122137135
1	0xbcf45a8d	-0.029828334
2	0x3d77da1e	0.060510747
3	0xbb82f490	-0.0039964393
4	0xbd687ff9	-0.05676267
5	0xbcb4f581	-0.022089722
6	0xbc91849d	-0.01776343
7	0x3cc58b90	0.0241144
8	0x3ca7aeb9	0.020469056
9	0x3d4505c6	0.04810121
10	0xbd8a6db8	-0.067592084
11	0xbd6e4900	-0.058175087
12	0xbbd36d00	-0.006452203
13	0x3c886db6	0.016653877
14	0xbd81d765	-0.06339911
15	0xbd18069e	-0.037115686
16	0x3c2f9b9b	0.010718252
17	0x3b20c982	0.002453417
18	0x3db08f3c	0.0862107
19	0xbd06dfa8	-0.03292814
20	0x3c72f9d7	0.014830074
21	0x3d82a199	0.063784786
22	0xbb1f1fbc	-0.002428039
23	0x3cfc0dc3	0.03076828
24	0xbd1d2115	-0.038361628
25	0xbd3e474d	-0.046454716
26	0x3d24de7a	0.040251233
27	0x3cd63375	0.026147583
28	0xbba8624b	-0.0051386706
29	0x3ca73d89	0.020415084
30	0x3d040eb3	0.03224058
31	0x3c1580fd	0.0091249915
32	0xbd7cdf00	-0.061736107
33	0x3d5144f6	0.051091157
34	0xbd223814	-0.03960426
35	0x3d292c42	0.041301973
36	0xbcd663a1	-0.026170554
37	0x3cb74f41	0.022376658
38	0xbd7f599c	-0.062341318
39	0xbc1e1c46	-0.009650296
40	0xbd1d6600	-0.038427353
41	0x3d87729b	0.06613656
42	0x3d531c6c	0.051540777
43	0xbc381360	-0.011235088
44	0x3c9cc8f5	0.019138793
45	0xbd08b329	-0.033373985
46	0x3d5d0326	0.05395808
47	0x3d9bb654	0.07603136
48	0xbc927f2d	-0.017882908
49	0xbc209ab4	-0.009802509
50	0x3b226977	0.00247821
51	0xbc86b8b0	-0.016445488
52	0x3d7c3685	0.06157543
53	0x3c87d95e	0.016583141
54	0xbd49fe3d	-0.049314726
55	0xbd9069c3	-0.070514224
56	0x3d8949b7	0.06703513
57	0x3d7127ce	0.05887585
58	0x3cf0155f	0.029307066
59	0x3d2b39dc	0.041803226
60	0x3d739408	0.059467345
61	0xbc038e6c	-0.0080295615
62	0x3d390985	0.045175094
63	0x3bbc686b	0.0057497523
64	0xbc231c0f	-0.00995542
65	0xbd1db0ed	-0.038498808
66	0x3d4f6819	0.050636385
67	0x3d6257d8	0.055259556
68	0x3d017f9b	0.031615835
69	0x3d5731df	0.052537795
70	0xbd88c72e	-0.066786155
71	0xbd50dfd6	-0.050994717
72	0xbd703564	-0.058644667
73	0xbd282d69	-0.04105893
74	0xbce8e262	-0.02842826
75	0xbd8cb83e	-0.06871079
76	0x3a970542	0.0011521953
77	0xbd36c329	-0.044619713
78	0xbca1d7b2	-0.019756172
79	0xbc9df95a	-0.01928394
80	0x3d849c56	0.06475131
81	0xbd4cf6d1	-0.05004007
82	0x3d58d398	0.052936167
83	0xbcd961b6	-0.02653585
84	0xbd8bf461	-0.06833721
85	0xbd7491f6	-0.05970951
86	0xbc778167	-0.0151065355
87	0xbce3e66c	-0.027819835
88	0x3d2b6e96	0.04185351
89	0x3c8c6c50	0.017141491
90	0x3d144272	0.03619618
91	0x3c60ec54	0.01372822
92	0xbd22cf3f	-0.039748427
93	0xbc0067c6	-0.0078372415
94	0x3c9b72ca	0.018975634
95	0xbcf2c488	-0.029634729
96	0xbd558e25	-0.052137513
97	0xbd9452cd	-0.072423555
98	0xbd1dfb91	-0.03856999
99	0xbd030f46	-0.031996988
