crowd_nav/data/output-torch-1.4.0/il_model.pth (torch_old, 388932 bytes, 20 tensors)

mlp1.0.weight f4 [150, 13]
000000 30 83 c2 3d 0f 19 2d bd c8 16 0b 3e 10 b2 5e be
       0.09497678 -0.042260226 0.13582909 -0.21747613
000010 af 41 81 be 99 8f 5e 3e 43 73 1e bd 42 7c 56 3d
       -0.25245425 0.21734466 -0.03868414 0.052364595
000020 b7 5b f0 bd b6 3c 36 be 1e 42 8a 3e 19 0c 66 be
       -0.11736243 -0.17796597 0.27003568 -0.22465552
000030 6c 35 8e be 74 f5 c6 3d b4 02 52 3e 3e 73 18 be
       -0.27775133 0.09714785 0.20508844 -0.14887711
000040 a6 b2 42 be 9a 75 33 3d 8b ee 58 3e 88 cc 37 be
       -0.19013461 0.043813325 0.21184747 -0.17949116
000050 30 55 ac 3d eb 66 b9 be 6c 57 8a be 33 82 24 3e
       0.08414686 -0.36211333 -0.27019823 0.16065292
000060 6c 3f c5 3c e0 37 85 3e e6 67 8a be 6b 37 87 3e
       0.024078093 0.26019192 -0.27032393 0.26409468
000070 32 c8 a9 bd e4 61 e2 bd 51 47 c2 3d c0 d7 4a 3e
       -0.08290137 -0.110538274 0.09486259 0.19808865
000080 07 c8 70 be 9d a4 02 be e7 0b 8c be f5 45 ec bd
       -0.23513804 -0.12758107 -0.2735283 -0.11536781
000090 b4 f6 83 be ab 04 5c 3c d7 dc 1c 3e cf 21 3b be
       -0.25774157 0.013428847 0.15318619 -0.18274616
0000a0 10 b8 9c 3e 48 f8 e3 bc a8 47 f6 bd f7 9d 81 3e
       0.3060918 -0.02782835 -0.12025386 0.2531583
0000b0 23 62 92 3d fd a4 5b 3e 11 4e 25 3e 7c 11 02 be
       0.07147624 0.21449657 0.16143061 -0.12701982
0000c0 3d b9 e1 bd 81 74 8d bd 86 55 33 3e d1 43 51 3e
       -0.110216595 -0.06906987 0.17513093 0.20436026
0000d0 06 98 15 3e 98 4f b8 bc 00 28 a5 b9 37 fe fa bd
       0.14608774 -0.02249889 -0.00031501055 -0.12255519
0000e0 16 b8 ac 3d 76 f8 65 be 7e 4c c1 be 16 b1 72 be
       0.08433549 -0.22458062 -0.3775367 -0.23700365
0000f0 ff 9f 1a 3e 25 57 85 bd 19 c3 4b be ce 90 49 be
       0.15100096 -0.06510762 -0.19898643 -0.19684145
000100 e7 7b a9 bd 31 20 5d be 98 bf 84 3e 54 88 d6 bd
       -0.082755856 -0.21594311 0.25927424 -0.10475221
000110 cb 54 1b be ac 80 8c 3e b1 7f 61 3e 9a 4f 38 3e
       -0.15169065 0.2744192 0.22021367 0.17999116
000120 cf 37 17 3e bf 28 c8 3d 8f 74 8e 3d e1 df 43 be
       0.14767383 0.09773397 0.069558255 -0.19128372
000130 bf 5c 11 be 9c 77 15 3e 70 8e aa 3b 02 f8 da bc
       -0.14195536 0.14596409 0.005204968 -0.026729587
000140 13 6a 88 3e 2c bf 97 bc 76 0d 25 3d d7 27 eb bd
       0.26643428 -0.018523775 0.04029604 -0.11482208
000150 8c 2a 93 be a4 b6 86 be b9 e4 38 3d 3a 6e 97 3d
       -0.28743398 -0.2631122 0.045140002 0.07394071
000160 a8 e2 47 3e d0 8a 38 3d 17 e2 a7 3d cf 22 49 3e
       0.19520056 0.045054257 0.0819742 0.19642185
000170 7b 81 6e bd b0 9a 93 bc 3f 7f 1b 3e d4 0c 47 be
       -0.05822895 -0.018018097 0.1518526 -0.19438487
000180 c6 72 c9 bd d7 63 fd bd 83 1e 77 3e 29 a2 6a bd
       -0.098363444 -0.123725586 0.24132733 -0.057283554
000190 bf 86 fd 3d a9 bc 51 3c c8 1f e0 bd 96 fc 4d bd
       0.123792164 0.012801328 -0.10943562 -0.050289713
0001a0 9b f7 9c 3c c1 95 7b 3e b4 be 39 be 30 93 b3 3d
       0.019161036 0.24568845 -0.18139154 0.08768308
0001b0 03 d7 b3 bd f4 d6 a8 3b 5d a9 28 bd 2e 3e 4c 3e
       -0.087812446 0.0051525775 -0.041177142 0.19945595
0001c0 c7 2f b7 bd 13 a6 b2 3d 88 31 34 be 42 ed 8c be
       -0.0894466 0.087230824 -0.1759702 -0.27524763
0001d0 49 b9 07 3e 16 b3 2e 3e 7d a5 62 be 9c 61 96 3d
       0.13254274 0.17060503 -0.22133441 0.07342836
0001e0 eb 07 df 3c 39 b9 a8 3d d2 a9 61 bd 46 3d 03 3e
       0.027225455 0.082384534 -0.055093594 0.12816343
0001f0 c6 bd 76 be 0c 93 95 3e b7 13 8b 3c 12 49 da bd
       -0.2409583 0.2921375 0.016977174 -0.10658468
000200 28 fc 41 bd ca c7 b8 3c 3a 85 dc bd 07 9c 8b 3c
       -0.047359616 0.022556204 -0.107675985 0.017042173
000210 1c e7 55 be 37 9c 42 be 21 18 e3 3d b7 a6 ee bd
       -0.20888942 -0.19004904 0.110885866 -0.11652892
000220 f1 1c ae bd d5 32 2b 3b 58 bf 8c be c3 81 ca 3b
       -0.08501614 0.0026122828 -0.27489734 0.0061800196
000230 da 38 a2 3d 4d 12 77 be 5d 4f 37 be cd 44 b8 3d
       0.07921 -0.24128075 -0.17901368 0.08997498
000240 6d 0e 6f be ec 8a 1f bd f0 96 2b be b2 b1 06 3e
       -0.23345347 -0.038950846 -0.16756797 0.13153723
000250 42 b3 a1 bc 35 73 9b 3d f6 38 6a 3e 5f 45 25 be
       -0.019738797 0.07590333 0.22873291 -0.16139744
000260 c3 a5 2c be 33 5b a0 3d 17 24 0e 3e 54 0b b1 3d
       -0.16860108 0.07829895 0.13880955 0.08644739
000270 62 56 10 3e 1d 3c 59 3e d8 79 05 3d cc bd 08 3e
       0.14095452 0.21214338 0.032586902 0.13353652
000280 95 13 0f 3e 3b d1 a1 3c c4 f6 8d bc 8a 71 d5 bd
       0.13972314 0.01975309 -0.017329581 -0.104220465
000290 4a c2 13 bd b3 ce 63 bd 51 8e 1e bd 8b f7 22 be
       -0.03607396 -0.055617046 -0.038709942 -0.15914743
0002a0 57 25 3f 3d a2 0c 1b 3e cf 44 72 3e 6a e1 4d 3e
       0.04666647 0.15141538 0.23659061 0.2010552
0002b0 96 f9 7b 3d b2 4f 2c be 09 35 54 3d 04 83 83 be
       0.06151732 -0.16827276 0.05180839 -0.25685894
0002c0 51 87 c7 3c 3d 01 65 bd 09 e1 72 3e 02 02 cc bd
       0.024356516 -0.055909384 0.23718657 -0.099613205
0002d0 33 34 1c 3d a5 fc 30 be d5 f8 15 bd 13 a5 23 be
       0.03813572 -0.17283876 -0.036614258 -0.1598094
0002e0 74 31 5e bd f6 f6 6a be 7a 50 89 3e d1 b6 02 3d
       -0.05424638 -0.2294577 0.2681921 0.03191263
0002f0 9a 64 3d 3e e3 cf b0 ba 00 5d b6 bd 9b 47 8d 3d
       0.18495408 -0.001348969 -0.08904457 0.06898423
000300 8e d0 11 3e 93 14 8c be df 3c 22 3c 56 21 00 be
       0.14239714 -0.27359447 0.009902208 -0.12512717
000310 3c 64 57 3e 10 ed d2 bd 53 51 35 3e 36 a2 86 3e
       0.2103433 -0.10299122 0.17706804 0.26295632
000320 5b 83 42 be e9 d1 55 3e b1 a4 6f bd 2f 2b 26 3e
       -0.1899542 0.20880856 -0.05850667 0.1622741
000330 d6 9f 4a bc 0b eb 33 3e 3c bd 62 be e2 d1 72 3e
       -0.012367209 0.1757013 -0.221425 0.23712876
000340 8d aa 0c be 45 5a 82 3e 10 2d 87 3d 62 53 a0 3b
       -0.13736935 0.25459495 0.06600392 0.0048927525
000350 32 05 8d be 08 c7 ed 3d 8b 6a 8b 3e e2 c4 82 3e
       -0.27543026 0.11610228 0.27229723 0.25540835
000360 51 20 18 3e f5 3a 8a be e1 01 74 3b 2a a7 17 3e
       0.14856078 -0.26998106 0.0037232565 0.14809862
000370 61 92 ba bd 4f 09 86 be 12 b0 17 3e 0c f9 84 be
       -0.09109951 -0.26178977 0.14813259 -0.25971258
000380 bb cc 04 3d ab 7a 8c bd 1b be 88 be 78 98 80 bd
       0.03242181 -0.068593346 -0.2670754 -0.06279081
000390 7e 63 4f 3e e3 77 7e be a7 b3 23 be 2f 9d 79 be
       0.20252797 -0.2485042 -0.159865 -0.24376367
0003a0 53 29 44 be 90 ed 93 bc ec ed fd 3d 03 66 6b be
       -0.19156389 -0.018057615 0.123988956 -0.22988133
0003b0 44 4c 0f bd 90 71 85 3e 12 25 c4 3d bf fa cf 3d
       -0.034984842 0.26063204 0.09577383 0.10155248
0003c0 e1 1b d2 bc d1 1d 28 3e 55 b8 1a 3e 63 22 15 be
       -0.02564806 0.16417624 0.1510938 -0.14563899
0003d0 cc 11 6b 3e 23 77 b1 bc 13 9a 92 be 62 dc 27 3e
       0.22956008 -0.021663254 -0.28633174 0.16392663
0003e0 50 67 59 3d 4a c3 14 3e 30 54 e3 bd 60 7b 78 be
       0.053077042 0.14527622 -0.11100042 -0.24265814
0003f0 6b 4e b0 bd ce fa 66 3e 31 07 4b 3e 04 57 a5 3e
       -0.08608707 0.22556612 0.19826962 0.3229295

mlp1.0.bias f4 [150]
000000 d8 9d e1 bd e6 c7 5a 3d 6a 11 62 3e 95 6d 95 3e
       -0.110164344 0.053413294 0.22076955 0.29185167
000010 86 23 1e 3e 1e 5e 12 bc dc 61 69 3e 76 6a 77 be
       0.15443239 -0.008933572 0.22791237 -0.24161705
000020 86 4f 09 3e 90 a4 56 be 21 32 64 3e 00 17 a3 3d
       0.13409242 -0.20961213 0.22284748 0.07963371
000030 3f 81 3f be 8c e3 2c 3d cf f6 df 3d 36 33 21 3e
       -0.18701647 0.042209193 0.10935747 0.15742192
000040 e0 d4 fe 3d 7d 4f 1a 3e 62 4d f0 3c a2 de 43 bc
       0.124429464 0.15069385 0.029333774 -0.011954935
000050 0f 19 5c be b5 98 17 be f2 09 36 bd a5 3b 76 3e
       -0.21493934 -0.14804347 -0.04444308 0.2404619
000060 75 e1 e0 3c 76 5e 70 bc 80 63 3b bd 48 48 1c 3e
       0.027451256 -0.014670959 -0.045749187 0.15261948
000070 00 c4 19 3d c7 6a d2 bd b0 bb 4f be e2 fc 55 bd
       0.037540436 -0.102742724 -0.20286441 -0.05224312
000080 dc f9 4b 3d f4 84 f9 bd b4 ee 2b 3e 40 6a 89 be
       0.04979883 -0.12183562 0.16790277 -0.26838875
000090 ba 1c 08 bd d9 ea 14 3e 36 0d 88 3e c2 2c 79 be
       -0.03323052 0.14542712 0.2657258 -0.2433348
0000a0 30 8b ab 3d 07 91 c0 b8 21 5d 67 bd 05 6f 5e bd
       0.08376157 -9.182287e-05 -0.0564853 -0.054305095
0000b0 42 d4 38 bd d3 b5 09 3e a0 9e 0e 3d d8 5b 87 be
       -0.0451243 0.13448267 0.034819245 -0.2643726
0000c0 3f b1 60 be e2 1d 62 be 58 6b 53 bd 7d 77 3c 3d
       -0.21942614 -0.22081712 -0.051616043 0.04601239
0000d0 f3 1b e7 bd 88 4d 8c 3e 07 88 19 3e 75 ae 8b be
       -0.11284628 0.27402902 0.14993297 -0.27281538
0000e0 ff 39 66 3e d9 72 7b 3e 89 ac 85 3e f3 49 00 be
       0.22483061 0.2455553 0.26108196 -0.1252821
0000f0 91 b4 09 bd 42 e2 32 3e 30 a3 68 be 1a bb f0 bd
       -0.033619467 0.17469123 -0.22718501 -0.11754437
000100 30 b7 9c 3d f6 11 5e 3d 43 36 26 be cf e4 66 be
       0.07652128 0.054216348 -0.16231637 -0.22548221
000110 2a 61 90 be 4a a1 80 be 02 33 0e 3d 84 34 10 be
       -0.2819913 -0.25123054 0.034716614 -0.14082533
000120 45 d7 ca bd 6d 5e 97 bd db 77 7d 3e 67 7b 82 bc
       -0.09904341 -0.07391057 0.24752752 -0.015927983
000130 27 21 13 3e ee b7 8f be 10 61 2e 3e 37 d2 2f 3e
       0.14368115 -0.28070015 0.17029214 0.17170034
000140 3b 32 e2 3d 4d 05 b3 3d eb 5b 38 be e2 ba 0d bb
       0.11044737 0.087412454 -0.18003814 -0.0021626283
000150 08 f1 62 3e 61 9e 58 be a4 31 2f 3e f9 6c 46 bd
       0.22162259 -0.21154167 0.1710878 -0.04844377
000160 61 18 b4 3d bf a1 da 3c 14 52 4a bd 69 ab 85 3e
       0.087937124 0.026688455 -0.049394682 0.26107338
000170 d3 03 41 bd 11 6d 8f be 5a d0 4a 3d da 7e 92 3b
       -0.047122788 -0.280129 0.049515106 0.0044706883
000180 07 3d 5a 3e e0 ad 16 3e 29 25 a8 3d 59 ba 6c be
       0.21312343 0.14714766 0.08210213 -0.23117961
000190 ac cb 12 be b5 53 ee bc 90 33 4d be 79 ce 24 3e
       -0.14335507 -0.029092649 -0.20039201 0.16094388
0001a0 08 56 9f bc c5 57 07 bd 92 d0 66 be 26 f0 8c 3e
       -0.019450203 -0.033042688 -0.22540501 0.2752697
0001b0 64 32 7a 3e 37 bd 78 be 68 0f e3 3d 45 a5 d2 bd
       0.24433285 -0.2429093 0.11086923 -0.10285429
0001c0 7d 79 d6 3d e6 25 2b 3d 58 b8 5b 3e 82 6c 0d 3e
       0.10472391 0.04178419 0.2145704 0.13810924
0001d0 61 33 3e be df 12 af 3d 3d cb c6 bd 47 46 34 3e
       -0.18574287 0.08548521 -0.097067334 0.17604934
0001e0 30 24 ff bd b1 62 83 3e 72 ab e9 3d 93 75 11 be
       -0.12458074 0.25661233 0.11409654 -0.14205007
0001f0 43 4e c7 bd ae 47 a8 bc c5 05 70 be 9e 69 88 3e
       -0.09731724 -0.020541992 -0.23439701 0.2664308
000200 9b ae 5c 3e 1c 6b b9 bd c3 d0 87 be bf 92 0b 3e
       0.21550982 -0.090536326 -0.2652646 0.13630198
000210 60 dc 4f 3e f5 a1 3d 3e c0 5e 73 3e 88 26 fc bd
       0.2029891 0.18518813 0.23766613 -0.12312037
000220 fb 40 5b 3e ed 93 92 be cd c5 7d 3d 73 96 06 be
       0.21411507 -0.28628483 0.061956216 -0.1314333
000230 94 08 3a 3d 11 eb 69 be b1 18 62 3e eb 52 e5 3d
       0.045418337 -0.22843577 0.22079732 0.11197456
000240 94 f1 42 3d cc 11 3c 3e f3 26 2e bc d1 30 28 3e
       0.047593668 0.18366164 -0.010629403 0.16424872
000250 25 cb 32 bd 8a 88 89 bd
       -0.043650765 -0.06715496

mlp1.2.weight f4 [100, 150]
000000 08 43 9a bd b7 af 7d 3d bc 81 fb bb f5 d1 bd bc
       -0.075323164 0.061935153 -0.0076753777 -0.023171404
000010 3e 8b 1c bd 6b 51 f4 3c b7 70 38 bd e6 d5 b1 3b
       -0.03821873 0.02982398 -0.04502937 0.00542711
000020 3c 20 83 bd f5 b2 1e 3c 2a ba f3 bc 42 15 15 bd
       -0.064026326 0.009686221 -0.029751856 -0.036397226
000030 bb 89 dd bc 21 69 ad bd 52 df 86 bd e6 37 6e bc
       -0.027043214 -0.084673174 -0.06585564 -0.014539694
000040 3c 87 26 bd c0 4b 0b bd d5 e2 3f 3d d0 67 22 bd
       -0.040656313 -0.034007788 0.046847183 -0.039649785
000050 1c 2b 36 3d 48 f3 b7 3b c7 7a 66 bc 44 d3 94 3d
       0.044474706 0.005613718 -0.014067358 0.07266858
000060 ff d8 9d 3b aa 5d 49 3d 16 87 90 bd 33 1b da bc
       0.0048171277 0.04916159 -0.070570156 -0.026624298
000070 60 a5 18 bb c2 bc 37 bb 52 a7 79 bd c6 fa a8 bd
       -0.002329193 -0.0028036092 -0.060950585 -0.08250956
000080 4a a8 90 bd f4 2e 1f bd f6 d3 45 3d 5c 85 59 3d
       -0.070633486 -0.038863137 0.048297845 0.053105697
000090 9f 1a 02 bd c0 40 ce 3c 2d f6 4d 3c e9 90 9f bd
       -0.03176367 0.02517736 0.0125709 -0.07791311
0000a0 b7 a3 ea 3c 77 c0 7d bc ed 70 8e 3c fe 03 4a 3d
       0.028642518 -0.015487782 0.017387832 0.049320213
0000b0 a4 8a cc bc aa 8f 32 bd c5 d9 cc 3c 7b 01 45 3d
       -0.024968453 -0.04359404 0.025006184 0.048097115
0000c0 da 02 ef ba da c6 04 bd b6 86 ed bc f0 17 e5 bc
       -0.0018235103 -0.032416202 -0.0289949 -0.027965516
0000d0 e6 de 98 3d 83 10 1d bc 65 82 5a 3c 4d db 8e bd
       0.074643895 -0.009586456 0.013336753 -0.06975422
0000e0 25 b5 8d 3d f2 25 6e 3d 32 f3 96 3d 3d 14 dd 3b
       0.06919316 0.058141656 0.073706046 0.0067467974
0000f0 05 92 7f bd c7 9d c1 3d 5e a3 71 bd 52 a2 09 bd
       -0.062395114 0.09453922 -0.05899369 -0.033602066
000100 34 67 fd 3a e8 ef 72 bd fe d5 85 3d ce 20 80 3d
       0.0019333125 -0.059310824 0.065349564 0.06256257
000110 8c fe 8c bd 94 1a 1a 3c c3 45 48 bd 82 db aa bb
       -0.068844885 0.009405751 -0.048894655 -0.0052141557
000120 97 4b fa bb fe 29 6e 3c 77 f2 e0 bc 3c 59 6e bd
       -0.0076384055 0.014536379 -0.027459366 -0.05819057
000130 6a e4 be bc 4b 3f ec 38 42 10 fe bb fe 58 4d 3d
       -0.023302276 0.00011265146 -0.007753403 0.050133698
000140 2f 99 8c bd 8d 1f 07 3d 37 d8 fe 3c 3b 7f 70 3d
       -0.06865155 0.032989074 0.031108959 0.058715086
000150 c6 8d 85 bd 60 5b e0 bc f7 08 93 bd 02 80 84 ba
       -0.06521182 -0.027387321 -0.07179444 -0.001010895
000160 c6 7a 48 3d 1a da 48 bd d5 21 a7 3d 6b 97 a0 bd
       0.04894521 -0.049036123 0.0816075 -0.07841381
000170 6c ae 99 3d 3d d5 85 3c a3 2f 9d 3d 27 7e ae bd
       0.075039715 0.016337031 0.076751016 -0.085201554
000180 43 b2 2e 3d f6 88 9b bd d3 2c 2b 3d 28 30 ce 3c
       0.042650472 -0.075944826 0.041790795 0.025169447
000190 63 f0 c9 3c 5c 37 a0 bc 40 e5 ca 3c 76 64 ae bc
       0.024650758 -0.019557647 0.024767518 -0.021288138
0001a0 d5 e3 98 3d 53 ac 6b 3d f8 8d 9a 3c 57 6e 6e bc
       0.074653305 0.057537388 0.018866524 -0.014552674
0001b0 50 b3 b7 bb cb 60 23 bd ad 58 0c bc ea 01 24 3d
       -0.0056060925 -0.03988723 -0.008566064 0.040040888
0001c0 f3 f2 b4 bd 25 00 b2 bb 23 e1 8d 3d d1 a7 91 bd
       -0.088354014 -0.005432146 0.06927707 -0.071120866
0001d0 54 61 3f bd ba 63 c0 ba 25 c0 44 3d aa 6a 87 bb
       -0.04672368 -0.0014678158 0.048034806 -0.0041325884
0001e0 74 55 ff 3c eb 07 36 3d 5a d0 6c 3d 6f 88 3b 3b
       0.031168677 0.044441145 0.057815887 0.0028615256
0001f0 64 4a 91 3d 91 3b 1c bd 41 02 e9 3c 89 3b 5b 3d
       0.07094267 -0.038142744 0.028443458 0.053523574
000200 fe db 02 3d 6b cd 3b 3c 14 e1 ae bc 4c 4f 8b 3d
       0.031948082 0.01146255 -0.02134756 0.06802234
000210 a6 ca 86 3d 0f 01 1a bc a9 05 8a 3d e6 14 06 bd
       0.06581621 -0.009399666 0.06739361 -0.032734774
000220 da d7 a4 bc 36 8b 15 bd 1a a8 f2 3c b6 5a 11 bb
       -0.020122457 -0.036509715 0.029621173 -0.0022179312
000230 eb f3 80 3c 01 00 19 bd 68 d7 2c bd 0a 54 01 3b
       0.01574131 -0.03735352 -0.042197615 0.001973393
000240 4e d6 07 3d e9 b4 bd bc 9a b1 50 3d 9a a5 40 3d
       0.03316336 -0.023157554 0.050950624 0.04703293
000250 c1 22 d3 bb 87 10 53 3d d8 0b ee 3c fb 11 2a 3d
       -0.006443352 0.051529434 0.029058382 0.041521054
000260 30 d5 4f 3d fb 59 01 bd 7d c8 9f 3b 51 74 12 3a
       0.05074042 -0.031579953 0.004876195 0.00055867905
000270 e8 20 54 3d 32 cd a8 bd c8 e2 b0 3c 4d 1f 9e bc
       0.051789194 -0.08242263 0.021592513 -0.019302035
000280 d4 a3 72 bd b5 67 98 bc 2f b1 75 3d 1b ef b6 3c
       -0.05923827 -0.018604139 0.05998343 0.022330811
000290 bf ff 7a 3b 84 bb af bc ff 67 cd 3c 8f fe cb 3c
       0.003829941 -0.02145172 0.025074003 0.024901656
0002a0 6f d0 97 3d bf f0 bf bb ae d9 25 bd 2b a8 5d bd
       0.074128024 -0.0058575566 -0.0404908 -0.054115456
0002b0 0a 49 87 bc c8 30 c7 bd 51 41 64 bc 2b 4d 7d 3d
       -0.01651432 -0.09726101 -0.013931588 0.06184117
0002c0 a4 14 91 bd 6f f8 80 3d bb 7d 12 bd 02 e5 14 3d
       -0.07084015 0.06297385 -0.035764437 0.03635121
0002d0 70 bc 8e 3d c1 d3 21 bd 9f ec 25 3d 0a b9 0f 3c
       0.06969535 -0.039508585 0.040508863 0.008772144
0002e0 97 38 31 3d f6 1c 7f bd e4 35 28 3c 92 5e 3a bb
       0.04326686 -0.06228348 0.010266755 -0.0028437716
0002f0 f7 d4 5f 3d 9e 41 a3 3c c6 5b 10 3c 5a 2a 89 bd
       0.05464646 0.01992875 0.008810943 -0.06697531
000300 ce e3 6b 3b cf 3e 04 3c 4c 04 70 bd a4 3e 89 bd
       0.0035993936 0.008071615 -0.058597848 -0.06701401
000310 ec f0 3e 3d b2 95 45 3d 7f bb 02 3b 85 3d 66 3d
       0.04661648 0.048238464 0.0019948182 0.056211013
000320 95 40 a0 bb e8 55 b5 3c 79 02 75 3d a4 9d a9 3c
       -0.0048905113 0.02213569 0.05981681 0.020705052
000330 e0 56 39 bc c2 d0 73 bd ae 1d 3b bb 05 c2 7a bc
       -0.0113122165 -0.05952526 -0.0028551626 -0.015305047
000340 73 9b 0f 3d 7f 56 9c bc dc 45 56 3d d4 f5 52 3d
       0.035060357 -0.019084213 0.052312717 0.05150397
000350 22 94 a1 3d a4 8a 42 3d 84 22 86 3c 6b 6d 32 b9
       0.07889582 0.0474955 0.01637388 -0.00017016164
000360 52 38 6a bd 59 4c 66 bd 99 fb 91 3d 79 1c 92 bd
       -0.057182617 -0.056225155 0.071280666 -0.07134337
000370 93 e6 31 bd 52 16 9e bd 26 66 8b 3d c4 65 41 bb
       -0.043432783 -0.07719101 0.06806593 -0.002951012
000380 0d 8a 26 bd a8 e9 46 bd d0 a4 15 3d a9 85 cc bc
       -0.040659 -0.048562676 0.03653413 -0.024966078
000390 18 22 12 bd 18 da 11 bc 83 c5 30 3c cc 9c 87 3c
       -0.035677046 -0.008902095 0.010789278 0.016554259
0003a0 5d db 3a bd 75 cd 1d bd 49 40 74 3d 58 80 b6 bc
       -0.045619357 -0.038526017 0.05963162 -0.022277996
0003b0 e5 18 49 3d c2 46 57 bc a2 ee 6d bc 08 af 59 3d
       0.049096007 -0.013139429 -0.0145222265 0.05314544
0003c0 21 f4 32 bd 91 db dc bb 79 43 f0 3c f6 46 75 bd
       -0.04368985 -0.0067400415 0.029329048 -0.059882127
0003d0 4a c3 75 3d c3 22 c5 bc 37 73 8e 3d 67 54 c5 bc
       0.060000695 -0.024064427 0.06955569 -0.024088098
0003e0 81 3e b8 3a 59 bc e4 bc 7c 06 8b bd f8 bd cb 3c
       0.0014056714 -0.027921842 -0.06788346 0.024870858
0003f0 f5 79 8f 3d d4 43 b8 3d 94 18 62 bd 8d b9 a8 3b
       0.07005683 0.08997312 -0.05519922 0.0051490725

mlp1.2.bias f4 [100]
000000 1c 01 70 bd 7b 14 29 3d 1b 0d 27 bb ea 92 b8 bc
       -0.058594808 0.041279297 -0.002548999 -0.022530992
000010 63 aa 94 3d 6e ae e3 bb 57 72 34 3b ba fd 5e 3d
       0.07259061 -0.006948284 0.0027533972 0.05444119
000020 50 0b 52 3d b2 99 30 3d da e2 d0 3c 84 a3 6c bd
       0.05128032 0.043115325 0.025498796 -0.05777313
000030 0b 1a 89 bd bf 6c 67 3c 56 af f3 bc e4 22 aa 3d
       -0.066944204 0.014125048 -0.029746693 0.08307436
000040 f9 de 88 3c 27 53 58 3d 9b f3 a5 bc 08 11 7b bd
       0.016707884 0.052813675 -0.020257762 -0.06129554
000050 dd 42 80 3d be f1 0f 3d 03 2c 95 3d 88 6d a5 3d
       0.06262753 0.035142653 0.07283785 0.08077532
000060 ac e3 b3 bd f4 dc 16 3d 38 5e fd bb 28 ca 8c 3d
       -0.08783659 0.03683181 -0.007732179 0.06874496
000070 2f a7 6e 3d 13 f1 ce 3b 43 80 04 3c cf b2 cc 3c
       0.058264907 0.0063153594 0.008087221 0.024987606
000080 a3 22 ef bc 09 ba 85 3d 98 c6 25 3d e7 f1 d2 3d
       -0.02919132 0.06529624 0.040472597 0.103000455
000090 48 b4 e1 3c e3 1c df ba a3 1e 23 bd ad 1b c6 bc
       0.027551785 -0.0017022159 -0.03982414 -0.024183119
0000a0 09 a1 19 3d d6 e8 84 bd 76 24 ad 3c 80 7d 0f 3d
       0.03750709 -0.064897224 0.02113555 0.035031796
0000b0 90 f4 d8 3a d2 06 60 bb c8 50 8a bc 44 11 2b bb
       0.0016552377 -0.0034183753 -0.016884223 -0.002610282
0000c0 b3 59 ea bb 62 4d d9 bd e4 59 0f bd 78 7c 97 bc
       -0.0071518063 -0.10610463 -0.034997836 -0.018491969
0000d0 4c ee c6 bc 34 13 c5 bd c3 54 85 bc d4 5a 72 3d
       -0.02428355 -0.09622803 -0.01627577 0.05916865
0000e0 ec 63 66 bd 13 a8 1f bd 6d 69 49 3c 4a 3a 0b bd
       -0.056247637 -0.038978647 0.012293202 -0.033991136
0000f0 e4 62 81 3d ef db 68 bd 58 3d 82 bd cf 38 41 3d
       0.0631769 -0.05685037 -0.06359357 0.047173318
000100 2c 3c c3 3b 82 16 31 3d a8 f0 0d 3d 0c 83 c9 3a
       0.005958101 0.043234356 0.034653336 0.0015374138
000110 35 2e 06 bc 39 75 6d bd 5a a5 51 3d a7 a1 d2 3d
       -0.008189728 -0.05797312 0.051183082 0.10284739
000120 d3 3c ef bc 79 d4 e8 3c 61 50 62 3c 7f ec e1 3c
       -0.029203808 0.028421627 0.013813109 0.02757859
000130 ee 2b 78 3d b9 8a a1 bd f4 9d dc bb 96 ed 37 3d
       0.06058877 -0.07887787 -0.0067326967 0.044904314
000140 27 c1 a5 3d 3f e6 cf bb 8f c5 f7 bc 44 30 4a 3d
       0.080934815 -0.006344586 -0.03024557 0.049362436
000150 dd 35 60 b9 f5 7a a3 bb 7f 7a 31 bd 22 08 44 bd
       -0.0002138237 -0.004989023 -0.043329712 -0.04785932
000160 65 08 14 3c f7 41 9d 3c f9 95 b4 bd fb 9f 3f 3d
       0.009035205 0.019196494 -0.088176675 0.04678343
000170 15 f7 6b 3d df 5a bf 3c 4b 01 b1 3d 66 d8 c4 3c
       0.057608683 0.02335876 0.08642825 0.024028968
000180 ca 85 aa bc d6 86 07 3c 69 e7 82 3b 22 42 86 bd
       -0.020815749 0.0082718935 0.0039948714 -0.065555826

mlp2.0.weight f4 [100, 100]
000000 fd ad 9a 3d 50 e3 c4 bc cc 16 a8 bd 19 d2 7a 3b
       0.07552717 -0.024034172 -0.08207473 0.00382722
000010 ed 1f 59 3d 35 68 a8 bc 6f 86 ca bd 28 8e 20 3d
       0.053008962 -0.020557502 -0.098889224 0.03919807
000020 cc 6b 84 3d 85 2e bf 3d 3d da 13 3d ff ff 02 bd
       0.06465873 0.09335045 0.0360968 -0.03198242
000030 eb 9d c4 3d d5 f8 71 bc 26 8a 87 3b a6 fb ac bd
       0.09600433 -0.014768799 0.0041363416 -0.08446436
000040 1a 23 9d bd 70 85 a8 3d 7b 63 11 3d 40 46 8c 3d
       -0.07672711 0.08228576 0.035495263 0.068493366
000050 94 d9 43 3c 1e 19 8b 3d ca 7d c9 bd 09 f8 1d bd
       0.01195373 0.067919 -0.098384455 -0.038566623
000060 cf e7 9e bc 61 4d ec 3b 26 9d ae bd d1 17 9d bd
       -0.019397644 0.0072113727 -0.085260674 -0.07670558
000070 82 0d ba bd bb a5 75 bd af 61 b9 3d 2a b9 0a 3c
       -0.09084608 -0.059972506 0.09051835 0.008466998
000080 70 98 92 3d f5 c1 df bc 92 dc 3a 3d 01 be 14 3c
       0.071579814 -0.027314166 0.04562051 0.009078504
000090 bd 53 35 bd 98 ef a2 bd b0 19 d9 bb e8 07 c0 bd
       -0.044269312 -0.07955855 -0.0066253766 -0.09376508
0000a0 18 3b 74 3d ea 6f 56 3d 79 97 69 3d 7b 88 4f 3d
       0.05962667 0.052352823 0.05702922 0.050667267
0000b0 ff ee a6 3d 56 df 9b bd a8 87 9f bd 0d 2c 64 3d
       0.08151054 -0.07610957 -0.07789546 0.055706073
0000c0 73 6e 94 bd 9b 54 82 3d e0 76 88 3d 0c 9f 63 3d
       -0.07247629 0.063637935 0.066632986 0.0555716
0000d0 71 1f 7d bd 8c 4d 8d 3d d2 0f d6 3d be eb 14 bc
       -0.061797563 0.068995565 0.10452236 -0.009089408
0000e0 a5 ae a9 bc bb 59 28 bc 2c f4 a2 3d 92 7f d5 bc
       -0.02071316 -0.0102753 0.07956728 -0.026061807
0000f0 a1 31 7a bd 2e 24 91 bd 35 4d 2e bc 7c 8c 78 bd
       -0.061082486 -0.07086979 -0.010638525 -0.06068085
000100 19 ae 9b bb 4d 2d 2c bc 71 14 5c 3d a5 54 0f 3c
       -0.0047509787 -0.010508847 0.053730432 0.008748208
000110 2d fc 6f 3d 9c 3d 08 3d cd ab 6c bc 93 be 7a 3d
       0.058590103 0.03326188 -0.014445257 0.061216902
000120 6d 5f d1 3c 17 b5 4c 3d ad 58 ec 3c 73 39 47 3d
       0.025558198 0.04997739 0.028850878 0.048638772
000130 ea 56 82 bd 25 d6 25 bd 99 01 36 bd 28 b9 a4 3a
       -0.06364234 -0.040487427 -0.044435117 0.0012567388
000140 ac 15 95 bd 88 43 ac 3c 0d 9f 14 bb e7 06 10 3d
       -0.07279524 0.021028295 -0.002267781 0.035162833
000150 ca 2a e5 3c 31 a7 c3 3d e7 fc b7 bc d0 b9 aa 3d
       0.027974505 0.095533736 -0.02245946 0.08336222
000160 5f 91 89 3d fb 74 c5 3d 7f 49 c0 3c e0 a5 be 3c
       0.067171805 0.09641453 0.023472546 0.023272455
000170 bb 62 92 bd 2f 28 e5 3c ea 0e d2 bd 20 90 ce 3b
       -0.071477376 0.027973263 -0.10256751 0.006303802
000180 70 d7 52 3d a6 5d fb bc cb 04 09 bd 79 f7 9d bd
       0.05147499 -0.030684303 -0.033451837 -0.07713217
000190 1c 68 86 3d f0 20 15 3d 91 b9 62 bd 38 cb 4d 3d
       0.06562826 0.036408365 -0.05535275 0.050242633
0001a0 93 54 dd bc 57 1f c4 bc 49 49 b4 3d 4b d9 91 bd
       -0.027017867 -0.023940725 0.088030405 -0.071215235
0001b0 46 26 98 bd 69 bf 68 bc 2b b4 24 3d 16 44 82 bd
       -0.07429175 -0.014205792 0.040210884 -0.063606426
0001c0 a4 86 e4 3d 1f ed d4 bb 63 3e 97 3d d7 b5 b5 bd
       0.11158493 -0.0064979936 0.07384946 -0.08872574
0001d0 89 f6 a1 3d 4c 14 62 3d bf df 40 3d 55 a3 cc 3c
       0.07908351 0.055195138 0.04708838 0.024980227
0001e0 5c 82 7f 3d ca c3 86 bb 63 c0 a1 3d 58 df 96 bc
       0.06238018 -0.0041126953 0.07898023 -0.018417045
0001f0 fd f0 d6 3d 1c bf a1 bc 54 d8 aa 3d 6f b2 af 3b
       0.104951836 -0.019744448 0.083420426 0.005361847
000200 d5 39 15 bc a2 e3 91 3d 25 9e 97 bd 39 43 0b bd
       -0.0091080265 0.07123496 -0.074032106 -0.033999655
000210 c0 ea a2 bd 44 d9 15 3d 4a d2 ae bd 71 83 55 bc
       -0.07954931 0.036584154 -0.08536203 -0.013031826
000220 7a 67 b7 bc 88 5d 93 bb 5a b5 83 3d 24 44 42 3d
       -0.022388209 -0.004497234 0.064310744 0.047428265
000230 6f 6e b9 bd a4 d0 76 bd c2 69 d2 bd 1a 79 a5 bd
       -0.09054267 -0.06025757 -0.10274078 -0.08079739
000240 a9 3f b5 3d ec 67 b0 3d 03 62 31 bd 1a c8 2d bd
       0.08850033 0.086135715 -0.043306362 -0.04242716
000250 95 4b 62 3c 66 2c 00 3e a4 20 39 3c 71 f1 a8 3d
       0.0138119655 0.12516937 0.011299286 0.08249176
000260 44 50 19 3d 3f f7 3f bd 97 53 b3 3d ed a4 dc 3d
       0.037430063 -0.04686665 0.08756178 0.107736446
000270 1a cb 8c 3d 1e 69 0c bc 28 c3 79 3c de 00 af 3d
       0.06874676 -0.008569984 0.015244283 0.08545087
000280 02 c5 e9 3d 8f 91 22 3d 61 c6 ca bd 44 47 a2 bd
       0.114145294 0.039689597 -0.09901119 -0.07923749
000290 ac 15 cf 3d 78 16 af bd 30 8b 66 bd 24 f3 2f 3d
       0.101115555 -0.085492074 -0.056285083 0.042956486
0002a0 3b f1 39 bd ff 88 88 3d 77 a4 60 3d 92 34 11 bd
       -0.04539607 0.06666755 0.054844346 -0.035450526
0002b0 35 40 ca bc 26 af 9c bd eb 72 9a 3d 01 bd cb 3d
       -0.02468882 -0.076505944 0.0754145 0.09948159
0002c0 2d fd ba bc 45 36 da bd 44 9b 43 3b f5 f1 c0 3d
       -0.022825802 -0.10654882 0.0029847184 0.0942115
0002d0 5c 46 ad 3d db ed 42 bc 7f f9 76 bc e8 a5 20 3d
       0.084606856 -0.0118975295 -0.015074133 0.03922072
0002e0 4f 25 9c bd e4 0f a3 3d b0 61 5e 3d b5 9d 09 bd
       -0.076243035 0.07962015 0.05429238 -0.033597667
0002f0 8f 5f 1a 3d fd de bb 3d c1 c4 c1 bd b2 42 3b 3b
       0.037688788 0.09173391 -0.09461356 0.002857369
000300 94 8e e6 bd 35 c1 05 be fb 36 20 bc 32 a9 0c 3d
       -0.11257663 -0.13061984 -0.009778733 0.034341045
000310 f4 c0 07 bb dc d3 7e 3d c4 8c 9f bd 23 be 08 3e
       -0.0020714374 0.062213764 -0.07790521 0.13353781
000320 62 08 c7 3d 42 56 88 bd d8 38 a3 bc 41 fe ab 3d
       0.09718396 -0.06657077 -0.019924566 0.083981045
000330 87 43 b1 3d 2e 32 1c 3d 7e 84 3e 3d 05 1b df bd
       0.08655458 0.038133793 0.046513073 -0.108938254
000340 95 cf 21 bd 6c 64 1a bd f1 3f c8 3d 84 71 74 bd
       -0.039504606 -0.037693426 0.09777821 -0.05967857
000350 8a bb 35 3c ce b9 6d 3b e6 1e c3 3d 5c 71 9e bd
       0.011092076 0.0036274078 0.09527378 -0.07736465
000360 8f e1 85 3b ae b0 0a 3d 6f 87 95 3b d2 57 80 bd
       0.0040857266 0.0338599 0.004563264 -0.062667504
000370 d6 15 cf 3b b1 af d2 3a 21 c8 2c bd 59 cb 7e bd
       0.0063197417 0.0016074089 -0.042183045 -0.062205646
000380 bd a1 fc bc eb 90 32 bc 80 ee 7b 3d 46 c6 cc bd
       -0.030838842 -0.010898809 0.06150675 -0.09998755
000390 68 6a 9d bd 66 ab 8a 3d 74 b3 32 bd 47 20 1d 3d
       -0.07686311 0.06770973 -0.04362817 0.03836086
0003a0 45 c3 04 bd a9 c9 24 3d e4 66 53 3d f6 2d bd 3d
       -0.032412786 0.04023138 0.051611796 0.09237282
0003b0 85 6a 2c bd eb 27 80 bc 50 1a a3 3b a3 e9 d5 bc
       -0.042093772 -0.015644034 0.004977502 -0.026112383
0003c0 33 98 53 bd 10 e5 09 3c c7 5d 93 bd 0f 76 b2 bb
       -0.05165882 0.008416429 -0.07195621 -0.0054462026
0003d0 20 bf 10 bd ae 48 e0 bb d5 27 10 bc 56 1b b9 3d
       -0.03533852 -0.0068446016 -0.008798559 0.09038417
0003e0 85 aa c3 3d d3 c5 32 3d f6 97 be bd 6a 7f d3 bc
       0.095540084 0.04364569 -0.09306328 -0.025817592
0003f0 a0 a3 7e 3b c8 3e 43 bd 72 19 76 bc 17 1d ae bd
       0.0038854852 -0.047667295 -0.015020715 -0.08501642

mlp2.0.bias f4 [100]
000000 7d 62 4d 3d 5f 51 0a bd 0c 39 1e 3d 97 31 dc bd
       0.050142754 -0.033769008 0.038628623 -0.10751646
000010 bd 13 8e 3d cb 58 dd bc a4 44 0f 3d 1e 48 53 bd
       0.069373585 -0.027019879 0.03497757 -0.05158245
000020 63 0b ab bd 53 11 13 3e a8 97 b3 3d f6 d0 81 bd
       -0.08351781 0.14362077 0.087691605 -0.06338684
000030 e0 3c 0a 3d 95 86 ca bd ab c8 ad bd e3 4b e5 ba
       0.03374946 -0.09888951 -0.0848554 -0.001749393
000040 1c 63 e4 bc 03 73 0d bd 66 a5 a3 bd 0a bf 72 3c
       -0.02787929 -0.03453351 -0.079905316 0.014816055
000050 6d e6 85 bd 78 06 83 bd 17 61 15 bd 66 dd 46 bd
       -0.06538091 -0.06397718 -0.036469545 -0.048550986
000060 8b f9 b2 3d 13 63 4a bd 7e fa b0 3c a9 ad 28 bd
       0.08739003 -0.04941089 0.021603819 -0.04118124
000070 2b 11 86 bb fe ef 2d bc 5f 8c dd 3d ca 9c 05 3e
       -0.004091402 -0.010616301 0.10817789 0.13048092
000080 e0 83 52 3d f6 65 d2 bd 58 c2 32 3d 24 28 8c 3d
       0.051395297 -0.10273354 0.043642372 0.06843594
000090 69 c7 a1 bd 5f 0b a3 3d d4 3d ad bc 4f 7d db 3d
       -0.078993626 0.07961153 -0.021147646 0.1071726
0000a0 31 5f ed 3d 52 34 98 3b aa a3 51 bc 46 d6 11 3d
       0.11590422 0.004644909 -0.012795368 0.035604738
0000b0 03 55 bc bd 7b ed be 3b 99 d6 61 bd b6 06 9a bb
       -0.09195902 0.0058266497 -0.055136297 -0.004700507
0000c0 7a 87 76 bd c7 cc b4 bd 8a f0 9b bc 66 7e 9c bd
       -0.060187794 -0.08828121 -0.019035596 -0.07641296
0000d0 da b6 09 3e 86 97 d8 3c 51 94 3a 3d 5b 24 68 bd
       0.13448659 0.02643944 0.0455516 -0.056675296
0000e0 2f 26 c8 3d 85 a2 f3 3c 30 51 25 bd ac 25 b4 bd
       0.09772908 0.029740581 -0.04036063 -0.08796248
0000f0 60 fc a9 3c bb e7 98 bd 9e c0 25 bd cb 1f e0 bc
       0.020750225 -0.07466074 -0.040466897 -0.02735891
000100 48 40 9c 3b 3c 39 8e bc 8d e1 4e 3d 5f 78 23 bd
       0.004768405 -0.017361276 0.05050807 -0.039909717
000110 2f 9d 5a bc 53 51 ec bc 61 9a e7 bd 2b f5 12 3d
       -0.01334314 -0.028847372 -0.11308742 0.03587834
000120 1c c0 a9 bc fe 6e dc 3d d2 7c c4 3d 8b 16 e3 3d
       -0.020721488 0.107633576 0.0959412 0.11088284
000130 52 94 8e bd b1 2d 69 bd 22 64 2e 3d 65 a8 92 bb
       -0.069618836 -0.05692834 0.042575963 -0.0044756406
000140 d2 68 4a 3d 00 67 b2 bc a0 0b af 3d 57 2d 83 3d
       0.04941637 -0.02177763 0.08547139 0.06405132
000150 bc fe a0 bd 4d 34 0a 3e 6d 6d 8a 3d be 4a 0b bc
       -0.07861087 0.13496514 0.067591526 -0.008501707
000160 c3 48 e7 ba 27 63 9a 3c 41 d9 ac bd ad d7 c0 bd
       -0.0017645586 0.018846108 -0.084398754 -0.09416137
000170 9e 95 20 bd 54 a1 8f 3d 9e 03 9a 3d 07 be 34 bd
       -0.039205186 0.07013193 0.07520221 -0.044126537
000180 c3 89 71 3d 2e 0a 86 3d 52 ba bc 3c b4 60 ca 3c
       0.05896927 0.0654491 0.023038063 0.024704315

mlp2.2.weight f4 [50, 100]
000000 76 b2 3e bd 7e a7 a1 bd 86 76 36 bd f8 d1 a4 bd
       -0.046556912 -0.07893275 -0.044546627 -0.08047861
000010 ea 88 ed 3b e3 ff 19 bd cb 41 90 bd dd d7 80 3c
       0.0072489874 -0.03759755 -0.07043799 0.015727932
000020 84 9b ca bb a4 83 bf 3a 25 bc 4b bc 96 a6 13 bd
       -0.0061830897 0.0014611376 -0.012434994 -0.03604754
000030 63 50 d3 bc 71 bb 22 3d dc 16 64 3d 1b e6 9e bd
       -0.025795167 0.03972954 0.055685863 -0.07758733
000040 f7 2b 4b 3d 25 c2 32 bd 5a b5 44 3c fd 65 96 bb
       0.049602475 -0.043642182 0.012006128 -0.0045897947
000050 eb 6c 83 bd e7 16 7a 3d 4a b2 51 3d b8 19 96 bc
       -0.06417259 0.061056998 0.05119542 -0.01832281
000060 7d 7e 2d bd 9a 65 c5 3d b7 62 06 bd 78 c8 b9 bd
       -0.042356957 0.096385196 -0.032808986 -0.090714395
000070 b4 79 70 3d f4 bd 2e bd b9 32 a0 bd 2e 74 20 bd
       0.058709815 -0.042661622 -0.078221746 -0.039173298
000080 ef ac b3 bd 3f 43 be bd 0d 2b a7 3d cc e7 4c bd
       -0.08773219 -0.0929017 0.08162508 -0.050025746
000090 bd 8b d9 bd 71 2f da 3c 99 6b ef 3d aa bf 33 bd
       -0.10622356 0.02663395 0.116904445 -0.043883957
0000a0 e4 99 63 3d 5a 78 5a 3d 73 a9 a0 bb 63 7f 7b 3d
       0.055566683 0.053337432 -0.0049030124 0.061400782
0000b0 49 ff 08 bd bb 67 18 bd 8e 42 3b bd d4 c6 8d bb
       -0.033446584 -0.0372083 -0.04571777 -0.0043266807
0000c0 90 c9 b3 3d 76 71 7a bd 50 4e 88 bd 5f ef 7d 3d
       0.08778679 -0.06114336 -0.06655562 0.06199586
0000d0 39 d0 7b ba 88 ed 80 3c e4 c8 39 3c a2 ef 31 3c
       -0.0009605918 0.015738264 0.0113394 0.010860356
0000e0 54 9e a0 3d 20 eb f6 3c eb 1c e7 bc a2 52 af 3c
       0.07842699 0.030141413 -0.028212031 0.021401707
0000f0 0b e4 f4 3c 77 2e 69 3d b6 aa bd bd e9 7a 8e bd
       0.029893896 0.056929078 -0.09261076 -0.06957037
000100 39 0a a9 3d 2b f4 1b 3d 56 89 94 bd d7 eb 54 3d
       0.08253903 0.038074654 -0.07252757 0.051982727
000110 6e 04 31 3d 85 2b 88 3d 3f 9c 84 bd 0e c6 a4 3d
       0.043217115 0.06648926 -0.06475114 0.080455884
000120 61 b4 65 3d 6d c3 1e 3c 4b 4f fa bd 60 be 44 3d
       0.056080226 0.009690148 -0.12222155 0.04803312
000130 91 16 9a bc b0 0f 87 3d 8b 9e e3 3c 7c 15 2c bd
       -0.018809589 0.06594789 0.02778556 -0.042012677
000140 03 90 c0 bd da 83 5b bd 30 68 06 3d f9 e9 f1 3d
       -0.09402468 -0.05359254 0.032814205 0.11812205
000150 79 e4 45 3d 23 60 73 3d 9f ef 22 bc e0 41 8d 3c
       0.04831359 0.059417855 -0.009944825 0.017243326
000160 9b e5 0e 3d f7 e5 73 3c 6e 6d f0 bc de e9 a4 bd
       0.034886938 0.014886371 -0.029349055 -0.08052419
000170 3e 26 01 3d fd 87 e2 bc 5c d3 1f bd b2 66 81 3d
       0.03153061 -0.027652735 -0.039019927 0.06318416
000180 b0 69 93 3c 62 01 42 3d 12 8f 5a bd 29 23 25 bd
       0.017994732 0.0473646 -0.0533591 -0.040316734
000190 1e c9 b2 bd 3f af b5 bd 33 f5 d0 bd 05 47 eb bc
       -0.08729766 -0.08871316 -0.10203018 -0.028720388
0001a0 ca c5 ad 3c 95 7e 83 bd b9 61 13 3d d5 fa bb 3d
       0.021212477 -0.06420628 0.035981867 0.09178702
0001b0 fd d5 af 3c 19 48 6f 3d b3 d8 cc 3d d0 44 82 3d
       0.021464342 0.058418367 0.100022696 0.06360781
0001c0 67 e7 90 3d 14 c3 ce 3d 4c d6 10 bd 4e 22 20 bd
       0.070753865 0.10095802 -0.03536062 -0.039095215
0001d0 a4 fe 01 3c 52 e1 a7 bd ba 27 56 3c 4e a1 7e 3d
       0.007934246 -0.08197273 0.013070995 0.06216555
0001e0 e5 eb 13 bd a6 35 0c bd c4 96 00 bd c3 21 99 3d
       -0.03611364 -0.03423085 -0.03139378 0.07477143
0001f0 c7 3e b7 bd 3d a4 56 3d 5e 5c c2 3d bb a1 6e 3d
       -0.08947521 0.052402724 0.09490274 0.058259707
000200 c3 6c 0a 3c 63 0e de bd 55 60 47 3d ab 8a 30 bc
       0.008448782 -0.10842588 0.048675854 -0.0107752485
000210 87 e4 a3 3d c8 6a 89 bc 41 3e 1d bd 5b b4 9a 3d
       0.080025725 -0.01677455 -0.038389448 0.07553931
000220 4c b8 b1 3d 4a 3d 5b 3d d0 60 fa bd c9 2b 13 bd
       0.0867773 0.053525247 -0.12225497 -0.03593043
000230 8b 86 3e bd 12 77 8e bd 49 1e bf bc 2e 4e 53 bc
       -0.04651503 -0.069563046 -0.02332987 -0.012897057
000240 8d 2e 37 bd 25 08 af 3d a2 e0 88 bd 0a bc 57 3d
       -0.04472213 0.08546475 -0.0668347 0.052669562
000250 76 7f 81 bd 78 6d 69 bc 9f 0a 8b bc 49 72 67 3d
       -0.06323139 -0.014247291 -0.016972838 0.056505475
000260 f9 25 05 bd a7 96 4f bd 86 36 17 3d 3e cc 91 bd
       -0.032506917 -0.050680783 0.036917232 -0.07119034
000270 c7 b8 cf bd 15 d7 70 bd a9 01 01 3d f9 f4 bf 3d
       -0.10142665 -0.05879887 0.031495724 0.09372897
000280 4c 3a 20 3d b0 c5 94 bc 85 10 a4 3d dc 7d 6e bb
       0.039118096 -0.018160671 0.08010963 -0.0036390936
000290 f7 ab 18 3d 98 a2 c7 3c e0 89 53 3d 2a c3 84 3d
       0.037273373 0.024369523 0.05164516 0.06482537
0002a0 73 50 50 3d d9 75 09 bc 1f c8 08 3c 7b 20 b7 bd
       0.050857972 -0.0083899135 0.008348494 -0.08941742
0002b0 39 53 79 bd d0 9f 43 bd a9 c6 bc 3c ad 90 99 3d
       -0.060870383 -0.04775983 0.023043947 0.07498298
0002c0 33 d4 11 3d 3d f9 1c bd 68 e6 c5 bc 88 14 cb 3d
       0.03560276 -0.03832363 -0.024157718 0.099160254
0002d0 36 e4 b0 3d b5 cb 53 bc d2 80 93 bd b5 5a bc bd
       0.08637278 -0.0129269855 -0.07202305 -0.091969885
0002e0 ab 05 a0 bd 02 02 6d bd 8e 4d ef bd 8c 15 b0 3c
       -0.07813581 -0.057863243 -0.11684714 0.02149465
0002f0 3f e7 c7 bd e4 74 79 bd 0a 93 63 bd 61 cf 0b 3d
       -0.097609036 -0.06090249 -0.05556015 0.03413332
000300 15 ed 25 bd eb 2e 5a 3d ad 87 04 3c e8 d5 92 3d
       -0.040509302 0.0532674 0.008088988 0.07169706
000310 c4 71 01 bd 85 ea a0 3d 2d bb c4 ba 29 3d d6 3d
       -0.031602636 0.07857231 -0.0015009396 0.10460884
000320 39 b8 58 3d fd 54 92 3d 34 47 33 bb 08 dd c6 bd
       0.052910063 0.071451165 -0.0027355673 -0.09710127
000330 90 48 40 bd 12 51 db 3c b6 79 29 3d f0 bb b6 bd
       -0.0469442 0.026772056 0.04137584 -0.08922565
000340 67 cc c5 bd 25 2d 1e 3d 5b a3 29 bd 23 7c c9 bd
       -0.09658127 0.038617272 -0.041415554 -0.0983813
000350 4a 0a a0 bd 43 46 08 3d 21 78 a4 bc a9 49 da bd
       -0.078144625 0.03327013 -0.020076813 -0.10658581
000360 5d cc 90 3d 38 d9 9b bc 74 3b 8d 3b 36 5b d9 3c
       0.07070229 -0.019024476 0.004310066 0.02653275
000370 59 c3 52 3d c5 b2 8f 3c 02 7a 6c bd 1b 7a 4e 3d
       0.05145583 0.017541299 -0.057733543 0.050409418
000380 81 4e f5 bc e8 11 83 bd f3 40 25 bd 87 99 4d 3d
       -0.02994466 -0.063999 -0.040345144 0.050195243
000390 dd d7 6f 3d 54 fd 1d bd 94 11 07 bc a6 26 b6 bc
       0.058555473 -0.03857167 -0.008243937 -0.022235226
0003a0 90 7b f9 bb 57 87 7a bd 87 a4 93 bd c5 14 0b 3d
       -0.0076136068 -0.061164226 -0.072091155 0.033955354
0003b0 ba 26 cc 3d fe 39 40 3d 63 5e 86 bc 61 5f 82 3d
       0.09968324 0.046930306 -0.016402429 0.06365848
0003c0 8b 99 2a 3d 23 74 b0 bc d4 15 61 3c 81 29 e6 bc
       0.041650336 -0.021539753 0.013738114 -0.028095962
0003d0 c5 68 44 bc 44 e8 8b bd c5 d8 85 3c a9 c0 5d 3d
       -0.01198787 -0.068314105 0.016338715 0.054138813
0003e0 c9 a9 93 bd 3a 06 47 3d 0d 79 a9 bd f9 e2 a8 3c
       -0.07210118 0.048589922 -0.08275042 0.020616041
0003f0 96 fb c0 3d 14 5f 33 bd c6 24 a8 3d c3 a1 32 3d
       0.09422986 -0.043791845 0.08210139 0.0436113

mlp2.2.bias f4 [50]
000000 c4 48 a3 3d cb 85 a1 bd de c1 a2 3d 6d 5c b6 3c
       0.07972863 -0.07886847 0.079471335 0.022260869
000010 57 6c a5 3c d2 dc bd bd 15 ec a7 3d b8 9b c0 3c
       0.020193262 -0.09270634 0.08199326 0.023511752
000020 56 7e 38 bd 68 76 47 bd 92 a2 24 bd c3 a0 e8 bc
       -0.04504236 -0.048696905 -0.0401941 -0.02839697
000030 30 9c ed bd 13 48 1d bd 1b 79 35 3d cc bf 91 bd
       -0.11602056 -0.038398813 0.04430495 -0.071166605
000040 cd bc 89 bd 1b 7c 00 3e e6 3d 7f 3c 5a b4 80 3d
       -0.06725464 0.12547342 0.015578723 0.06284399
000050 fd ba 8d bd 75 2d 74 3c c8 e5 8e 3d 7e ed 08 3d
       -0.06920431 0.014903416 0.06977421 0.033429615
000060 ee 9b 87 bb a9 cc d9 bd 70 e9 b9 bd 1d e6 49 bc
       -0.0041384613 -0.10634739 -0.09077728 -0.01232293
000070 cb 41 b8 3c a0 1d bf 3d 56 45 46 bd 0b 33 43 3c
       0.02249231 0.093318224 -0.048405968 0.011914025
000080 be 20 6d 3b b7 90 97 bd af 49 58 3d 58 a7 cf bd
       0.0036182846 -0.07400649 0.052804645 -0.1013934
000090 e8 89 db bd 88 7d 4e bd d8 58 25 3d 59 c1 ec bc
       -0.10719663 -0.050412685 0.04036793 -0.02890079
0000a0 83 00 f4 3d c6 fd 9a 3d 19 e2 a2 3d 03 4a 0b 3e
       0.1191416 0.07567935 0.07953281 0.13602452
0000b0 19 dd 7f bd a1 5d e2 3c 57 5a 1e be a7 25 55 3c
       -0.062466715 0.027632536 -0.1546415 0.013009465
0000c0 c6 4f cd 3d 1e 74 9e 3b
       0.10024981 0.0048356196

attention.0.weight f4 [100, 200]
000000 c9 69 86 bd 6d 72 06 3d 49 a7 e8 bc 37 e6 a7 3c
       -0.06563146 0.03282397 -0.02840008 0.020495517
000010 17 66 e4 3c 8c d6 43 bd d6 a3 9f bc 84 3c 73 bd
       0.027880711 -0.04781203 -0.019487303 -0.059383884
000020 5f 83 54 bb 84 75 45 3d 4b 22 ff bc 90 40 1a bd
       -0.0032426936 0.048207775 -0.031144282 -0.037659228
000030 34 a5 60 3d ee dc 55 bd e8 ef 88 3d dd b1 2e 3d
       0.05484505 -0.052212648 0.066863835 0.042650092
000040 23 63 6c 3b f9 25 6f bd 4d b0 ee 3c 4a 0a 48 3d
       0.0036069832 -0.058385823 0.029136801 0.048837937
000050 9f 07 08 bd 7d 17 24 3d 0d a9 09 bb 33 fb 65 3d
       -0.033210393 0.040061463 -0.0021005303 0.056147765
000060 7f fb 97 bc 0b c8 67 3d 63 62 36 bc 43 06 96 bd
       -0.01855254 0.05658726 -0.011131856 -0.07325413
000070 f2 91 4b 3d 69 6c 01 3c 01 e6 55 3c 32 52 58 3c
       0.04969973 0.007899382 0.0130553255 0.013203191
000080 7e 08 01 3d f7 68 4b 3d 23 b7 0d bd c8 d3 67 3d
       0.03150224 0.04966065 -0.03459848 0.056598455
000090 96 35 5f 3d af 54 f7 3c 08 aa 08 3d 77 04 15 3d
       0.054494463 0.030191747 0.03336528 0.03638121
0000a0 8c 9a d6 3c ee 3b c4 bc 8e 3f 27 bd 42 07 1e 3c
       0.02619674 -0.023954358 -0.040832095 0.009645285
0000b0 2d 89 fb bc 77 7d f5 3c ee 9d 48 bd 30 5e ad 3c
       -0.030705059 0.029967053 -0.04897874 0.021163076
0000c0 49 11 7c 3b 10 09 50 bd 3b 88 86 bd 45 43 c3 3c
       0.0038462451 -0.050789893 -0.06568953 0.023835788
0000d0 43 d5 38 3c 51 09 3d 3d 63 ed 74 bd 6a 34 2b bd
       0.011281314 0.046151463 -0.059796702 -0.041798033
0000e0 2c 25 65 bb 94 09 99 bc 71 f4 71 3d e8 54 3d 3d
       -0.0034964783 -0.018681325 0.059071008 0.04622355
0000f0 15 98 06 3d 73 5d 9c 3d a9 8c 42 3d 2f 03 84 bd
       0.03285988 0.076350115 0.047497425 -0.0644592
000100 ac b8 80 bd ba b3 88 bd 5c 08 0e bd 26 ff 7c 3d
       -0.06285223 -0.06674905 -0.03467594 0.061766766
000110 28 17 74 bd 44 10 50 bd 53 c7 ff 3b ad 2b 95 3d
       -0.059592396 -0.050796762 0.0078057437 0.07283721
000120 ef 1c 21 3d 96 9b e3 bc 11 5e 5b bd 60 62 4f bd
       0.039334234 -0.02778415 -0.053556506 -0.050630927
000130 49 5e e0 3c 20 86 0e bd 71 78 8a 3d 43 0d 25 3d
       0.027388709 -0.03479588 0.067612536 0.04029585
000140 8e 0f 67 3c f3 11 2d 3c 4f ef f4 bc 9c 79 24 3d
       0.01410283 0.010563361 -0.029899267 0.04015504
000150 a8 92 9e 3c 3b f4 d7 bb 41 78 70 3c 8f a1 65 3d
       0.01935704 -0.006590394 0.014677108 0.056062277
000160 7a cf 18 bd c0 17 36 bd 0f af 4d 3d e5 2e 52 3c
       -0.03730724 -0.044456244 0.050215777 0.012828563
000170 6c c3 8b 3d 64 ce a2 3a ab 39 13 bd f0 b9 db 3c
       0.06824383 0.0012421128 -0.03594367 0.02682206
000180 a8 21 68 bd 2a 63 f0 3c 02 c0 78 bd fd fb 46 bd
       -0.056672722 0.02934416 -0.060729988 -0.04858016
000190 21 64 99 3c 4f 00 4d bd 3a b2 57 3d 51 09 93 3b
       0.018724503 -0.050049122 0.052660204 0.0044871946
0001a0 54 84 35 3d e0 01 dc bc b2 13 57 3d c9 df 3f bd
       0.04431565 -0.026856363 0.052509017 -0.046844278
0001b0 32 ff 22 bd 29 8f 2c 3d fe ab 59 3d 0d 6a 34 3d
       -0.039794154 0.042128716 0.05314254 0.04404645
0001c0 16 d9 79 3d a7 9c 86 3d 4f 5a 6b bd 05 cd 30 bd
       0.060998045 0.06572848 -0.05745917 -0.04316427
0001d0 ce 38 22 3d 1f 6e 84 bd c4 8f ab bc c6 d9 88 bb
       0.039604954 -0.064663164 -0.020942576 -0.0041763512
0001e0 fe 28 9c bc 60 d6 9c bc 20 ed c4 bc 59 54 10 3c
       -0.019062515 -0.01914519 -0.024038851 0.008809173
0001f0 7c ea 42 bc 76 a0 8f bd 42 a0 b6 bc 9e 14 0b 3d
       -0.011896726 -0.07013027 -0.022293214 0.03395521
000200 88 91 eb 3b d8 4d 16 bc 32 1b 7a bd a5 fe 9d bb
       0.0071889795 -0.009173833 -0.06106109 -0.0048216158
000210 c4 7f 98 bc 2c 27 c9 3c da 89 f6 bc f5 e9 66 3b
       -0.01861561 0.024554811 -0.03009503 0.0035234664
000220 e6 4b 5c 3c 8d 7d 38 bd c3 31 27 bc 8e 4e 04 bc
       0.01344583 -0.04504161 -0.010204735 -0.0080753695
000230 0c 67 8e 3c 91 77 67 3b e7 21 84 bb 07 b0 56 bc
       0.017383121 0.003531907 -0.004032362 -0.013103492
000240 d2 99 78 bd 6f 2c 79 3c 50 dc 83 bd 99 91 67 bd
       -0.06069357 0.015208348 -0.06438506 -0.056535337
000250 92 2b 84 3b c3 24 84 3d 99 c4 71 3c 85 1d b5 3c
       0.0040335143 0.06452324 0.014756345 0.022108803
000260 4f 35 83 bd 50 af 59 3d 67 2c 95 3c 26 74 2a bd
       -0.06406652 0.053145707 0.01820965 -0.041614674
000270 09 fd 80 bd 7b 5a 25 bc 42 5e 60 3d 01 ba b0 3a
       -0.062982626 -0.010092373 0.05477739 0.0013483168
000280 5e 94 42 3b 3e b6 8e bb 93 5f 8f 3d 99 a2 6d 3c
       0.0029690485 -0.004355221 0.07000651 0.014504098
000290 05 58 21 bc 7e 4f cc bc 53 c3 17 bd 81 08 60 3d
       -0.009847646 -0.024940249 -0.03705151 0.05469561
0002a0 f7 1f 57 3d 4a c9 ea bc 8b 1c 56 bd 3f 11 05 bb
       0.05252072 -0.028660435 -0.052273314 -0.002030447
0002b0 ac 72 28 bc 2c 31 9c ba 75 01 b5 3b 37 8d 66 bd
       -0.010281246 -0.001191651 0.0055238553 -0.056287017
0002c0 4c 93 a8 bb 99 b5 16 bd e7 ca 27 bd c2 ae 16 bd
       -0.0051445123 -0.03679428 -0.040964987 -0.036787756
0002d0 e8 e1 b4 3c d5 92 d3 3c 51 b6 8c 3d 43 03 74 bd
       0.022080377 0.02582685 0.068707116 -0.059573423
0002e0 e6 2a 40 bc 16 e7 1d 3c 9f 52 1f 3d 0e 92 83 bd
       -0.011728978 0.009637615 0.038897153 -0.06424342
0002f0 f3 db 97 bc 07 65 03 bd 64 9e 54 3d e3 ff 39 3c
       -0.018537497 -0.03207877 0.051908866 0.011352512
000300 a8 ed ff 3c 94 e5 21 bc d3 10 30 bc 09 71 e7 bb
       0.031241253 -0.009881396 -0.010746199 -0.0070630354
000310 d7 c0 82 bd 9e b8 6a bd c9 dc 80 3d 6b 96 1e 3c
       -0.063844375 -0.05730497 0.062921114 0.009679417
000320 2e 0c 0a 3d 67 60 9a 3c b5 5b 81 3d 00 de 3f bc
       0.03370302 0.018844796 0.0631632 -0.011710644
000330 a1 9e b2 3d 2d d1 06 bd bc a2 15 3d 78 06 87 3d
       0.08721662 -0.03291433 0.03653215 0.06593031
000340 34 89 33 bd 3a 2f 5f bb 7c f8 f5 bb 17 70 87 bd
       -0.04383202 -0.0034055249 -0.0075064283 -0.06613176
000350 0b 30 e3 3a aa c5 64 bd 76 f7 6b 3a d7 cd 32 bc
       0.0017333044 -0.05585257 0.0009001413 -0.010913334
000360 49 72 35 3d f7 2b 93 3d e8 b3 47 3d 38 7d 14 bd
       0.044298444 0.0718612 0.048755556 -0.03625223
000370 b4 b9 90 bd 79 bc 78 3d f0 1e 8b bd 6e db 92 bb
       -0.0706667 0.060726617 -0.0679301 -0.0044817245
000380 f6 b5 8c bc 63 a2 dd 39 3f e3 6b 3d da 70 94 3d
       -0.01717661 0.00042273392 0.057589766 0.07248087
000390 ca 5b 7e bc f1 24 31 3d b1 b6 9c 3d 30 79 55 bd
       -0.015524814 0.04324812 0.07652033 -0.052117527
0003a0 27 f7 51 3d b1 6e 4c bd 40 59 84 3d 11 44 10 3d
       0.051261093 -0.04991025 0.064623356 0.035221163
0003b0 9a 55 78 bd c0 5e f8 bc a4 07 80 bd 0f 0c 76 3d
       -0.06062851 -0.030318618 -0.06251457 0.060070094
0003c0 29 a3 17 bd 5b 80 f3 bc a0 b3 ab 3d aa 35 1b 3d
       -0.037020836 -0.02972429 0.0838387 0.037892975
0003d0 01 cb c2 3c 33 f6 60 bd 16 d0 93 3c b8 e9 49 3c
       0.02377844 -0.054922294 0.018043559 0.012323789
0003e0 9c 7d 19 bd f9 0a 43 3d 42 b8 e9 3b 32 9c 34 3c
       -0.037473306 0.047617886 0.007132561 0.011023568
0003f0 0d 4f 0b bd e3 0c 57 3c 4b 03 b2 bc f8 80 5e 3d
       -0.034010936 0.013125631 -0.021730086 0.054322213

attention.0.bias f4 [100]
000000 f1 8f 1a 3d cb f7 ab bc 3f c1 1a 3c 1d d4 20 3d
       0.03773493 -0.02099218 0.0094454875 0.039264787
000010 67 69 36 3d 6c 1f 38 bc d1 22 7a 3d 1f 04 47 3d
       0.044534113 -0.01123796 0.06106836 0.048587915
000020 0f eb 2d 3d 21 8a 5d 3d 6b 2e 7f bc e5 d1 e9 bc
       0.042460497 0.054086808 -0.015575032 -0.028542468
000030 9a b1 ba bb da f8 8a 3d 6b f9 d7 bc 76 60 5d bb
       -0.0056974413 0.06785746 -0.026364049 -0.003377942
000040 30 6c 3f bc ec 0e 66 3d 34 ff a7 3a b8 d8 03 3d
       -0.011683509 0.056166574 0.0012817145 0.0321891
000050 fb 9c 82 3d ea bd 91 bc ab b2 67 3d 85 73 7b 3d
       0.06377598 -0.017790753 0.056566875 0.061389465
000060 51 f3 0e bd b9 ef 27 3d ae 71 96 3c 21 39 79 3a
       -0.034900013 0.0410001 0.018364754 0.0009507109
000070 55 8a 13 bd f2 d2 f1 3c 81 3f 22 3c bb d3 64 bd
       -0.036020596 0.029519532 0.009902836 -0.055865984
000080 26 fc 8d 3d 1e 95 38 bc f9 ef de 3c 46 92 bd 3c
       0.06932859 -0.011266021 0.027214037 0.023141038
000090 84 20 1e 3d 8a 67 7b 3d 61 3c 0e bc f5 67 16 3d
       0.038605228 0.06137804 -0.008681388 0.036720235
0000a0 27 57 54 3d a6 d3 e7 3c c7 9c 66 3d bb 22 e6 ba
       0.051840927 0.028299164 0.05630186 -0.0017557958
0000b0 1c f9 1c 3d a1 1a b9 3c 75 bb 57 3d be ac a3 bc
       0.038323507 0.022595705 0.052669007 -0.01997983
0000c0 e3 3d 9d 3d f3 d9 5f 3c 95 b9 7c bc ee fd 63 3d
       0.076778196 0.013662803 -0.015425106 0.055662088
0000d0 e8 80 c9 3b 4e 1a 80 3d c1 3e 3c 3d 1c b8 f7 3c
       0.0061494 0.06255017 0.045958284 0.030239157
0000e0 22 ef 45 bd 48 78 87 bd 34 46 d5 ba 09 e2 2d bd
       -0.048323758 -0.06614739 -0.0016271533 -0.042451892
0000f0 4b 19 5d 3d 0b ff 01 3d 50 4f a2 bc e1 12 44 3c
       0.0539792 0.03173737 -0.01981321 0.011967392
000100 62 6b 68 3d cc 16 04 bd 70 58 87 3d ad f6 d3 3c
       0.056743033 -0.032248303 0.06608665 0.02587446
000110 b0 b6 ec 3c 14 41 9f bb 5e 9f 08 bc 6a ef 3f bd
       0.028895706 -0.004860053 -0.008338777 -0.046859182
000120 25 bc 3d bd 40 7a 51 bd 0c 50 03 3c 69 ba be bb
       -0.046322007 -0.051141977 0.00801469 -0.0058205617
000130 64 30 6f 3d 44 05 6d 3d f8 90 a8 bc 56 e2 b8 bb
       0.05839576 0.05786635 -0.020576939 -0.0056422157
000140 48 9d 45 3d f5 ee d4 3c 32 ce 28 bc 7c de ca bc
       0.0482457 0.02599285 -0.010303067 -0.024764292
000150 b8 67 62 3d 55 65 0a bd 4b 95 a7 bc d1 30 74 bd
       0.055274695 -0.033788044 -0.02045693 -0.059616867
000160 96 5e 5b 3d 49 04 41 3d f2 dd f8 bc 0c cc 48 3d
       0.053557 0.047123227 -0.03037927 0.04902272
000170 45 f2 16 3d cf 17 e7 3b b2 bf 89 bb 37 16 5d 3d
       0.03685214 0.0070523988 -0.00420376 0.053976264
000180 76 0d af 3c 89 00 89 bd 54 c4 72 3d f9 cf d1 bc
       0.021368723 -0.06689555 0.059269264 -0.025611864
