crowd_nav/data/output-torch-1.4.0/rl_model.pth (torch_old, 388932 bytes, 20 tensors)

mlp1.0.weight f4 [150, 13]
000000 8a 1e 07 3e da 17 14 bd c8 16 0b 3e af e0 5c be
       0.13195243 -0.03615556 0.13582909 -0.21570085
000010 7d 57 81 be 7f f1 5e 3e b1 0f 15 bd 26 7c 75 3d
       -0.2526206 0.21771811 -0.036391918 0.05993285
000020 8e 85 f7 bd b6 d4 37 be 10 0c 8b 3e ab 45 5b be
       -0.120860204 -0.17952237 0.2715764 -0.21413295
000030 0b 64 8c be d4 74 b4 3d f8 86 50 3e 3e 73 18 be
       -0.27420077 0.08811346 0.20363986 -0.14887711
000040 28 25 43 be df fc 00 3d cf 7c 55 3e e9 5b 41 be
       -0.19057143 0.031491157 0.20848392 -0.18882717
000050 32 8f 83 3d 44 46 bf be c3 b2 83 be b1 0f 24 3e
       0.06423797 -0.37358296 -0.25722322 0.16021611
000060 fb 0d e6 3b 5d c5 84 3e 4e 8e 8b be a4 61 86 3e
       0.0070207096 0.25931826 -0.27257007 0.2624637
000070 32 c8 a9 bd 1a 57 e3 bd 65 5a c8 3d 0e 97 48 3e
       -0.08290137 -0.11100598 0.097828664 0.19588873
000080 ef 6b 6b be e3 46 03 be ef 5b 8c be 62 fc eb bd
       -0.22990392 -0.1282001 -0.2741389 -0.115227476
000090 de 41 84 be 36 d9 09 3c a1 e7 1b 3e 77 b1 29 be
       -0.25831503 0.0084136035 0.15225078 -0.16571604
0000a0 48 ae 9d 3e 48 f8 e3 bc df 1f f5 bd d5 7c 8a 3e
       0.3079703 -0.02782835 -0.119689696 0.27048364
0000b0 62 7d 9a 3d 3f 13 50 3e 28 d9 39 3e 3f 8b 08 be
       0.07543446 0.20319842 0.18149245 -0.13334368
0000c0 79 71 f7 bd b8 4c 8c bd dd f8 31 3e 97 6b 52 3e
       -0.1208219 -0.068505704 0.1738009 0.20548855
0000d0 a4 6d 2f 3e 93 b5 8f bc 00 28 a5 b9 4f f2 f7 bd
       0.17131668 -0.017542636 -0.00031501055 -0.121067636
0000e0 6d d2 80 3d 93 3c 66 be d2 93 ce be 7d c9 5b be
       0.062901355 -0.22484045 -0.40347153 -0.2146358
0000f0 21 0f 06 3e cd 2c 5e bd c3 3c 4a be 00 e3 71 be
       0.13091709 -0.054241944 -0.19749741 -0.2362175
000100 88 64 a3 bd 13 da 59 be f7 ad 85 3e 54 88 d6 bd
       -0.07978159 -0.21274595 0.26109287 -0.10475221
000110 83 51 1a be 8b 4d 8d 3e 9c ac 61 3e e4 b6 39 3e
       -0.15070157 0.27598223 0.22038502 0.18136173
000120 a9 45 18 3e 0a 1b c9 3d 35 14 92 3d 99 dc 42 be
       0.14870323 0.098196104 0.071327604 -0.19029464
000130 8c 01 10 be 58 4e 16 3e a6 39 05 3c 59 d5 81 bc
       -0.1406309 0.14678323 0.00813142 -0.015848802
000140 13 6a 88 3e ea 04 7a bc 07 40 87 3c 03 e1 0f be
       0.26643428 -0.015259961 0.016510023 -0.14050679
000150 13 ea 94 be 4b 49 8e be 1e cf 0f 3c fc 6f 97 3d
       -0.29084834 -0.27790293 0.008777408 0.07394406
000160 1d 3b 4b 3e c9 da 40 3c 26 3f b5 3d 00 c4 5b 3e
       0.19846769 0.011770912 0.08849935 0.21461487
000170 06 cf 5e bd b0 9a 93 bc 71 ac 1c 3e ca 5b 42 be
       -0.05439665 -0.018018097 0.15300156 -0.18980327
000180 9e f9 c4 bd 8a 25 02 be 9d fc 6f 3e f3 6b 74 bd
       -0.09617923 -0.12709633 0.23436208 -0.05967326
000190 b4 89 f7 3d d1 92 64 3c ff 73 07 be 29 92 44 bd
       0.12086812 0.013951019 -0.13227843 -0.04799095
0001a0 bb c4 14 3d 38 52 85 3e b4 be 39 be 6f 9d bc 3d
       0.03632043 0.2603929 -0.18139154 0.092097156
0001b0 a9 2e bf bd 6e 75 ab 3c 63 22 17 bd 25 74 61 3e
       -0.093350716 0.020930018 -0.036898028 0.22016962
0001c0 43 8c b9 bd 1e 5c ca 3d be ab 2f be bd 7d 97 be
       -0.09059956 0.09880851 -0.17155358 -0.29588118
0001d0 88 c3 10 3e af 82 3f 3e 7d b7 61 be 9c 61 96 3d
       0.14137089 0.18702196 -0.22042651 0.07342836
0001e0 e2 3d e1 3c b0 04 c8 3d 23 e0 8c bd 44 2d 09 3e
       0.027495328 0.09766519 -0.06878688 0.13396174
0001f0 a9 3b 77 be c2 7b 95 3e 9c 13 87 bb 63 ba d9 bd
       -0.24143852 0.29195982 -0.0041222107 -0.106312536
000200 8d 7a 23 bd f6 30 bd 3c 7c b7 dc bd f0 cc 89 3c
       -0.039911795 0.023094635 -0.10777184 0.016821355
000210 1c e7 55 be 92 a7 42 be ff dd e2 3d 51 53 ee bd
       -0.20888942 -0.19009236 0.11077499 -0.11636985
000220 0c 27 ae bd 30 a4 20 3b af b9 8c be 8e f8 cd 3b
       -0.08503541 0.0024511926 -0.27485415 0.0062857335
000230 90 1b a2 3d 2c 38 77 be a7 6c 37 be 4e b5 ca 3d
       0.079154134 -0.24142522 -0.17912541 0.098978624
000240 60 37 72 be ec 8a 1f bd 10 8a 2c be e6 e9 05 3e
       -0.23653936 -0.038950846 -0.16849542 0.13077506
000250 b7 3e 9f 3a df b2 86 3d 8f 00 66 3e bc a3 0a be
       0.0012149428 0.06577086 0.2246115 -0.13539022
000260 b1 f9 1e be de 76 9e 3d b0 a5 2c 3e 31 3f ad 3d
       -0.15524937 0.07737516 0.1686008 0.084593184
000270 91 7e 11 3e d6 2c 58 3e d8 79 05 3d e4 6b 08 3e
       0.14208438 0.21110854 0.032586902 0.13322407
000280 32 28 0c 3e 17 d4 31 3c d5 33 5b bc be 21 d2 bd
       0.13687208 0.010853789 -0.013379057 -0.10260342
000290 e5 36 f2 bc f2 d4 50 bd 3b d3 1f bd 24 51 24 be
       -0.029567191 -0.05098433 -0.039019804 -0.16046578
0002a0 b8 9a 3c 3d 58 d4 fb 3d 74 86 6f 3e 6a e1 4d 3e
       0.04604599 0.12296361 0.23391134 0.2010552
0002b0 e9 ad 78 3d 3b 93 2e be dc 9b 76 3d 1e aa 84 be
       0.06071273 -0.17048351 0.060207233 -0.2591104
0002c0 b0 8b 13 3d 2e 41 72 bd a9 01 7e 3e b5 a7 cd bd
       0.03602189 -0.05914419 0.24805321 -0.10041753
0002d0 74 90 46 3d 55 a2 32 be 71 35 18 bd 69 7d 23 be
       0.048477605 -0.17444737 -0.03716034 -0.15965809
0002e0 74 31 5e bd ca eb 6a be a5 5e 89 3e ed 99 01 3d
       -0.05424638 -0.22941509 0.2683002 0.031640936
0002f0 01 93 3d 3e 1e 55 c9 ba a7 ba b5 bd 26 4a 8e 3d
       0.18513109 -0.001536045 -0.08873492 0.069477364
000300 ba db 11 3e 54 fe 8b be 70 c8 21 3c 37 5f 62 bd
       0.14243975 -0.27342474 0.009874448 -0.055266585
000310 f9 3e 6a 3e 10 ed d2 bd f0 fa 3a 3e 87 76 91 3e
       0.22875585 -0.10299122 0.18259788 0.28410742
000320 00 cf 44 be 38 dd 67 3e 33 55 12 bd fe 0d 06 3e
       -0.19219589 0.22642982 -0.035725784 0.13091275
000330 bb 94 af bc a8 94 39 3e e3 cf 68 be aa 22 7e 3e
       -0.021433225 0.18123114 -0.22735552 0.24817911
000340 44 14 33 be 75 b0 7b 3e 10 2d 87 3d 67 87 13 3b
       -0.174882 0.24579032 0.06600392 0.0022511126
000350 fe 6e 8e be aa 92 e1 3d ce 17 88 3e f5 8b 91 3e
       -0.27819055 0.11014302 0.26580662 0.2842709
000360 ce c5 20 3e 60 d9 88 be bb c3 8d 3a 86 09 14 3e
       0.15700457 -0.26728344 0.0010815779 0.14456758
000370 af 65 c5 bd d2 49 86 be a2 ab 16 3e 0c f9 84 be
       -0.09638535 -0.26228195 0.1471391 -0.25971258
000380 00 93 03 3d 28 14 8d bd b9 8b 88 be ab 6d 80 bd
       0.032122612 -0.0688861 -0.266691 -0.062709175
000390 ac 96 4e 3e 0f a6 7e be d6 20 23 be 84 e5 79 be
       0.20174664 -0.24868034 -0.15930495 -0.2440396
0003a0 2b 0d 45 be 46 95 98 bc 0f c3 f0 3d 00 46 74 be
       -0.19243304 -0.018625867 0.117559545 -0.23854828
0003b0 44 4c 0f bd bc 1e 84 3e b6 75 d5 3d 22 06 b8 3d
       -0.034984842 0.25804698 0.10422842 0.08985545
0003c0 7f 05 49 bc 89 d2 24 3e f7 9c 16 3e 14 70 1b be
       -0.012269377 0.16095938 0.14708315 -0.15179473
0003d0 be 67 68 3e 43 96 e4 bc 23 44 95 be d6 30 4a 3e
       0.22695825 -0.027903682 -0.29153547 0.19745192
0003e0 e3 22 7b 3d 4a c3 14 3e 5d 43 de bd 1e 66 55 be
       0.061312567 0.14527622 -0.10852692 -0.20839736
0003f0 42 6b 8d bd 5a 44 6b 3e 55 01 51 3e 08 09 ab 3e
       -0.069052234 0.22975293 0.20410664 0.33405328

mlp1.0.bias f4 [150]
000000 02 1d d5 bd b5 db 54 3d b3 86 60 3e cc 63 96 3e
       -0.104059234 0.05196734 0.21926384 0.29373014
000010 91 37 23 3e 42 cf 05 bc 2e 87 74 3e b9 7d 73 be
       0.15939166 -0.00816709 0.23879692 -0.23778428
000020 4c 5c 18 3e 93 b6 55 be 7b fd 63 3e 03 c3 9c 3d
       0.14878958 -0.20870428 0.22264664 0.07654383
000030 8b 90 40 be fc ea 21 3d ee 31 e0 3d f8 0d 34 3e
       -0.18805139 0.03953074 0.10947023 0.17583454
000040 33 cd ec 3d 0d 4b 19 3e 87 46 a9 3c 85 db 73 bb
       0.11562576 0.14970036 0.020663513 -0.0037209701
000050 0f 19 5c be 0a 24 17 be 59 ac 32 bd 4e dd 7f 3e
       -0.21493934 -0.14759842 -0.043621395 0.24986765
000060 5e 54 18 3d af 3a 80 bc c2 f5 46 bd cc c4 1b 3e
       0.037189834 -0.015652983 -0.048574217 0.15211791
000070 00 c4 19 3d 95 44 d0 bd b0 bb 4f be 7b 90 5a bd
       0.037540436 -0.10169331 -0.20286441 -0.053360444
000080 b6 0d 4d 3d a0 fe fc bd b3 aa 39 3e 40 6a 89 be
       0.050061904 -0.12353253 0.18131523 -0.26838875
000090 ac c2 19 bd 53 49 26 3e 9c 29 8b 3e 08 c1 71 be
       -0.03753917 0.16238908 0.27180183 -0.23608792
0000a0 c9 e2 b8 3d 67 4f aa 3b e6 85 56 bd 7d 70 5c bd
       0.09027631 0.005197454 -0.05237379 -0.053818215
0000b0 49 07 3e bd e3 8d 0a 3e 4e a5 01 3d ad 3a 87 be
       -0.046393666 0.13530688 0.031651787 -0.26411954
0000c0 00 77 60 be f1 86 62 be 00 89 31 bd c1 c2 29 3d
       -0.21920395 -0.22121789 -0.043343544 0.041445497
0000d0 3c 44 dc bd a5 f0 8b 3e df 6c 25 3e 75 ae 8b be
       -0.10755202 0.27332035 0.16154812 -0.27281538
0000e0 15 1e 65 3e a7 c8 81 3e e6 bc 82 3e 01 4c ee bd
       0.22374757 0.25348398 0.25534743 -0.1163559
0000f0 37 96 22 bd 06 bd 37 3e 56 1c 6b be 1a bb f0 bd
       -0.039694037 0.179432 -0.22960028 -0.11754437
000100 01 8a c8 3d 21 5d 9f 3d 90 77 22 be 8d 04 64 be
       0.09791947 0.07781435 -0.15865922 -0.22267361
000110 db 1c 8f be a3 c5 7b be f1 a4 0d 3d f2 e7 0f be
       -0.27951702 -0.24587111 0.03458113 -0.14053324
000120 6d 16 c5 bd 60 b5 93 bd 0c 52 80 3e 77 34 d0 bc
       -0.09623418 -0.07212329 0.25062597 -0.025415642
000130 f2 82 0d 3e 18 78 94 be 8e 11 2f 3e e7 60 2c 3e
       0.13819483 -0.28997874 0.1709654 0.1683384
000140 42 6b e7 3d 94 87 b4 3d 40 4e 36 be 11 9e ab b9
       0.11299755 0.08814922 -0.17803288 -0.0003273343
000150 9e cb 64 3e 24 e3 5c be 60 be 2f 3e 3c 91 59 bd
       0.22343299 -0.21571022 0.17162466 -0.053117022
000160 e6 e7 b6 3d 82 d9 b6 3c be bb 45 bd 48 ca 87 3e
       0.0893095 0.022320513 -0.048274748 0.26521516
000170 9c fd 47 bd 24 89 91 be b7 46 4f 3d 27 17 ab 3c
       -0.048825845 -0.28424942 0.05060455 0.020885063
000180 ec 8a 54 3e 63 84 18 3e 89 53 a8 3d dd c3 80 be
       0.2075612 0.14894252 0.08219058 -0.25149432
000190 83 81 0d be c5 84 e4 bc f1 0c 4e be cc 03 2c 3e
       -0.13818936 -0.02789534 -0.20122124 0.16798323
0001a0 18 6f 4f bc 1b 75 14 bd 92 d0 66 be dd 7c 8c 3e
       -0.012660764 -0.036244493 -0.22540501 0.27439013
0001b0 bc 0b 7e 3e 46 f6 80 be bd dc de 3d 71 bf d3 bd
       0.24809164 -0.25187892 0.10881946 -0.10339249
0001c0 18 24 e6 3d 1c ef 49 3d 72 e0 64 3e a0 4b 13 3e
       0.11237353 0.049300298 0.22351244 0.14384317
0001d0 1f 71 40 be 38 54 b0 3d 15 a1 de bd 07 3e 2b 3e
       -0.18793152 0.086098135 -0.10870568 0.1672288
0001e0 83 ab fe bd c3 b5 83 3e df d5 ec 3d b1 3e 13 be
       -0.12435057 0.2572461 0.1156423 -0.14379384
0001f0 d2 1a ce bd 0a 18 b4 bc 25 66 6f be 84 ac 88 3e
       -0.10063709 -0.021984119 -0.23378809 0.2669412
000200 1c 9c 5b 3e 67 d5 c0 bd e0 58 88 be b7 28 12 3e
       0.2144627 -0.09415703 -0.26630306 0.14273344
000210 67 f1 4f 3e 37 47 4e 3e 74 ca 7f 3e db e4 f3 bd
       0.20306931 0.20144354 0.24979573 -0.11908885
000220 10 af 5f 3e 6b ea 92 be 7a a7 44 3d 12 da 04 be
       0.21844125 -0.28694472 0.04801128 -0.12973812
000230 73 28 16 3d 11 eb 69 be ad b9 70 3e 62 28 00 3e
       0.03665967 -0.22843577 0.2350833 0.12515405
000240 f7 69 39 3d 86 6e 45 3e 25 fe 07 bc 96 00 2a 3e
       0.04526707 0.19280443 -0.008300339 0.16601786
000250 19 db 4a bd 8a 9e 66 bd
       -0.049525354 -0.05630354

mlp1.2.weight f4 [100, 150]
000000 49 43 9a bd 07 bb 80 3d 06 3c 05 bc 5f 93 95 bc
       -0.07532365 0.06285673 -0.0081319865 -0.018258749
000010 2a 4c 1e bd d7 c7 f5 3c 00 9f 33 bd 83 0f a7 3b
       -0.038646854 0.030002518 -0.043852806 0.0050982847
000020 88 3d 83 bd 67 66 ef 3b 2a ba f3 bc 7e 32 11 bd
       -0.064082205 0.0073059085 -0.029751856 -0.035448544
000030 6d 07 dd bc 9c 8c af bd 52 df 86 bd 27 14 43 bc
       -0.02698108 -0.08571741 -0.06585564 -0.01190666
000040 e4 fa 23 bd 58 4f 0b bd e5 fc 39 3d 9c 0a 2f bd
       -0.04003419 -0.034011215 0.045407195 -0.042734727
000050 1c 2b 36 3d 73 04 aa 3b 9e 81 6d bc 63 57 97 3d
       0.044474706 0.0051885187 -0.014496235 0.073897146
000060 cc 92 91 3b b9 59 46 3d a2 5d 94 bd 91 33 dc bc
       0.0044425484 0.04842541 -0.072444215 -0.026880058
000070 60 a5 18 bb b3 b5 80 bb 52 a7 79 bd 81 99 aa bd
       -0.002329193 -0.0039279102 -0.060950585 -0.0833006
000080 9a e5 90 bd f0 2c 12 bd fc 4c 48 3d 5c 85 59 3d
       -0.07075043 -0.035687387 0.048901543 0.053105697
000090 92 d0 0c bd 76 e3 d9 3c 25 3e 4b 3c f1 fe a1 bd
       -0.034378596 0.02659772 0.012404953 -0.07909954
0000a0 6c 27 f6 3c 51 dd 7d bc 0b 9d 82 3c 50 56 4a 3d
       0.030048095 -0.0154946605 0.015944025 0.04939872
0000b0 d2 d8 cf bc 7b 52 33 bd 66 a7 d3 3c 6d 72 43 3d
       -0.025371943 -0.04377983 0.025836658 0.047716547
0000c0 1b 91 ef ba 5c 9b 06 bd 23 31 e6 bc 15 6b df bc
       -0.0018277498 -0.032863006 -0.028099602 -0.02727274
0000d0 a0 98 a1 3d 31 22 1d bc 3d c3 49 3c 4d db 8e bd
       0.07890439 -0.009590671 0.012314615 -0.06975422
0000e0 3c 91 8f 3d e2 c8 5e 3d 8a a0 9f 3d 99 91 cc 3b
       0.07010123 0.054390796 0.07794292 0.0062429425
0000f0 eb f3 7c bd fd 73 c5 3d 61 03 7f bd 52 a2 09 bd
       -0.061756056 0.09641264 -0.06225908 -0.033602066
000100 ae e5 c8 3a 6c 13 7a bd a2 53 85 3d ef 66 76 3d
       0.0015327239 -0.06105368 0.06510092 0.06015676
000110 e9 1c 8c bd 9f 50 ef 3b f8 68 48 bd e9 ec aa bb
       -0.06841452 0.007303312 -0.04892823 -0.00521623
000120 b5 e2 df bb d4 61 1f 3c 56 07 d9 bc 61 f7 57 bd
       -0.0068324455 0.009727914 -0.026492756 -0.052726153
000130 b7 22 d0 bc 83 65 a1 ba 76 b1 43 bb 5d 1c 47 3d
       -0.025407178 -0.0012313578 -0.0029860414 0.048611034
000140 8f 6c 89 bd e5 cf 07 3d 27 55 ff 3c d7 eb 76 3d
       -0.06710159 0.033157248 0.031168533 0.06028351
000150 a7 74 76 bd 6f 64 ee bc 64 14 8b bd 30 65 d2 b9
       -0.060169842 -0.029100625 -0.067909986 -0.00040129712
000160 39 14 48 3d c7 ac 52 bd fd c8 a7 3d f4 e5 a8 bd
       0.04884741 -0.051434305 0.08192632 -0.08246985
000170 02 af 9c 3d 10 c1 85 3c 04 64 a0 3d ce f2 ae bd
       0.076505676 0.016327411 0.078315765 -0.08542405
000180 6c 6d 2e 3d ef bc 95 bd 25 29 2b 3d 63 f7 c7 3c
       0.04258482 -0.07311427 0.041787285 0.024409955
000190 b0 2f c8 3c 67 c7 92 bc 30 72 ca 3c 6b d1 a6 bc
       0.024436802 -0.017917348 0.024712652 -0.02036353
0001a0 bf 2c 99 3d 35 46 74 3d f8 8d 9a 3c ac 8e 6d bc
       0.07479238 0.059637267 0.018866524 -0.014499348
0001b0 56 06 b3 bb 4a b6 30 bd 0b 6d 0d bc 10 27 2a 3d
       -0.005463402 -0.043142594 -0.008631955 0.04154116
0001c0 4e a9 ba bd c4 fb b9 bb 4f d2 89 3d 4a c0 91 bd
       -0.091143236 -0.0056757648 0.06729566 -0.07116754
0001d0 90 41 40 bd 96 f5 4d 3b 42 ef 42 3d 1b 52 a0 bb
       -0.046937525 0.0031426898 0.047591455 -0.0048926002
0001e0 ac 4a 06 3d a8 ee 33 3d 06 e0 70 3d db 35 0f 3b
       0.032786056 0.043928772 0.058807395 0.0021852169
0001f0 7f 18 93 3d c8 f6 1e bd 89 e8 dd 3c d8 cf 5a 3d
       0.07182407 -0.038809568 0.02708842 0.05342087
000200 9e c8 0a 3d c1 99 0b 3c ac 24 a8 bc e6 f2 88 3d
       0.03388273 0.0085205445 -0.020525299 0.06686954
000210 a6 ca 86 3d a9 d9 05 bc fc 51 8e 3d 2b 29 03 bd
       0.06581621 -0.00816957 0.06949231 -0.032021683
000220 9e db 9a bc 80 53 11 bd d5 8f de 3c 76 cd 8a bb
       -0.01890355 -0.035480022 0.027168194 -0.0042359186
000230 7d 76 87 3c 01 00 19 bd d2 cf 2d bd 17 b7 85 3b
       0.016535992 -0.03735352 -0.04243452 0.004080664
000240 1f a6 03 3d eb 89 b5 bc 43 2c 51 3d 99 3e 40 3d
       0.032140847 -0.022160491 0.051067602 0.046934698
000250 98 fc 4a bb 79 9a 5d 3d 31 c1 cf 3c 77 9c 30 3d
       -0.0030973312 0.054102395 0.025360676 0.043117967
000260 dd 84 4c 3d 6c 5f f7 bc 9b df 9b 3b 08 ec 2b 3a
       0.049931396 -0.030196868 0.0047568805 0.0006558304
000270 76 4e 68 3d 58 b6 a3 bd e3 97 a5 3c ae c4 be bc
       0.05671545 -0.07993764 0.020214027 -0.023287144
000280 13 ee 72 bd 2c dd a4 bc b9 83 65 3d 22 ff f5 3c
       -0.059309077 -0.020124994 0.056033824 0.030028883
000290 01 f8 70 3b 34 5e 04 bd b4 94 0b 3d 22 ac c7 3c
       0.0036768916 -0.0323164 0.03407736 0.024374072
0002a0 4a d4 88 3d a3 26 e6 bb ae d9 25 bd dc 6e 65 bd
       0.06681116 -0.007023649 -0.0404908 -0.056013927
0002b0 cc a2 8a bc 63 de dc bd 9a b0 93 bc 62 ed 7f 3d
       -0.01692333 -0.107846044 -0.018028546 0.062482245
0002c0 77 bb 93 bd 55 f5 87 3d bb 7d 12 bd 11 28 fe 3c
       -0.072134905 0.0663859 -0.035764437 0.031024965
0002d0 70 bc 8e 3d a5 a1 2b bd 2d 52 13 3d b3 24 49 3c
       0.06969535 -0.041902203 0.03596704 0.012276816
0002e0 4d 13 51 3d f6 1c 7f bd 98 40 85 bb 93 ee 5b 3b
       0.051043797 -0.06228348 -0.004066538 0.003355895
0002f0 06 0f 71 3d 2d 6b dd 3c 3c ff 4c 3c 63 54 81 bd
       0.058852218 0.027028644 0.0125120245 -0.063149236
000300 1f 5a 14 3c ff 33 25 3c 49 d6 6a bd 8e a5 8a bd
       0.00905469 0.010083198 -0.057333264 -0.06769858
000310 3e 10 1f 3d 73 2d 45 3d 3d dc 01 3b 85 ed 66 3d
       0.03883385 0.048139047 0.001981511 0.05637886
000320 62 b0 3c bc b6 79 e1 3c 73 10 81 3d ca 86 a7 3c
       -0.011516662 0.027523857 0.063019656 0.020450015
000330 84 2e b3 bc c2 d0 73 bd ca e6 bb b9 89 ff bf bc
       -0.021872766 -0.05952526 -0.0003583937 -0.023437278
000340 d9 6b 2c 3d 88 ac a6 bc 97 58 6e 3d d3 d4 6a 3d
       0.04209504 -0.020345941 0.058189955 0.05733187
000350 48 05 98 3d a4 8a 42 3d 88 af 52 3c 25 aa 64 bb
       0.07422882 0.0474955 0.012859233 -0.0034891453
000360 40 8e 69 bd 3d ec 72 bd 09 40 8b 3d c3 8b 88 bd
       -0.057020426 -0.059307326 0.06799323 -0.066672824
000370 5c 4b 33 bd 98 2f 9f bd 37 bc 95 3d c8 12 9f bb
       -0.04377304 -0.0777275 0.0731129 -0.004854534
000380 50 04 1f bd c2 31 41 bd 2b 0b 1e 3d 7c d6 56 bc
       -0.038822472 -0.047166593 0.03858487 -0.0131126605
000390 66 0b f7 bc 44 b7 8f bc 03 aa 8b 3c 29 ca 24 3c
       -0.030156802 -0.017543443 0.017048841 0.010057964
0003a0 c9 b5 40 bd 14 c3 15 bd 5c 50 71 3d 01 80 b6 bc
       -0.047048364 -0.036562994 0.058914527 -0.022277834
0003b0 57 ad 67 3d bf 1f 16 bc 8a 9a 7e bc f4 4f 59 3d
       0.056561794 -0.009162842 -0.015539775 0.053054765
0003c0 c0 75 2f bd c8 76 91 bb b6 5d 06 3d d8 fd 72 bd
       -0.042836905 -0.0044392087 0.032804213 -0.059324116
0003d0 5e a6 83 3d 75 9f 37 bd cb 21 ad 3d 57 94 48 bc
       0.064282164 -0.044829804 0.08453711 -0.012242398
0003e0 09 ac ca 3a e1 42 a0 bc 38 11 8e bd b3 1b d0 3c
       0.0015462647 -0.01956314 -0.06936878 0.025403833
0003f0 4f 6e 8f 3d d8 2c c1 3d 1d d3 3b bd e0 c1 20 3b
       0.070034616 0.094323814 -0.04585563 0.002452962

mlp1.2.bias f4 [100]
000000 c6 53 61 bd 2b aa 34 3d 44 7d 9f bb 26 4f b3 bc
       -0.055011533 0.044107597 -0.0048672277 -0.021888327
000010 0e 70 7f 3d 02 9b 05 bc 0f 29 34 3b 89 5d 3d 3d
       0.062362723 -0.0081546325 0.0027490293 0.04623178
000020 ad 61 63 3d 48 1b 6c 3d 56 d2 cb 3c 22 c5 79 bd
       0.055513073 0.057643205 0.02488057 -0.060979016
000030 33 3c 80 bd 17 01 ff 3c df f9 be bc 95 21 a9 3d
       -0.06261482 0.03112845 -0.023312507 0.082583584
000040 44 21 d0 3c e9 3b 87 3d d4 21 7a bc 43 74 85 bd
       0.025406487 0.06603224 -0.015266854 -0.06516316
000050 17 c0 77 3d c0 30 27 3d 36 3b 8a 3d c8 62 95 3d
       0.060485926 0.040817976 0.06749575 0.07294232
000060 a0 9e 9a bd 39 f0 23 3d 42 5e 60 3b 75 ff 92 3d
       -0.075497866 0.040024016 0.003423587 0.07177631
000070 ff 23 8b 3d ce 89 22 3c 69 4a 2e 3c 8b 9d 0d 3d
       0.06793975 0.0099205505 0.010637858 0.034574073
000080 c6 30 bf bc e6 a8 83 3d ef 38 07 3d 24 ff 04 3e
       -0.023338687 0.06428699 0.03301328 0.12987953
000090 68 a3 de 3c b0 39 0d 3c 2e 98 0b bd 65 f9 d7 bc
       0.027177528 0.008619711 -0.034080677 -0.026364038
0000a0 fe cf 0a 3d 55 f2 82 bd a9 a5 c8 3c 31 8e d0 3c
       0.033889763 -0.063938774 0.024493055 0.025458427
0000b0 56 ee 4c 3b 23 f5 a5 bb 26 4c 6e bc 3b 05 6c 3b
       0.003126999 -0.005064623 -0.014544522 0.003601386
0000c0 a6 f7 c3 ba e4 94 d8 bd bb dc d7 bc 50 74 a3 bc
       -0.0014951124 -0.10575274 -0.02635037 -0.019952923
0000d0 26 d8 1d bd 7e df cb bd c7 06 9f bc 16 52 88 3d
       -0.038536213 -0.09954737 -0.019412411 0.06656282
0000e0 2c e8 75 bd c1 9f 25 bd c8 c6 4d 3c 9a 13 1d bd
       -0.06003587 -0.040435556 0.0125596 -0.03834877
0000f0 35 b4 9c 3d 0e fb 5c bd b8 36 81 bd 63 2e 5e 3d
       0.07651559 -0.053950362 -0.06309265 0.054243457
000100 a0 69 01 3c 27 e3 3a 3d 65 f2 06 3d e2 35 48 3c
       0.007898718 0.045626786 0.03294601 0.012219878
000110 89 83 ab bc ba fa 6b bd 7b 6a 4d 3d a4 57 d1 3d
       -0.020936744 -0.05761216 0.050150376 0.10221794
000120 65 32 e7 bc d6 91 02 3d f1 bf 9f 3c fd c1 e7 3c
       -0.028222272 0.03187736 0.019500704 0.028290743
000130 15 c5 93 3d 40 50 9b bd 3d 42 9b bb c5 dd 3f 3d
       0.07215325 -0.07583666 -0.004738121 0.046842355
000140 11 72 a6 3d ca b8 34 bb 00 23 e4 bc e3 18 40 3d
       0.08127225 -0.0027575963 -0.02784872 0.046898734
000150 16 3d 5b bb 85 c5 b5 bb 4c ee 16 bd c0 36 59 bd
       -0.0033453158 -0.005547228 -0.03684835 -0.05303073
000160 60 c0 65 3c 76 9d f0 3c f9 ae b6 bd 21 43 39 3d
       0.014022917 0.029371958 -0.08920092 0.045230035
000170 50 7b 93 3d 65 6e fa 3c 26 5d b1 3d a3 19 62 3c
       0.07201254 0.030570218 0.08660345 0.013800058
000180 51 95 a8 bc 87 e2 d5 3c 5d e7 5d 3b 30 6b 8f bd
       -0.020579012 0.026108993 0.0033859827 -0.07002866

mlp2.0.weight f4 [100, 100]
000000 25 6f 97 3d 61 b4 b3 bc 98 3b ac bd dc 5f 57 3b
       0.07394246 -0.021936597 -0.08409804 0.0032863533
000010 41 2f 5a 3d 6e 12 b6 bc 6f 86 ca bd 24 ae 19 3d
       0.05326772 -0.022225585 -0.098889224 0.03751959
000020 69 4d 82 3d 7d fa c2 3d c8 dd 13 3d e7 77 e2 bc
       0.06362421 0.09520433 0.03610018 -0.027645065
000030 cf f6 b8 3d 55 5d 8d bc fd b2 80 3b cc 41 b0 bd
       0.0903145 -0.017256418 0.003927587 -0.086063
000040 c8 45 9d bd 7f 78 a0 3d f3 38 17 3d 2f fa 8a 3d
       -0.07679325 0.07835483 0.036919545 0.06786
000050 a8 0a 2e 3c e0 8b 8a 3d de 46 cc bd c2 e2 34 bd
       0.010622658 0.0676496 -0.09974454 -0.044161566
000060 16 2b 98 bc 86 1f 98 3b 8d c2 b0 bd 0f 80 a0 bd
       -0.018575232 0.0046424298 -0.086308576 -0.07836925
000070 1e 3f b9 bd 2e 4d 6d bd b3 4d c0 3d 6e 0d 0b 3c
       -0.09045242 -0.057934932 0.0938982 0.008487089
000080 93 16 9a 3d 1b c7 05 bd cf cb 27 3d c3 ac 03 3c
       0.07523837 -0.032660585 0.04096585 0.008036795
000090 f4 4f 35 bd 82 6b ab bd 95 27 f1 bb 5d 27 c5 bd
       -0.044265702 -0.08370115 -0.007359455 -0.096266486
0000a0 ec a3 6b 3d 1c e0 53 3d 42 85 64 3d 93 ea 4f 3d
       0.057529375 0.0517274 0.055791147 0.050760817
0000b0 77 3d a7 3d 4f a2 9e bd c6 6f 9a bd 52 0d 62 3d
       0.0816602 -0.07745802 -0.0754085 0.055188484
0000c0 41 0d 91 bd 16 13 81 3d 32 49 85 3d 3a 63 5c 3d
       -0.07082606 0.063024685 0.065081015 0.053805567
0000d0 43 3b 77 bd 96 b0 8a 3d 11 25 d8 3d a3 58 46 bc
       -0.06035925 0.06771962 0.10553945 -0.012106094
0000e0 15 f9 f7 bc 31 d9 28 bc 2c f4 a2 3d ea 90 e6 bc
       -0.030270139 -0.010305689 0.07956728 -0.028145272
0000f0 b2 5b 7d bd d5 bc 92 bd cb dd 5e bc 61 e5 6e bd
       -0.061855026 -0.07164923 -0.013602684 -0.05832422
000100 5b 77 37 bc a9 47 28 bc 63 d6 58 3d 9a ea 06 3c
       -0.01119789 -0.010270991 0.05293883 0.008234644
000110 8a 28 77 3d 45 7f 06 3d b1 45 63 bc b2 b0 61 3d
       0.060341395 0.032836217 -0.013871596 0.05510015
000120 0a 22 d1 3c d6 71 53 3d fc 69 fa 3c fa 4d 43 3d
       0.025528926 0.051622234 0.030568115 0.047681786
000130 f4 cf 87 bd f7 9e 27 bd 06 83 37 bd b9 f2 9b 3b
       -0.06631461 -0.040923085 -0.044802688 0.0047591594
000140 d0 38 96 bd 69 50 9e 3c a5 19 21 bb 36 d8 0d 3d
       -0.07335055 0.019325452 -0.0024581936 0.034630023
000150 c7 f9 ef 3c 15 a4 c4 3d 96 1d d5 bc 55 e9 a0 3d
       0.029293908 0.09601609 -0.026015084 0.078570046
000160 58 2c 86 3d 05 64 c3 3d 49 4d c5 3c ff 05 bf 3c
       0.06551427 0.095405616 0.024084704 0.023318289
000170 ad 40 96 bd 7e c5 f4 3c f9 28 db bd d2 8c c6 3b
       -0.07336555 0.029879328 -0.10701174 0.0060592676
000180 e9 f5 52 3d 91 0f 00 bd 9f 07 09 bd 28 ad a3 bd
       0.05150405 -0.031264845 -0.033454534 -0.07992011
000190 a6 8a 87 3d 9d e2 19 3d 9a bf 6d bd 9e e9 13 3d
       0.06618242 0.03756963 -0.058044054 0.036111467
0001a0 91 0e 9f bc a3 aa 0e bd 49 49 b4 3d 83 9c 96 bd
       -0.019416125 -0.0348307 0.088030405 -0.07354071
0001b0 8a f2 91 bd aa 39 1f bc 2b b4 24 3d b3 a8 6e bd
       -0.07126339 -0.009718338 0.040210884 -0.058266353
0001c0 2d 0b eb 3d 0a f6 88 bb 6f 81 85 3d 09 94 b9 bd
       0.11476741 -0.0041797208 0.06518828 -0.090614386
0001d0 cd b6 93 3d f7 2d 3e 3d 73 07 49 3d b8 4b 42 3c
       0.07212601 0.046430554 0.04907937 0.011858873
0001e0 67 ac 77 3d 13 65 17 bc 63 5e a4 3d 83 bb 07 bc
       0.06046715 -0.009240407 0.08025815 -0.008284452
0001f0 a9 ec b7 3d 40 fe a8 bc 0e eb ac 3d 57 48 e4 3b
       0.08980686 -0.020629048 0.084432706 0.0069666314
000200 30 48 13 bc c4 6a 93 3d 18 0b 86 bd 65 4a 05 bd
       -0.008989379 0.07198098 -0.06545085 -0.03254165
000210 3a a9 a9 bd 9d 43 f8 3c 4d 77 b0 bd db d7 3d bc
       -0.082842305 0.030305678 -0.08616505 -0.0115871085
000220 57 58 b7 bc 92 d5 9f 3b e3 42 93 3d 6d 46 2c 3d
       -0.02238099 0.0048777545 0.07190492 0.04205935
000230 19 a5 c1 bd f5 fa 76 bd 7f b5 d9 bd b1 7a 96 bd
       -0.09455318 -0.060297925 -0.10630321 -0.0734762
000240 47 e4 b5 3d 80 b9 a1 3d 44 41 4b bd ca 66 2d bd
       0.08881431 0.078967094 -0.04962279 -0.042334355
000250 62 5e e3 3b 10 d0 ec 3d e8 63 6c 3c d8 eb aa 3d
       0.0069387415 0.11563122 0.014428116 0.08345765
000260 48 82 29 3d e4 4f 62 bd 68 be a1 3d 9c d2 d5 3d
       0.04138401 -0.05525197 0.07897645 0.10440561
000270 74 75 76 3d d2 aa 0c bc e9 c2 79 3c 0a 98 bb 3d
       0.060170606 -0.008585649 0.015244224 0.091598585
000280 1a fa e1 3d 48 9c 12 3d e1 85 d4 bd 5a 1c 9e bd
       0.11034031 0.035793573 -0.10377098 -0.077202514
000290 de 2b d6 3d 61 3b a9 bd cd a7 6c bd 0d 45 2b 3d
       0.10457586 -0.08263279 -0.057777215 0.0418139
0002a0 7c fc 36 bd 3e 2b 84 3d 5f 90 61 3d d7 b2 f4 bc
       -0.04467438 0.0645356 0.055069324 -0.029870434
0002b0 36 18 ca bc 14 9f 9e bd fa a8 9f 3d 16 0d cf 3d
       -0.024669748 -0.077451855 0.077959016 0.10109918
0002c0 f0 aa d2 bc 36 c4 d3 bd 11 63 56 3b 1b d0 ac 3d
       -0.025716275 -0.10340159 0.0032712857 0.084381305
0002d0 c5 1e b6 3d 83 48 04 bc 08 55 72 bb 98 49 20 3d
       0.088925876 -0.008073929 -0.0036976952 0.039132684
0002e0 eb 12 9f bd 5b 65 ac 3d 4e 63 53 3d 3c ca f8 bc
       -0.0776728 0.084177695 0.051608376 -0.03036987
0002f0 d9 cf 15 3d 34 54 b7 3d 3f 79 b9 bd a0 b0 3c 3b
       0.036575172 0.08951607 -0.09056329 0.00287918
000300 cf 17 eb bd 2e 71 f7 bd f6 c8 73 bb ec 31 23 3d
       -0.114791505 -0.12082134 -0.003719864 0.03984253
000310 43 2a 04 bb 9a af 82 3d 8d 86 9f bd c6 6d 0b 3e
       -0.0020166792 0.063811496 -0.077893354 0.13616094
000320 c6 5e c5 3d 00 f8 97 bd 3f 32 c6 bc 5a 45 97 3d
       0.09637217 -0.07420349 -0.024193881 0.07386275
000330 6a d9 a4 3d b7 60 0b 3d 7e 84 3e 3d 08 73 df bd
       0.08049281 0.03402778 0.046513073 -0.10910612
000340 7c f9 29 bd 74 b7 18 bd f1 3f c8 3d c8 a6 88 bd
       -0.041497692 -0.03728433 0.09777821 -0.06672436
000350 eb d5 4e 3c 57 2d 9f 3b 0e 22 b6 3d b7 80 a6 bd
       0.012624244 0.0048577 0.08893214 -0.08130019
000360 2e 99 1c 3a 1e 76 e7 3c ef 5f 06 3b 81 44 7d bd
       0.0005973753 0.028254565 0.0020503958 -0.06183291
000370 70 21 0c 3c dc 4e 1f 3a 50 2a 36 bd 64 80 67 bd
       0.008552894 0.00060771196 -0.044473946 -0.056518927
000380 a9 e2 1f bd cb ba 36 bc 1a a4 76 3d 12 de d4 bd
       -0.03903452 -0.011152933 0.060215093 -0.10393919
000390 e5 b3 9e bd 2b dc 83 3d 5d a5 1c bd 47 23 26 3d
       -0.07749156 0.06438478 -0.03824364 0.040560987
0003a0 d1 33 19 bd 69 19 1b 3d ab 9f 49 3d bf 6c dd 3d
       -0.03740293 0.03786603 0.049224537 0.10811757
0003b0 c9 71 2c bd b8 57 51 bc 83 82 f6 3b 32 5d dd bc
       -0.0421007 -0.012777261 0.0075228824 -0.027021978
0003c0 7c c6 66 bd 48 99 03 3c a5 45 9c bd e4 98 09 bc
       -0.056341633 0.008032151 -0.07630471 -0.008398268
0003d0 1e 13 18 bd 19 81 2a bc 1d aa 59 bc 71 ed b9 3d
       -0.037127607 -0.010406756 -0.013285187 0.090784915
0003e0 8e 94 b9 3d 31 4f f1 3c 27 dd be bd 39 6d e8 bc
       0.09061538 0.029456707 -0.09319525 -0.028372394
0003f0 ab 6c 67 39 08 d7 33 bd 96 71 9d bc c5 e1 b3 bd
       0.00022070359 -0.04390624 -0.019219201 -0.087832965

mlp2.0.bias f4 [100]
000000 41 8b 56 3d ad 66 bd bc da a4 07 3d 17 e2 e7 bd
       0.052378897 -0.023120249 0.0331162 -0.1132242
000010 99 49 9b 3d 2c f9 f7 bc 3a 4b 16 3d 61 d7 6c bd
       0.07582397 -0.030270182 0.036692835 -0.05782259
000020 76 9c 9f bd de 3e 08 3e 65 a6 ad 3d a2 1d 93 bd
       -0.077935144 0.13305232 0.08479003 -0.071833864
000030 87 01 17 3d 5d 07 d0 bd 3f 09 a9 bd 70 64 7c bc
       0.03686669 -0.101576544 -0.08253717 -0.015404806
000040 69 d0 f6 bc 58 d2 14 bd da 48 93 bd 68 45 b3 3c
       -0.030128675 -0.036333412 -0.0719163 0.021883681
000050 05 8d 87 bd 97 8e 96 bd 84 a2 51 bd ad 47 2e bd
       -0.06618694 -0.073514156 -0.051180378 -0.042548824
000060 53 05 a5 3d 03 f6 5f bd c8 2e 30 3d 86 3f 0d bd
       0.08057656 -0.054677974 0.043013364 -0.03448441
000070 4e 0b 2c 3b e8 02 21 bc cd 1d c3 3d 1e 4c fb 3d
       0.0026251855 -0.009827353 0.095271684 0.122703776
000080 e5 af 2a 3d d7 2f ce bd e2 0a 3b 3d c6 07 77 3d
       0.041671652 -0.100677185 0.045664676 0.060310148
000090 eb 67 b0 bd b3 d8 ae 3d ed 31 f7 bc bd a1 ad 3d
       -0.08613571 0.08537426 -0.030175174 0.08478115
0000a0 cb 9d ef 3d 8c 7d 1e 3b df 61 4d bc 82 a5 08 3d
       0.117000185 0.0024183718 -0.012535541 0.033360966
0000b0 53 cc b4 bd bf 28 8e 3c 46 0d 46 bd ce c3 1b bb
       -0.08828034 0.017353414 -0.048352502 -0.0023767832
0000c0 48 7f 6c bd 8a 94 ae bd f5 bf 65 bc a9 0d b8 bd
       -0.057738572 -0.08524425 -0.014022817 -0.089869805
0000d0 4b c6 06 3e 5e 5e d4 3c 63 a7 ac 3c 24 17 5f bd
       0.1316158 0.025923904 0.02107591 -0.054465428
0000e0 9e a8 e8 3d ce 4e 04 3d a2 c0 26 bd 78 0e d1 bd
       0.11360286 0.032301717 -0.040711053 -0.10207838
0000f0 95 b4 cf 3c 58 c3 99 bd c1 46 24 bd ec b5 71 bc
       0.025354663 -0.07507962 -0.04010654 -0.014752846
000100 94 fb 0a 3c ab af 85 3b b4 76 90 3d a7 1c 2f bd
       0.008482832 0.004079779 0.07053891 -0.042751934
000110 cf 21 6e bc fb 9d f4 bc b5 14 05 be 79 a9 0e 3d
       -0.014534428 -0.029860487 -0.1299618 0.03482959
000120 8b a4 cc bc 69 92 de 3d bf 6e e1 3d 7f 24 e8 3d
       -0.024980804 0.10867769 0.11007451 0.11335086
000130 1c 9a ab bd 07 19 95 bd 0a f8 84 3d 0a 26 8b bc
       -0.083790034 -0.07280164 0.06492622 -0.016985912
000140 4b a1 48 3d 9d 2d a2 bc 53 46 d0 3d 98 77 a0 3d
       0.048981946 -0.01979714 0.10169663 0.07835311
000150 dd 71 a9 bd 2a 7f 22 3e 44 8e 77 3d 42 4d 1f bc
       -0.08273671 0.15868822 0.06043841 -0.00972301
000160 f7 dc 7d 38 bd d3 f1 3c 4b ac b3 bd 53 ed 9c bd
       6.052569e-05 0.02951991 -0.08773097 -0.076624535
000170 66 31 b6 bc eb fd 86 3d 82 66 d4 3d 08 7b 56 bd
       -0.022240352 0.065914 0.10371114 -0.052363425
000180 87 da 1c 3d 36 aa 7a 3d 40 f0 c2 3c 8d 74 e9 3c
       0.03829434 0.061197482 0.0237962 0.028497959

mlp2.2.weight f4 [50, 100]
000000 4c 09 35 bd b2 05 a2 bd 37 60 36 bd a1 52 b2 bd
       -0.04419832 -0.079112425 -0.04452535 -0.087071665
000010 48 14 48 3c 40 16 0f bd b1 f3 90 bd d7 7e 81 3c
       0.012211867 -0.03493333 -0.070777304 0.015807552
000020 42 0b da bb b1 92 47 3b 93 77 6c bc 90 77 25 bd
       -0.006654174 0.0030452425 -0.014432806 -0.040397227
000030 f0 1d c6 bc 84 c7 12 3d da db 60 3d c2 06 9c bd
       -0.024184197 0.035834804 0.054897167 -0.076184765
000040 62 48 50 3d aa d7 4a bd c0 41 25 3c 5a 21 94 bb
       0.05085028 -0.04952208 0.010086477 -0.0045205774
000050 f6 fe 82 bd 10 4a 84 3d 57 7f 5c 3d ad d5 4f bc
       -0.06396286 0.06459439 0.05383238 -0.012685222
000060 ab 31 26 bd f8 83 c3 3d b9 f1 e8 bc be be ba bd
       -0.04057471 0.095466554 -0.028435575 -0.091184124
000070 b2 b1 6e 3d 18 c7 38 bd 1e 74 9d bd 99 1e 31 bd
       0.058274932 -0.045111746 -0.07688163 -0.04324207
000080 31 88 b1 bd 43 98 bc bd 65 20 ac 3d 3d ab 4b bd
       -0.086685546 -0.09208729 0.08404616 -0.049723852
000090 c4 4f de bd 10 5f f5 3c 5f 42 fa 3d 02 9d 3d bd
       -0.10855058 0.029952556 0.122196905 -0.046292312
0000a0 de 07 6b 3d f1 15 67 3d 9a 7c a4 b8 81 2c 7d 3d
       0.05738055 0.05641741 -7.843338e-05 0.06181002
0000b0 d6 b1 fe bc 05 21 26 bd 7e 16 5c bd d1 47 7f bb
       -0.031090658 -0.040558834 -0.053732388 -0.0038952718
0000c0 52 a0 b3 3d 2e 32 7a bd a8 1a 92 bd 98 69 7a 3d
       0.08770813 -0.06108301 -0.071339905 0.06113586
0000d0 fc 75 be 3b d7 a3 9a 3c 69 49 1b 3c e6 0b 34 3c
       0.0058124047 0.018876953 0.009477952 0.010989165
0000e0 3d d3 a8 3d 6c a0 e8 3c 13 31 e4 bc 6d 79 c2 3c
       0.082434155 0.028396808 -0.027855432 0.023739541
0000f0 b5 81 f0 3c a3 7e 6f 3d c8 07 b8 bd 55 8c 9b bd
       0.029358724 0.05847038 -0.08985859 -0.075951256
000100 9c 5e a7 3d 4a 14 25 3d 5c d7 8e bd cc 0c 51 3d
       0.08172342 0.040302552 -0.0697467 0.051037595
000110 4e ad 31 3d ad 14 8a 3d a2 ad 82 bd 27 0e a6 3d
       0.043378167 0.06742225 -0.06380774 0.08108168
000120 df af 6c 3d d1 f2 fb 3b d8 35 05 be a5 06 35 3d
       0.05778491 0.007688858 -0.13008821 0.04419579
000130 13 28 8b bc a5 be 7d 3d e7 f5 df 3c b0 2a 2a bd
       -0.016986882 0.06194939 0.027338935 -0.041544616
000140 8e d9 c2 bd 60 15 56 bd 64 a1 05 3d 0a f9 fc 3d
       -0.095141515 -0.05226648 0.032624617 0.12352188
000150 48 ca 4a 3d e6 17 81 3d 15 70 39 bc 30 56 7c 3c
       0.049509317 0.063033864 -0.011318226 0.015401408
000160 4b 1d 0d 3d c2 38 95 3c 5a 9c ee bc 1b d4 a2 bd
       0.034451764 0.01821554 -0.029127289 -0.07950612
000170 19 7e 02 3d c4 f7 ca bc 7e 0a 15 bd 19 ca 83 3d
       0.031858537 -0.024776347 -0.03638696 0.064350314
000180 6f 64 a8 3c 6e b6 3a 3d 3a 77 5b bd 3b 51 33 bd
       0.020555703 0.045584135 -0.0535805 -0.04377864
000190 b0 5c b7 bd 7f 7f c5 bd a0 6a d4 bd 1b 07 07 bd
       -0.089532256 -0.096434586 -0.103718996 -0.03296576
0001a0 09 86 99 3c c3 e1 85 bd 0f 6b f9 3c 0b 28 ba 3d
       0.01874067 -0.06537201 0.030446557 0.09089669
0001b0 ac 22 b9 3c 01 42 64 3d ee b1 d4 3d 08 43 8c 3d
       0.02259954 0.05572701 0.103855 0.06848723
0001c0 44 46 94 3d 40 d8 d7 3d de c6 12 bd 43 db 2c bd
       0.072399646 0.10539293 -0.035834186 -0.04220129
0001d0 fb ec e8 3b c1 ed ad bd 0d 80 64 3c 00 dc 7e 3d
       0.0071083284 -0.084926136 0.013946545 0.062221527
0001e0 53 f4 0d bd a2 2e f1 bc fd c2 fc bc cb 33 99 3d
       -0.034656834 -0.029441182 -0.030854696 0.07480582
0001f0 bd d7 b8 bd d9 a4 57 3d cc 70 b6 3d c3 e8 73 3d
       -0.09025524 0.052647445 0.08908233 0.05954815
000200 56 69 21 3c 20 8a dc bd 4c d5 4b 3d c6 25 45 bc
       0.009851774 -0.10768533 0.049763963 -0.012032932
000210 0c 88 a5 3d 19 5e 8d bc bd 1e 1b bd dd 23 9e 3d
       0.080825895 -0.017256783 -0.03787111 0.07721684
000220 99 f4 a5 3d f0 ed 45 3d 22 b4 f5 bd a0 17 02 bd
       0.08103294 0.048322618 -0.11997248 -0.03176081
000230 2c 37 3e bd 77 d7 8c bd 1f bd d6 bc 01 df 51 bc
       -0.046439335 -0.06877034 -0.026213227 -0.012809516
000240 cc 7e 21 bd 97 14 b9 3d 05 c9 83 bd 30 5f 56 3d
       -0.039427564 0.0903713 -0.06434826 0.05233687
000250 4b ac 81 bd 76 c0 96 bb 59 f0 37 bc ae 45 76 3d
       -0.063316904 -0.00460058 -0.011226737 0.060125045
000260 03 fa 0b bd 83 ae 5d bd 07 24 0a 3d 06 b5 91 bd
       -0.034173977 -0.054121505 0.033725765 -0.071146056
000270 95 a0 d5 bd 9b c1 83 bd 27 6e 05 3d e7 1e be 3d
       -0.10431019 -0.06433412 0.032575753 0.09283238
000280 56 eb 11 3d 62 e9 96 bc 50 a4 a5 3d cb ee d6 3a
       0.035624824 -0.018421832 0.08087981 0.001639807
000290 3d 97 08 3d 5a bd da 3c 09 64 60 3d 6d f8 84 3d
       0.033347357 0.026701618 0.0547829 0.06492696
0002a0 48 fa 49 3d 3b 4d 2b bc 6d b8 a6 3b 9a 34 bc bd
       0.049310952 -0.010455425 0.0050879032 -0.091897205
0002b0 06 11 86 bd c0 40 34 bd bd a0 c4 3c c4 a1 9d 3d
       -0.06546216 -0.044007063 0.024002427 0.0769687
0002c0 f7 8d 13 3d c8 16 15 bd b6 9a e3 bc dd be d3 3d
       0.03602406 -0.03639868 -0.027783733 0.10339139
0002d0 7b fa ae 3d 3b 7a 5a bc b7 c7 9b bd 8d 0c b4 bd
       0.08543869 -0.013334806 -0.07606452 -0.08791456
0002e0 29 0b a1 bd a3 aa 69 bd a7 12 ec bd c9 d6 ab 3c
       -0.07863457 -0.057047497 -0.11526995 0.020976441
0002f0 a7 50 c1 bd 5e 04 7d bd cd 84 5e bd 1a 24 08 3d
       -0.09439211 -0.061771743 -0.054325867 0.033237554
000300 3c 01 18 bd e4 42 59 3d db b1 26 3b ef 33 96 3d
       -0.037110552 0.053042307 0.00254356 0.07334124
000310 69 cc d7 bc 5e 50 a2 3d 62 a6 10 bb d3 b6 d7 3d
       -0.026342588 0.07925485 -0.0022071828 0.10532918
000320 fa a9 6b 3d fe 42 8b 3d 18 6e 5e bb 26 f9 c1 bd
       0.05753515 0.06799887 -0.0033940133 -0.094713494
000330 f1 38 23 bd cb 21 be 3c ba a3 33 3d bb 5e ba bd
       -0.039849225 0.023209473 0.043857314 -0.091001
000340 af 27 c7 bd 75 d3 24 3d 8e 44 2c bd ba d1 db bd
       -0.09724366 0.040240724 -0.042057566 -0.107333615
000350 e7 a0 a2 bd 67 10 01 3d 8b 58 a0 bc 3a 4c e0 bd
       -0.07940846 0.031509783 -0.01957347 -0.10952039
000360 dc e4 90 3d 3e 90 ba bc e6 67 fc 39 ff 16 a1 3c
       0.070749015 -0.022773858 0.00048142596 0.019664286
000370 88 b3 52 3d c8 14 d5 3c 22 7c 60 bd 99 a6 6e 3d
       0.051440746 0.026010886 -0.054805882 0.05826435
000380 92 8c f5 bc 9c 56 86 bd f9 c4 37 bd ef ca 5e 3d
       -0.029974256 -0.06559488 -0.044865582 0.05439275
000390 f8 56 71 3d d6 bb 09 bd d5 60 92 ba d7 ed f2 bc
       0.05892083 -0.0336264 -0.0011167774 -0.029654427
0003a0 cf 6f 65 bc 69 d0 7a bd 3c 90 91 bd fc 29 03 3d
       -0.014003708 -0.06123391 -0.07107589 0.03202246
0003b0 12 b5 c2 3d a1 5e 44 3d 0f 59 61 bc 62 7b 79 3d
       0.09507193 0.047941808 -0.013754143 0.060908683
0003c0 85 0e 22 3d fa 34 7a bc 95 95 9c 3c 42 37 e4 bc
       0.03956463 -0.01527142 0.019114295 -0.02785838
0003d0 a6 ea 20 bc f0 93 87 bd 4e e2 a5 3c 47 60 61 3d
       -0.00982157 -0.06620014 0.020249512 0.055023458
0003e0 49 33 94 bd 69 d2 3b 3d 0f 42 93 bd 7a c0 9d 3c
       -0.07236344 0.04585496 -0.07190334 0.019256819
0003f0 f7 43 c8 3d 2c 5f 29 bd ce 03 99 3d 90 b3 2f 3d
       0.09778588 -0.04135053 0.07471429 0.042895854

mlp2.2.bias f4 [50]
000000 39 97 b4 3d 3f 89 b5 bd 29 52 c5 3d a1 0f 24 3c
       0.08817906 -0.08864068 0.096348114 0.010013492
000010 b6 96 ad 3c ac b4 b1 bd 06 46 b8 3d 23 6e c5 3c
       0.021190029 -0.086770386 0.08997731 0.024100369
000020 7f d6 48 bd be 2d 1f bd 3c f5 21 bd f9 6e be bc
       -0.049032684 -0.038861983 -0.039540514 -0.023246275
000030 94 08 fa bd 23 28 67 bd 3b 12 11 3d 5f 7e 93 bd
       -0.122086674 -0.05643476 0.035417777 -0.07201838
000040 15 7a 80 bd 2d d0 f6 3d 33 38 e1 3b 97 34 7c 3d
       -0.06273285 0.12051425 0.0068731545 0.06157359
000050 9e 20 4e bd 44 d9 c8 3c a8 58 8b 3d 8b 95 9d 3c
       -0.050324075 0.024517663 0.06804019 0.019236347
000060 9a 97 7c bb 5a 2a e8 bd 8a 05 c4 bd 7c 36 9b bc
       -0.003854251 -0.11336203 -0.09571369 -0.018946879
000070 66 8c b8 3c 64 94 c3 3d 6e 10 28 bd 73 8f 35 3b
       0.022527885 0.09549788 -0.041031294 0.002770391
000080 28 53 14 3a 21 77 af bd a3 38 77 3d 6c af dd bd
       0.0005658143 -0.08567644 0.060356747 -0.10824475
000090 f7 53 c8 bd 39 0d 48 bd ed 9a 32 3d e8 4a fe bc
       -0.0978164 -0.048840735 0.04360478 -0.031041577
0000a0 98 b0 f3 3d 28 bb a3 3d 1f 61 b8 3d 52 d9 0e 3e
       0.11898917 0.079946816 0.090028994 0.13950089
0000b0 a8 89 68 bd b9 9b 0c 3d 7a 83 19 be 65 29 81 3c
       -0.056771904 0.034328196 -0.1499156 0.015766809
0000c0 bd 77 e0 3d 5f 0b e7 bb
       0.10960338 -0.007050916

attention.0.weight f4 [100, 200]
000000 a9 7a 88 bd f7 41 00 3d a1 17 07 bd c6 59 86 3c
       -0.066640206 0.03131291 -0.03298152 0.01640023
000010 10 94 b6 3c 72 7c 4f bd d6 a3 9f bc d5 00 7a bd
       0.022287399 -0.05065579 -0.019487303 -0.06103595
000020 f7 b7 a7 3a 6a 2d 4e 3d 4b 22 ff bc 8f 7c 2f bd
       0.0012795915 0.05033628 -0.031144282 -0.042843398
000030 ca 21 61 3d d7 d1 52 bd f7 75 89 3d 3f 74 26 3d
       0.054963864 -0.05146965 0.06711953 0.040638205
000040 30 e9 13 3b e5 57 7d bd 69 b0 ec 3c de 4f 4a 3d
       0.002256941 -0.0618514 0.028892713 0.049392574
000050 be 86 fd bc 55 d3 28 3d 8a ee 8d bb 29 32 7e 3d
       -0.03094804 0.041217167 -0.0043314146 0.062059555
000060 41 f5 8b bc 6f ba 61 3d 9c c8 c6 bb 20 97 9a bd
       -0.01708472 0.055109438 -0.006066395 -0.07548356
000070 21 5e 4b 3d 87 a6 08 3c f5 55 82 3c ee af 6d 3c
       0.049650315 0.008340484 0.015910128 0.014507277
000080 62 cb 03 3d 0e 98 43 3d 84 d3 0d bd 8c 01 89 3d
       0.032176383 0.047752433 -0.034625545 0.06689748
000090 96 35 5f 3d 21 23 17 3d b3 5b 2e 3d 65 7b 0c 3d
       0.054494463 0.036898736 0.04256792 0.034297366
0000a0 93 2a cd 3c b0 f3 c3 bc ec 29 29 bd 55 ac 07 3c
       0.025044715 -0.02391991 -0.041299745 0.008280833
0000b0 d1 d8 00 bd 27 58 f4 3c 0d 0e 47 bd 95 5c ae 3c
       -0.031456772 0.02982719 -0.048597384 0.02128438
0000c0 bc 55 c4 3b 7c 83 66 bd 0a eb 8d bd 93 db a8 3c
       0.0059916656 -0.056277737 -0.06929596 0.020612514
0000d0 3a b4 19 3c 62 6b 3c 3d 39 51 73 bd 90 4a 23 bd
       0.009381348 0.046000846 -0.05940363 -0.03986603
0000e0 e8 f3 15 bc 96 0f 99 bc 71 f4 71 3d 98 dc 25 3d
       -0.00915239 -0.01868419 0.059071008 0.040493578
0000f0 3a 0c 15 3d 34 99 a6 3d 22 25 4b 3d 9b 5a 8a bd
       0.036388613 0.0813469 0.04959596 -0.06755563
000100 b4 dd 81 bd ee 67 8f bd 97 7e 10 bd 2b f1 8a 3d
       -0.06341115 -0.07002245 -0.035276975 0.067842804
000110 f5 75 73 bd eb 04 54 bd e9 20 02 3c 8a 78 9f 3d
       -0.059438664 -0.051762503 0.007942417 0.07786663
000120 ad dd 20 3d 70 f5 ed bc 77 c7 5a bd 26 f7 4e bd
       0.039273906 -0.029047698 -0.05341288 -0.050528668
000130 b8 02 db 3c b4 b2 0b bd be bc 8b 3d c5 c3 2b 3d
       0.026734695 -0.03410597 0.06823109 0.041934747
000140 c6 d6 55 3c c2 9a 0f 3c 8c 7e 06 bd 80 1b 24 3d
       0.013051694 0.0087649245 -0.03283553 0.04006529
000150 61 df 7b 3c 9f 0f f0 bb 9c 62 04 3c c7 d8 57 3d
       0.015373082 -0.007326081 0.008080151 0.05269697
000160 22 4f 3a bd 38 dd 3c bd 47 c6 16 3d b5 1d 52 3c
       -0.045485623 -0.04610941 0.036810186 0.0128244655
000170 14 bf 8c 3d 88 e7 01 3b 3d a8 e1 bc be 30 08 3d
       0.06872383 0.0019821841 -0.027546043 0.03324961
000180 76 28 68 bd f0 de 02 3d 02 c0 78 bd 7a c7 43 bd
       -0.05667921 0.03195089 -0.060729988 -0.047797658
000190 ad 51 9f 3c 31 b7 4b bd 31 bb 59 3d 86 72 9a 3b
       0.019448126 -0.04973525 0.053157035 0.0047133593
0001a0 2d 79 3b 3d d3 d2 d3 bc b2 13 57 3d da a5 34 bd
       0.04576986 -0.025857365 0.052509017 -0.04410348
0001b0 82 88 29 bd 65 1c 2f 3d fe ab 59 3d 5f 12 3d 3d
       -0.04138995 0.04275169 0.05314254 0.0461601
0001c0 4f f4 7f 3d e0 e1 88 3d ec 4e 6e bd d7 69 31 bd
       0.06248885 0.06683707 -0.058180735 -0.043313827
0001d0 94 28 25 3d 03 11 87 bd 78 f2 a9 bc fd c9 a4 bb
       0.0403219 -0.065950416 -0.0207455 -0.0050289617
0001e0 6e 0b 9b bc f3 b5 8a bc a6 2a be bc 40 86 18 3c
       -0.018926349 -0.016932463 -0.023213696 0.009309351
0001f0 4b df 0c bc 84 6d 8f bd 24 f3 a5 bc 7f a2 0b 3d
       -0.008598159 -0.0700331 -0.02025754 0.034090515
000200 a1 87 f5 3b 20 d9 0c bc b7 56 66 bd 98 0c 96 bb
       0.007492975 -0.0085966885 -0.05623504 -0.004579138
000210 38 9f 95 bc 3f 74 d5 3c 7b 56 fa bc 19 0a c2 3b
       -0.018264398 0.026056407 -0.030558815 0.005921614
000220 e6 4b 5c 3c a3 4c 3e bd 5b b6 f2 bb d1 68 f4 bb
       0.01344583 -0.046459805 -0.0074069924 -0.007458784
000230 53 c0 85 3c 70 c6 78 3b e8 e3 a3 bb fe 90 46 bc
       0.016327059 0.0037960075 -0.005001534 -0.01211953
000240 f5 22 76 bd cf 2e 7a 3c 7a 6a 84 bd 35 c5 66 bd
       -0.06009193 0.015269949 -0.06465621 -0.056340415
000250 36 41 ce 3b d0 e2 83 3d 4f 07 7e 3c 97 35 c1 3c
       0.006294395 0.064397454 0.015504672 0.023585124
000260 1f 6f 76 bd 5a eb 58 3d 71 c0 92 3c 82 4c 28 bd
       -0.060164567 0.052958824 0.017914029 -0.04108859
000270 b8 57 85 bd 25 2e 25 bc 42 5e 60 3d 56 01 a6 3b
       -0.06510872 -0.0100818025 0.05477739 0.005066077
000280 fe bb f2 3a 9e 81 d5 bb d6 06 90 3d d1 99 74 3c
       0.0018519161 -0.0065156957 0.07032554 0.014929251
000290 39 b3 01 bc fb 54 b2 bc e1 37 1c bd 4f 1e 5e 3d
       -0.007916265 -0.021769037 -0.038139228 0.054228123
0002a0 29 1c 5b 3d ef ef e6 bc 82 10 55 bd 02 58 45 bb
       0.053493652 -0.028190581 -0.052017696 -0.0030112271
0002b0 21 cf 27 bc f1 87 02 3b 8f 70 b7 3b f3 d1 59 bd
       -0.0102422545 0.0019917453 0.005598135 -0.05317874
0002c0 ac 2a bd bb 9b b7 18 bd 5e e4 25 bd 67 78 1d bd
       -0.005772909 -0.037284475 -0.04050099 -0.038444903
0002d0 b1 f8 bf 3c cd 1c d5 3c 8e 10 8e 3d 3c d8 73 bd
       0.023434015 0.02601471 0.06936751 -0.05953239
0002e0 e5 33 f0 bb 27 3a 1d 3c 02 7e 27 3d 57 12 79 bd
       -0.007330405 0.009596384 0.040891655 -0.060808506
0002f0 a7 d8 66 bc 54 97 01 bd 99 61 6d 3d 00 08 3a 3c
       -0.01408974 -0.03163846 0.057954405 0.011354446
000300 d1 c1 f8 3c 1d 9b a4 bb 65 3e 38 bc 16 41 e5 bb
       0.030365856 -0.0050233738 -0.011245345 -0.0069962842
000310 1e ce 82 bd eb 2a 5f bd c9 dc 80 3d 50 97 2a 3c
       -0.0638697 -0.05448429 0.062921114 0.010412052
000320 b1 87 02 3d cb 36 c2 3c ce af 8c 3d 16 1c 59 bb
       0.031867687 0.023707768 0.068694696 -0.0033128313
000330 71 0f c7 3d 00 d3 f4 bc bc a2 15 3d 75 88 8e 3d
       0.09719742 -0.029885769 0.03653215 0.06959621
000340 ac a4 40 bd 2e 75 49 bc 00 1d f6 bb 73 cf 87 bd
       -0.047032043 -0.012296004 -0.0075107813 -0.06631365
000350 12 ae 5d 36 46 a3 83 bd 75 b3 b0 ba f5 30 ca bb
       3.3032888e-06 -0.06427626 -0.0013481217 -0.006170387
000360 9e c1 36 3d 9f 30 a0 3d ba d6 4d 3d 3f a0 0d bd
       0.04461824 0.07821774 0.050253607 -0.03457665
000370 e6 06 97 bd 7a 71 6e 3d eb 16 8c bd d5 a0 37 bc
       -0.07374363 0.05821369 -0.06840309 -0.011207779
000380 45 6b 8c bc 61 60 f2 3a 93 70 3f 3d 68 d2 91 3d
       -0.017140994 0.0018491858 0.04673822 0.0712021
000390 fa cc 6e bc 64 2a 31 3d 9d 7a 91 3d 77 38 5d bd
       -0.014575237 0.043253317 0.07103465 -0.054008927
0003a0 4d a4 5c 3d d8 96 51 bd 29 c2 85 3d 8d 37 9f 3c
       0.053867627 -0.051169246 0.06531174 0.019435668
0003b0 99 55 78 bd 86 97 14 bd 26 3d a2 bd 0d 08 7d 3d
       -0.060628507 -0.036277317 -0.079218194 0.061775256
0003c0 4f aa 0c bd fb 84 eb bc 35 e6 b0 3d f7 2b 30 3d
       -0.034342106 -0.028749933 0.086376585 0.04301068
0003d0 17 1f d9 3c f6 30 5d bd cd e1 b6 3c fc 28 68 3c
       0.026504083 -0.05400177 0.022324467 0.014169928
0003e0 23 98 47 bd 7d 6a 7b 3d fc c2 61 3c 13 c0 3e 3c
       -0.048729073 0.061380852 0.013779398 0.011642474
0003f0 08 42 0f bd a1 8e 61 3c 31 9e b2 bc cd 14 49 3d
       -0.03497508 0.013766916 -0.021803947 0.049092103

attention.0.bias f4 [100]
000000 4b 44 2d 3d 5f 85 09 bd bb 5a 83 3c 25 54 23 3d
       0.042301457 -0.03357446 0.016034475 0.03987517
000010 af 79 2f 3d 81 e7 3c bc 2d 43 82 3d b4 90 54 3d
       0.042840656 -0.011529804 0.06360469 0.051895812
000020 61 83 56 3d 81 8a 5b 3d 7b ad 62 bc 38 52 b8 bc
       0.052371386 0.053598884 -0.013835306 -0.022500142
000030 30 5a a8 bb e8 be 84 3d 9a c9 c1 bc 18 8e 2e 3b
       -0.0051377043 0.06481725 -0.023655701 0.0026634987
000040 b3 e7 a2 bb d7 32 6b 3d be 08 34 3b 58 2b 2d 3d
       -0.0049714684 0.05742153 0.002747103 0.042277664
000050 d5 fd 89 3d 2b 7e 9e bc a8 73 6f 3d a4 35 89 3d
       0.06737868 -0.019347271 0.058459908 0.06699684
000060 ee 04 ff bc fa 64 2f 3d e0 6d 9c 3c 0c 87 cd b9
       -0.03113028 0.042820908 0.019095361 -0.00039201265
000070 be 86 17 bd d4 e3 f3 3c 83 4e 60 3c 40 c0 62 bd
       -0.036993735 0.029771723 0.013690594 -0.055359125
000080 5e 20 91 3d 25 9d fd bb f1 72 d7 3c 35 9e cc 3c
       0.07086252 -0.0077396804 0.026299926 0.024977783
000090 71 5b 2e 3d b7 f2 80 3d 72 75 4b 3b e0 12 27 3d
       0.042567674 0.06296294 0.0031045345 0.040789485
0000a0 89 e8 47 3d 69 d8 f6 3c f9 cf 5f 3d c6 f8 dd 3a
       0.048805747 0.03013249 0.054641698 0.0016935102
0000b0 8d 9a 20 3d 04 47 89 3c f0 1d 57 3d 97 10 96 bc
       0.03920989 0.016757496 0.052518785 -0.018318458
0000c0 74 0e ac 3d 08 9e 53 3c 5b 83 2a bc a5 21 68 3d
       0.08401194 0.012916096 -0.010407294 0.05667271
0000d0 85 45 b9 3b 5b 44 7c 3d 5c 2b 2b 3d c9 59 07 3d
       0.0056540393 0.061588626 0.041789398 0.03304461
0000e0 6f 27 4c bd 27 e2 84 bd c0 4b bc ba 7e 79 15 bd
       -0.049842294 -0.06488448 -0.0014365837 -0.036492817
0000f0 d4 9e 55 3d 23 28 f0 3c 44 73 80 bc 1c 09 27 3c
       0.052153423 0.029316014 -0.015679963 0.010195043
000100 39 b9 85 3d 25 14 05 bd 1d c4 91 3d fd 83 f7 3c
       0.06529469 -0.032489914 0.07117484 0.030214304
000110 f3 bf f7 3c a4 b4 86 bb f6 df 96 bb de f2 4a bd
       0.030242896 -0.0041108895 -0.004604335 -0.049548022
000120 af 63 34 bd d1 1b 4e bd 16 81 3a 3c 5c b5 cf bb
       -0.04404038 -0.050319497 0.011383316 -0.0063387584
000130 b2 4d 7d 3d bf 84 6b 3d ff e2 c9 bc 0d 45 13 bc
       0.061841674 0.057499643 -0.024644373 -0.008988631
000140 24 ed 50 3d 1f a3 f3 3c c4 a7 2e bc da 5e 8a bc
       0.051007405 0.029740868 -0.010660116 -0.016890932
000150 3d ba 79 3d da 13 0a bd 85 56 a0 bc f3 f6 78 bd
       0.060968626 -0.03371034 -0.019572506 -0.060782384
000160 fe db 61 3d 2c e3 45 3d 8a cb e5 bc e3 df 4a 3d
       0.05514144 0.04831235 -0.028051157 0.04952992
000170 0a 2c 16 3d 02 ef 1a 3c 51 bc 89 bb b1 c2 69 3d
       0.036663093 0.009456398 -0.0042033573 0.057070438
000180 95 be db 3c 6a 06 89 bd b2 ae 91 3d a8 7f ce bc
       0.026824275 -0.066906765 0.071133986 -0.025207356
