crowd_nav/data/output-torch-1.7.0-converted/il_model.pth (torch, 392753 bytes, 20 tensors)

mlp1.0.weight f4 [150, 13]
00000000: 627c 0e3d cf2f 9c3e 348c cc3d dcdc 1bbe
00000010: 0d43 8cbe 029d 1b3e 5549 b3be 1e3a 8e3e
00000020: 60fa fa3d 64a7 13be b009 a73d e70b 40be
00000030: 906d 42be 0fab cf3d 986b 7a3d c384 013e
00000040: 78f7 1fbe 96ac 11be e0d4 8b3e 5481 72be
00000050: 7932 fcbd c859 7bbe 041f a3be 4640 623d
00000060: 2b41 0d3e cffc 67be f554 b7bd 0cf5 cc3d
00000070: 72a4 cd3c 182d 1c3e 7154 583e de9d f9bd
00000080: 7672 f5be b56c 953b 3569 cabe 0f59 d0bc
00000090: a516 9e3d 55c1 a93e a4a4 0ebe b057 83be
000000a0: c1a2 4bbe bc9e 753c 1096 743e d844 8c3e
000000b0: c8eb fe3d 06fc 873e 5fa3 35be e6c0 6c3e
000000c0: 6390 87bd 45d6 39be 1ef3 b93b 219a 07be
000000d0: 0806 8a3d 8d4d 003e 4614 4fbe 9170 9f3c
000000e0: df93 63be 75ce c7bd 1a77 77be 6d38 893e
000000f0: bdcf 0dbe b968 803e fd34 733e 7106 003e
00000100: 92fa f23d 35f2 33be cdea 423e 9447 22bc
00000110: 84ba b4bc e32d 563c 8469 1f3e 0087 4ebe
00000120: da75 213e 0f56 99bd bb18 583e 3c32 cd3c
00000130: 2189 4abe 0178 08bd 37a6 9aba 6392 27bd
00000140: fbc3 0d3e 6d1c 163e 1f3a 29bd c181 61be
00000150: 2139 333e d668 8ebe 0681 7abd 6956 ee3d
00000160: 6409 9dbd bad0 1d3d 5b12 88be c9dd d93c
00000170: 8983 dc3d 1d0a 5b3e f028 e4bd 4535 0fbd
00000180: 4722 503e 00a8 cfb9 b018 c3bc ac00 75be
00000190: 94be 2c3e 57c2 b23d b5d6 313e e371 843c
000001a0: 62db e0bc f19c 76be fc93 15be cdfa 303e
000001b0: 19f2 803e dbb3 9a3d d29f 2b3e 87bc 4cbe
000001c0: eda6 9d3d 9d64 2a3e bb91 f43d f577 62be
000001d0: 2bed ad3d 5f9e 8dbd e7c0 1dbe 466d a33d
000001e0: 1c10 fbbb 6772 533e 5982 2ebe fb55 863e
000001f0: 43c9 71bd bd23 8f3e 9eb5 10be 7cbb 0b3e
00000200: 574a 48be cbc5 473e 4d21 1b3e d1e3 00be
00000210: 360f 203e 595f 543d ee97 76be 6ad0 81be
00000220: 65ab 7ebe 3f66 ae3d 74ba 633e ecbd 76be
00000230: 3ede 653e 3398 673e 412d 8cbe 2d4b 163e
00000240: f199 95be b093 2cbe ef5e 033d da8e c1bd
00000250: 2e3a f03d 9efb 5fbe cdee 79bc 3d3c 5b3c
00000260: 5cdb 9c3e 0cbe 3e3c c103 1b3e e215 edbd
00000270: 701f 07bc 3c3e 7f3e 388e c8bb 1f06 a8bc
00000280: 4bc1 643d 90f3 b33d e6da 133e d091 1cbe
00000290: 97bb 513e 497b c73c f5dc 023d 7c42 5dbc
000002a0: 24b8 6fbe 2371 e43c aec5 e53d 43f8 5bbe
000002b0: 35e5 27be cf3d e83d c982 62be 99ee 62be
000002c0: 38c0 7b3e 1146 8a3d 4148 8c3e b104 503e
000002d0: e8eb 633e 4793 373e 7ac8 143e ca70 5f3e
000002e0: 4353 0abe d2fe f8bd 310b 42be 014f 93bd
000002f0: 17b1 b0bc 1537 293e ff38 2abe f321 94be
00000300: f669 8abe 7d4f 2bbe fcc6 313e 6c1e 833e
00000310: 5800 80be 1a71 c13d 60d2 4a3e 2943 18be
00000320: e71f c83e ddfb b93c 09d3 113e 107a b33e
00000330: e7dc 25bd 439d 35be dbb8 2bbe 1158 7dbd
00000340: 7ecd b93d 1e37 b6bb 61b0 0f3e 714e 333e
00000350: 6de0 14be 9740 a03d 849b 12bd 0baa 46be
00000360: bac1 473e 8026 073d 0106 0f3e 39f2 263e
00000370: 32bf 6fbe b5e5 b2bd 604b 053c 550a 37bd
00000380: 8ffa 623e 928b 2a3e a762 9d3d 0bd4 733e
00000390: 2bae 6bbe 123f 78bd a55f 03be 3b2e 7cbe
000003a0: be09 b9bd ac05 2fbe 42d4 1e3e 963c aebd
000003b0: 5c7a 803e f8c8 68be aad4 9cbe fd6a 503e
000003c0: 99d4 df3e d43e dabc b01f d4bd 491b 53be
000003d0: afac f03d afe7 51be 09a2 6abe 4174 f0bd
000003e0: 8633 babd 0e93 13be 7f7c 693e 1d9e 9cbc
000003f0: 558b f9bd 7ff8 f73d 5e84 8bbd 9218 80be
0.03478659 0.30505225 0.09987679 -0.1522097 -0.27394906 0.15196612 -0.35016885 0.27778715
0.122547865 -0.14419323 0.081561446 -0.1875454 -0.18987107 0.10140049 0.061137766 0.12648301
-0.15621746 -0.14225993 0.27310848 -0.23682147 -0.123143144 -0.24545968 -0.318596 0.055237077
0.13794391 -0.22655033 -0.08951751 0.100076765 0.025102828 0.15251577 0.21125962 -0.12188314
-0.4793889 0.004560078 -0.39533392 -0.025433091 0.07719163 0.33155313 -0.13929993 -0.25652838
-0.19886304 0.0149914585 0.2388537 0.27396274 0.124473155 0.26559466 -0.17738102 0.2312046
-0.066193365 -0.18148144 0.005674734 -0.1324239 0.067394316 0.12529583 -0.20222577 0.019462856
-0.22224377 -0.097561754 -0.24166527 0.26800862 -0.13848777 0.25079897 0.23750682 0.12502457
0.11864199 -0.17572863 0.19034882 -0.009904761 -0.022061594 0.013072464 0.15567595 -0.20168686
0.15767613 -0.074871175 0.21103184 0.025048368 -0.19778873 -0.03331757 -0.0011798803 -0.04091109
0.13844292 0.14659281 -0.041315194 -0.22022153 0.17502262 -0.27814358 -0.061158203 0.11637575
-0.07667807 0.038529135 -0.26576504 0.026595013 0.10767276 0.21390577 -0.11140621 -0.03496291
0.20325576 -0.00039607286 -0.023815483 -0.23926038 0.16869575 0.08728474 0.1736706 0.016167587
-0.02744836 -0.24083306 -0.14607233 0.17283173 0.25184706 0.07553836 0.16760185 -0.19993792
0.07697854 0.16639943 0.119418584 -0.22116072 0.08492502 -0.069149725 -0.15405618 0.07979827
-0.0076618325 0.2064911 -0.17041911 0.26237473 -0.05902983 0.27956954 -0.14131781 0.13645738
-0.19559608 0.19509046 0.15149422 -0.12586905 0.15630803 0.051848743 -0.24081394 -0.2535432
-0.2487007 0.08515596 0.22239095 -0.24095887 0.2244806 0.22616653 -0.27378276 0.14677115
-0.2921901 -0.16853213 0.032072958 -0.09451075 0.11729847 -0.21873328 -0.015254688 0.013381061
0.30636108 0.01164199 0.15138151 -0.115764394 -0.008247241 0.24926084 -0.0061204694 -0.020510731
0.0558484 0.0878669 0.14438972 -0.15289998 0.20481716 0.02435078 0.031949002 -0.013504621
-0.23410088 0.027885979 0.11219345 -0.21481423 -0.1639603 0.11339914 -0.22120203 -0.2216133
0.24585044 0.06751645 0.27398875 0.2031429 0.2225796 0.17927276 0.145296 0.2182037
-0.13508324 -0.12157978 -0.18949582 -0.07192803 -0.021568818 0.16524918 -0.16623305 -0.2893215
-0.27033967 -0.16729541 0.17361063 0.25609148 -0.25000262 0.094454005 0.19806814 -0.1486937
0.3908684 0.022703106 0.1424066 0.35054064 -0.040493872 -0.17735772 -0.16769736 -0.061851565
0.09072398 -0.0055607697 0.14032127 0.17510392 -0.14538737 0.078248195 -0.035792843 -0.19400804
0.19507495 0.0329957 0.13967134 0.16303338 -0.23412779 -0.087352194 0.008135647 -0.044687588
0.22165893 0.16654804 0.07684832 0.23811357 -0.23015659 -0.060607024 -0.12829454 -0.2462701
-0.09035061 -0.17092007 0.15510657 -0.085076496 0.25093353 -0.22732913 -0.30631 0.20353313
0.43716887 -0.026641287 -0.103576064 -0.20615877 0.11751687 -0.20498537 -0.22913374 -0.11740924
-0.090918586 -0.14411566 0.22801398 -0.019118363 -0.121847786 0.12107944 -0.068123564 -0.25018746

mlp1.0.bias f4 [150]
00000000: 67a9 6e3e 2a4c 433e dce6 3ebc 407e c83d
00000010: 9404 4b3c 7469 2f3e 788e a43d aa52 6b3d
00000020: 791d ed3d c02c c8bd 3a02 febc f38e 36bd
00000030: 4478 373e 921d 69bd 3a70 8d3e c1b8 b93c
00000040: daa7 fdbd b06f dd3c 04ed 82be 009b eebd
00000050: 3d0b 273e a749 a13d 0651 5a3e fea8 1c3e
00000060: 2cbd 16be 976e e0bc 331b c93d afa8 8abe
00000070: a44c e1bc 38d3 823e 8699 95be 9fe9 efbd
00000080: 8b3b c33d 1550 1dbe ee27 8abc dea9 8bbc
00000090: 01a0 0cbe 26b5 243e 7bf7 dabd e561 13be
000000a0: 20cf 6c3d 8a7f 62be e2bf 85be 04d5 11bc
000000b0: 8093 92be 2d69 073e e7d7 f8bd 6279 7dbe
000000c0: d456 8abe 73d7 9bbe 82bd 3b3e c890 703e
000000d0: 1573 173e 2b62 cfbd 9f1e b63d 55a3 b13d
000000e0: fdc5 2fbe 044c 8abe 7d50 81be e723 323d
000000f0: 4769 45be 9c09 893d adbb e43d 99ac 37be
00000100: e8fe 343d e413 0a3e 55fe e53d fceb 85be
00000110: d547 ea3d 0f0a 8f3e a2c5 4e3e dad2 3bbe
00000120: 732d a9bd b78e d7bd 6967 b53d e6f1 54bd
00000130: 6d84 113e 1979 95bc fece 3a3d e0ab 283e
00000140: ff82 30be c9e8 59be c221 873e 40cf 88bd
00000150: fe51 8d3e 1792 d63d e01d 573e 2d54 85be
00000160: f2ef 1ebe 5fdd 8abe bd51 5fbe d359 0e3e
00000170: 2640 8a3e fc3a fd3c b0bc 863e b14f 363e
00000180: a08c 873e 3bb6 92be 62a8 94bd 7759 113e
00000190: fec4 41be def8 1b3d 4a97 8dbe fa5c d53d
000001a0: 7153 94bc 6a30 683c 8a75 113d 3339 373e
000001b0: d6e7 c6bd f9c2 79bd e65a 89be c0e8 3d3e
000001c0: f0e2 7d3e 6e3b 683e c924 6bbe de53 493e
000001d0: 3c9f 333e 2258 98be cf24 4ebe f547 643e
000001e0: eec0 053d 1db7 ebbc 795b f9bd 528d 783e
000001f0: 5cf3 3fbe f3a7 e33d 5164 003e 44cc ffbd
00000200: e78e 0d3e 062a 153e da53 273e 3dbc d4bd
00000210: 73b5 24bd 67f9 76be 64db 883e 60bf 1e3d
00000220: 1551 c13d 802f 70be c104 33be 6e19 ee3c
00000230: 1260 fe3c 43d4 00be 85ef ed3d d3a1 633d
00000240: 5c0b 3d3d 3ac1 53bd 8ece 583e 2b92 d73d
00000250: f2e8 66be 6885 0e3c
0.2330681 0.19072023 -0.011651721 0.09789705 0.012391228 0.17130071 0.08034986 0.05745188
0.11577887 -0.097741604 -0.031006921 -0.04456992 0.17916971 -0.056912966 0.27624685 0.022671105
-0.12385531 0.027030796 -0.25571454 -0.11650658 0.16312881 0.07875376 0.2131997 0.1529884
-0.14720601 -0.027396483 0.09819641 -0.2708182 -0.027502365 0.25551772 -0.29218692 -0.117144816
0.09532841 -0.1536258 -0.016864743 -0.017048772 -0.13732912 0.16084728 -0.106917344 -0.14392813
0.057814717 -0.22118965 -0.26122957 -0.008900885 -0.2862816 0.13223715 -0.12150555 -0.24753335
-0.2701937 -0.30437812 0.1833401 0.2349273 0.14789994 -0.10126146 0.08892559 0.08673731
-0.1716537 -0.2701112 -0.2525672 0.04349127 -0.19278441 0.06691286 0.11168609 -0.17936935
0.04418841 0.1348415 0.112301506 -0.26156604 0.11439482 0.27937362 0.20192578 -0.18342152
-0.08260622 -0.105252676 0.088576145 -0.051988505 0.14210673 -0.01824622 0.04560756 0.16471815
-0.17237471 -0.21280207 0.26392943 -0.06680155 0.27601618 0.10477083 0.2100749 -0.26040784
-0.1552122 -0.27122018 -0.21808524 0.13901453 0.27002066 0.030911915 0.26315832 0.17803837
0.26474476 -0.28654656 -0.07258679 0.14194284 -0.18922803 0.038079135 -0.27654487 0.104181245
-0.018106194 0.014171699 0.035512485 0.17892914 -0.09712188 -0.060976956 -0.26827163 0.18545818
0.24793601 0.2267892 -0.22963251 0.19660899 0.17541212 -0.2975474 -0.20131229 0.22293074
0.032654695 -0.028773839 -0.1217565 0.2427266 -0.18745178 0.11116018 0.12538268 -0.124901325
0.13824044 0.14566812 0.1634058 -0.10387466 -0.040212106 -0.24118577 0.26729882 0.03875673
0.09439293 -0.2345562 -0.17482282 0.02906486 0.03105167 -0.12580971 0.1161795 0.05557425
0.04615341 -0.051697947 0.21172544 0.10525926 -0.22549799 0.008698799

mlp1.2.weight f4 [100, 150]
00000000: deb5 8a3d 3e19 da3c e9f1 c8bc 3a62 733d
00000010: 6084 89bc a235 393d a988 a93b a69f 96bd
00000020: ba5a 783d 5f03 973c 0bd6 34bd 9270 c73c
00000030: 61cf 6abd 59c3 c7bc 70b5 56bd ed98 d93d
00000040: 65e7 0d3c 5ffc 453c 3c32 d0bd fa8a 933d
00000050: 9696 283d 25fd 9bbc 312a 5dbd baae 2bbd
00000060: f22d f03b 45c4 04bd 563a b93c eb68 f83c
00000070: 6146 853c 3e95 3fbc 91e9 353d 1751 89bd
00000080: 7930 ca3d 2ced 1bbd 428a ccbc ca63 7d3d
00000090: cad4 cc3d f99d 373d 68d3 81bd a766 a3bd
000000a0: 7d81 04bc c12b cbbd 3c17 0d3c eea9 93bd
000000b0: 0fc2 f7bc 7eba afbb 936a 64bd db35 6d3d
000000c0: a512 11bc d49a e9bc ae9f 87bc 595e b8bc
000000d0: e6ae a6bc e711 1ebd 0e5c 4e3d dc84 86bd
000000e0: 6e99 963a 5fbe 54bd b27a 9bbc 129a 3f3d
000000f0: a3f8 5b3d b3ec 78bd 48f7 52bd acce 5fbd
00000100: 9d39 0cbd 0596 5a3c 550d 393b a067 363d
00000110: ec68 5abd 7ecc ef3c 53ca 83ba 5240 403d
00000120: f89c a6bd b2a6 3dbd 7bb8 1fbd 41f7 af3d
00000130: 40c8 df3c 2b4b febd 69c1 05bd 0960 5a3d
00000140: 208b 23bd 282f dbbc 1a48 733d 9a78 943d
00000150: c105 26be 1895 a23d 194f c8bd 933e 0b3d
00000160: ad60 d7bc 9b47 0abc 7844 3cbd c063 6c3d
00000170: 32d9 793d efc8 463c 932b c63c 8e68 af3c
00000180: 9d32 34bd 3f71 79bc 8d37 ba3c 21c8 6f3d
00000190: 281c 5dbd 5854 843d 2708 6abc 6987 143c
000001a0: 5473 443c 21a0 e6bd d215 a13d f765 883d
000001b0: 5415 7c3b 23d7 42bb 9455 7abd 723d 293b
000001c0: a49c 783d d155 f73b 910a acbc c3fa 87bd
000001d0: be68 8fbd eadf 143c 97a0 8a3d 3029 b93c
000001e0: d6c2 8b3c cb42 debc 10b5 a5bd bd05 053d
000001f0: 65a1 a1bd e3b1 3739 83a0 97bc 7804 f13d
00000200: 9bdd 97bd 8174 4ebd 024b 89bb f505 eebc
00000210: 1c2e 7e3d 474a 82bd 61ea 973d 67fa 963c
00000220: 320b 92bd 1094 bcbd 7c0a cb3d 42f0 12bd
00000230: 4fe0 3bbd 0e6c 543d 903a b93d b4d2 693d
00000240: 59fc dfbb 972f 803d 17ca 893d 1455 d8bd
00000250: a555 77bd db77 a53d 55de 813c b306 c9bd
00000260: b8ae babd bb84 e93c 2ee0 973d 8ff3 07bd
00000270: 8fbc 98bd ef1a 44bd aa63 64bd d2ff 5bbd
00000280: 37c8 643d 8972 b13d e258 18bd c217 4dbd
00000290: dd3d 913a 8516 4cbd 7533 8c3d 07c3 823d
000002a0: c302 243c 4ef0 8c3d 0f85 ed3b a8e3 163d
000002b0: 5ee0 283d 45b4 4dbc f78c 243c b0e5 313d
000002c0: 20cd cb3d fd80 8a3d 27b1 7cbd 3ebd 613d
000002d0: 0e51 ebb8 3eb3 9dbb 56e7 23bd 1a62 83bd
000002e0: fd33 f1bc 38f4 683d ca6f b73d 517f ae3c
000002f0: 74a4 5e3d 6ebd 693c 515d 7bbd d87f 22bd
00000300: 4c55 13bd ff46 84bc 8be5 233d 1796 8bbc
00000310: cb46 23bd e850 a3bd 098c b03d 6d2c 2c3d
00000320: f429 a23d 260d 02bd b0e8 903d 5a84 953b
00000330: 08cb fcbc 93e1 393d aca2 0d3c 25c7 69bd
00000340: 7ca4 c93b b6c5 b43d 3658 bcbc a72c 243c
00000350: 67de 2cbd e8e0 d33c 6752 923d a250 85bd
00000360: 537e 0a3d 1d39 113d bad8 fb3c 5b5c a9bd
00000370: 50ad 09bc fc02 10bd 9852 483d 5cdd 3a3d
00000380: 97fe 2b3d c032 debc 3076 c1bd 13d1 253d
00000390: 69bc a8bc ec42 cb3d 00ea 96bd 596c 92bd
000003a0: 50b3 37bd 997d 4bbd 7c62 513d f34a db3c
000003b0: 8820 77bd 7070 003d dfbc 8bbb e762 d7bc
000003c0: 80fa 88bd 8277 3cbc f2da b1bd 8066 5dbc
000003d0: 635a a0bd 9b21 553d 61c2 dbbc 3166 133c
000003e0: 92e1 933c 79e3 48bc 0c2f 973c cf2b 853d
000003f0: b24d 673d d8f9 25bd f23c 8ebd 6c55 a4bc
0.0677297 0.026623365 -0.024529414 0.059419848 -0.016786754 0.045217164 0.005173762 -0.07354669
0.0606334 0.018434225 -0.04414944 0.02434567 -0.05732668 -0.024385141 -0.052419126 0.106248714
0.008661126 0.012084096 -0.101658314 0.07204242 0.041159235 -0.019041607 -0.053995315 -0.04191468
0.007329696 -0.03241374 0.022610825 0.030323466 0.01626891 -0.011693297 0.0444122 -0.0670492
0.09872527 -0.03806798 -0.02496827 0.061862744 0.10001524 0.04482839 -0.06339151 -0.07978564
-0.008087513 -0.09920455 0.008611497 -0.07210146 -0.030243902 -0.005362808 -0.0557657 0.05791269
-0.008854543 -0.02851621 -0.016555633 -0.022505926 -0.02034707 -0.03859129 0.05038076 -0.0656831
0.0011489817 -0.051939365 -0.018979404 0.046777792 0.053703915 -0.06077261 -0.051505357 -0.054640457
-0.03423463 0.0133414315 0.0028236706 0.04453242 -0.053322718 0.029272314 -0.0010054804 0.04693634
-0.08135408 -0.04630155 -0.038994294 0.08592082 0.027317166 -0.12416681 -0.032655153 0.053314243
-0.0399276 -0.026755884 0.059394933 0.072495654 -0.16213132 0.079385936 -0.09780712 0.033995222
-0.026291216 -0.008439924 -0.045963734 0.057712317 0.06099815 0.012132867 0.0241907 0.02141216
-0.04399358 -0.015224754 0.022731567 0.058540467 -0.05398193 0.064614 -0.01428417 0.009065487
0.011990387 -0.11261011 0.0786549 0.06660073 0.003846486 -0.0029730282 -0.06111677 0.0025823978
0.06069626 0.007548072 -0.021001132 -0.06639626 -0.070024 0.009086588 0.06768911 0.022602648
0.017060678 -0.027131459 -0.080911756 0.032476176 -0.07892112 0.00017518508 -0.018509155 0.117684305
-0.07415315 -0.050404076 -0.00418985 -0.029055575 0.062055692 -0.063618235 0.07417751 0.018429948
-0.071310416 -0.09207928 0.09914109 -0.03587366 -0.045868214 0.05186086 0.09044373 0.057085708
-0.006835502 0.06259077 0.06727999 -0.10563102 -0.06038441 0.08079501 0.015853086 -0.09815731
-0.09115356 0.028505674 0.07415806 -0.03319126 -0.0745784 -0.04787725 -0.05575911 -0.053710766
0.055855002 0.08664424 -0.03719414 -0.050071485 0.0011081059 -0.049826164 0.06845752 0.06384855
0.010010424 0.06881772 0.007248528 0.036838204 0.0412296 -0.012555187 0.010043374 0.043431938
0.09951234 0.06762884 -0.061692383 0.055112116 -0.00011220771 -0.004812627 -0.04001554 -0.06415196
-0.029443735 0.05687353 0.08956869 0.021300944 0.054356053 0.014266355 -0.06136829 -0.039672703
-0.035970017 -0.016147135 0.04001383 -0.017039342 -0.039862435 -0.07974416 0.086204596 0.042034555
0.07918158 -0.03175082 0.070756316 0.0045628967 -0.030858532 0.04538114 0.008644741 -0.057074685
0.0061536413 0.08826773 -0.022991281 0.010020412 -0.042204287 0.02586408 0.07144623 -0.0650952
0.03381188 0.035454858 0.030742992 -0.082695685 -0.008403137 -0.035159096 0.048906893 0.04562126
0.041990843 -0.027123809 -0.094463706 0.04048259 -0.020597653 0.09924874 -0.07368851 -0.07149572
-0.04484874 -0.049680326 0.051119313 0.026769137 -0.06033376 0.03135723 -0.0042644585 -0.026292278
-0.06688404 -0.011503102 -0.08684339 -0.013513207 -0.0782974 0.052034 -0.026826086 0.008996532
0.018051896 -0.012261265 0.01845505 0.065024965 0.05647058 -0.040521473 -0.06945218 -0.020060264

mlp1.2.bias f4 [100]
00000000: 949e a1bd 3ebe 7e3c ee55 9dbd 35da 44bd
00000010: 0729 823b 1145 053d 346a 81bd 01c4 0e3d
00000020: a534 40bc 609e debc 7936 8fbd b303 a7bd
00000030: fb85 06bd 06f0 2b3c 42d5 873d 5c12 f53c
00000040: 9e50 f43c 207a b8bc d1e7 313d d68a 80bc
00000050: 6391 d63d f21d 283d b5ea 60bd e09b d8bc
00000060: bed1 e83c 4d9d 413d f5ce c23c 1a7b bd3d
00000070: 9e30 5ebd 4c87 973c ca13 a3bc e1e3 433c
00000080: b12b 74bd 79fc 6cbd d93b 473c 6f4f f43d
00000090: d279 513d b50a 0abd 1521 853d 62fc 8bbd
000000a0: bf6a 5e3d 610c 56bd d851 b83c 2474 633c
000000b0: 611d 02be ca5a 5ebd ecde 513b f851 a23a
000000c0: 21b9 8c3d 70a8 abbd 968e c23d 1710 8dbc
000000d0: 324e 42bd e811 0bbd d03e 903d 6331 283d
000000e0: 7067 04bd 8993 a8bd 2e66 7dbd b057 a5bb
000000f0: c966 bcbd b382 47bd 6762 233d b43d 083d
00000100: d549 3ebd 4d66 813d 442c 33bd cc4e 9d3d
00000110: 4959 ed3c 0447 4dbd a762 3c3c 9ee5 de3c
00000120: b95f 50bd 28b5 e43c c6a2 40bd e8b0 a2bd
00000130: 5ec4 9dbd cad8 8cbd 712b a8bc 7918 d7bc
00000140: 520f 86bd 4bfa 8a3d 19fd b4bc c7ea 253c
00000150: b474 633d df99 823d 5fe6 a23d dec2 c5bd
00000160: 8f3e 613d 247a 4d3d 22de 9e3c 49ce 95bb
00000170: a595 553d ea35 ae3b eb65 79bd 9ba7 503d
00000180: 1b86 213d fe75 313d 5cab db3d 3cbd 9a3d
-0.078915745 0.015548287 -0.076824054 -0.04805966 0.003972176 0.03253657 -0.06319085 0.034854893
-0.011731301 -0.027175128 -0.06992812 -0.081550024 -0.032842617 0.010494238 0.066324726 0.029915981
0.029823598 -0.022519171 0.043433968 -0.015691202 0.10476949 0.041044183 -0.054911334 -0.026441514
0.028420325 0.047269154 0.023780325 0.092519954 -0.054245584 0.018497132 -0.019906897 0.011956186
-0.05961198 -0.057857964 0.012160265 0.11929213 0.051141568 -0.033701617 0.065004505 -0.068352476
0.05430102 -0.0522579 0.022499964 0.013882671 -0.1270652 -0.054285802 0.003202374 0.0012384048
0.06871248 -0.08381736 0.09499852 -0.017219586 -0.047437854 -0.033952624 0.070432305 0.041062724
-0.03232521 -0.08231265 -0.061865024 -0.0050458536 -0.09199292 -0.04870863 0.039888766 0.03326197
-0.04645713 0.063183405 -0.043743387 0.07681045 0.028973239 -0.050116554 0.01149813 0.0272091
-0.05087254 0.027918413 -0.047030233 -0.079438984 -0.0770347 -0.06877287 -0.020528527 -0.026256787
-0.06545891 0.06786021 -0.022093343 0.010126776 0.05553122 0.06377005 0.07954096 -0.096563086
0.0549913 0.05016531 0.01939303 -0.0045717102 0.052144665 0.0053164857 -0.060888212 0.05094109
0.039434534 0.043325417 0.107260436 0.07555625

mlp2.0.weight f4 [100, 100]
00000000: 8912 96bc b20f 663d 350a 9b3d ed3b b6bc
00000010: c425 babd 264d c6bd 9386 c3bd 58f6 28bd
00000020: f961 47bd 27db d2bd 6a49 7f3d 56d6 c83c
00000030: c793 8e3d ad73 fe3c be9d 3f3d 725e 823d
00000040: 5b1c 3b3d 7855 9b3d 29af 9c39 7a6b a33b
00000050: 7633 5a3d 6fad e93d a800 273c 26ef d5bc
00000060: 1fc9 b43d 058c 2e3b 5029 5b3d 8a31 e0bc
00000070: 6621 58bd f93d a1bd 9366 e3bd 01a2 3fbd
00000080: 8235 063e de54 2c3d 32be 313d b723 dc3d
00000090: 55c2 5cbc 46ba a6bd 911e afbd b58a 9bbc
000000a0: e2de 60bc 4bfc bc3d 1943 3d3d 6dab 85bd
000000b0: ad12 bc3c 0908 b8bd 2a5d 8fbd 3411 89bd
000000c0: f881 8b3d 1434 9c3d a80b 383c 47a5 883d
000000d0: 3fcf 593c bb14 de3b 6d77 43bd 449e ca3c
000000e0: 48dd 16bd 356e 153d 69c6 cf3d 8772 94bd
000000f0: f078 9d3d d757 c53d ea64 afbc 58e7 8cbd
00000100: 472c eebd f6de 5cbb a471 3c3d bf4d 8cbb
00000110: abb5 353d 5594 c7bd 335e c2bd 19df a6bb
00000120: 2759 86bc 981e 90bd db77 e93c 5d4f e93d
00000130: 1f3b 633d a55d 633d a7dd 443d 5de4 803c
00000140: 0cb4 943d 4a63 85bc 9109 893d 4a77 9e3d
00000150: 641a 733d f64b 32bd 2a03 053d 12b1 c8bc
00000160: 296a 033d 5c31 a7bd 6875 103d 8d16 09bd
00000170: 3b21 8c3d b7d4 cf3c 97c5 d6bd 38e5 d2bc
00000180: 62c8 c43d 2549 823c d902 9cbd 634f c63d
00000190: 86f6 1bba 8eb9 973d f851 6c3d b233 c53b
000001a0: f237 c9bd 65c7 f8bb 2f94 efbc c0c3 b5bd
000001b0: fd14 cabd 87ac 8fbd c731 e6bc b887 cabd
000001c0: 2a4f d13d a092 3c3d 6159 843d 771d 14bc
000001d0: 7443 a5bd 0fe0 0a3b 8d44 4c3c 80d5 9bbd
000001e0: a36d 0e3d c495 c33d 154c 983d 0d0f 413a
000001f0: 7b75 403b 0899 9b3c e8f9 82bc 432f 9dbd
00000200: 3d8f 06bd 843f b13d 5028 ab3d f585 84bd
00000210: d255 b33d e827 a1bd 13d8 263c 602d 36bd
00000220: c252 b43d a17a 19bd 471a 563d b42c 923d
00000230: 5fe2 08bd f6c5 22bd 184b 9dbd b6bf 73bd
00000240: f23c efbc 9205 a33c 84aa b8bd ed56 9b3d
00000250: c900 06bd e6a4 72bd 5418 8ebc c708 8c3d
00000260: a3c6 aabd 4a89 4e3d 09ae f83c 7535 bfbd
00000270: 0f70 49bc 28f5 c03d 0405 d0ba 414b 883c
00000280: b37c 9bbd 6f5d bdbd b919 a73d 5979 58bd
00000290: 9dcb 43bc 7d1a f83c 7fb1 2a3d 62d9 69bc
000002a0: a279 4bbc 06c4 a6bd baf8 b1bd 236e a0bd
000002b0: e0e1 d93b 373e 53bd 4f6a 19bd ae9b fc3d
000002c0: 121c 063e 29de 09bd 4e95 b2bd 52a4 88bd
000002d0: e090 983d 1bd1 dc3d 5c0b 98bd b9a6 aebc
000002e0: 0d5d 5cbd 4338 a93d 29cc be3c 6df7 bfb9
000002f0: abab a03c dde8 523d 2bf9 f63c 4b5c a13d
00000300: 7850 dc3c ad68 ba3b ea64 b8bd 735e 043d
00000310: b10b 473d f510 8a3d 2f76 e6bd 4c2f 8b3d
00000320: a6db 823d a740 26bd 6528 ff3c e564 7a3d
00000330: 41f9 05bd f5e9 d2bc 1308 45bd 6fe2 b43d
00000340: 6800 e83b 8673 fab9 2a9a a8bd 91a7 95bc
00000350: 24cb 9cbd f422 013d c6e2 3f3d 8179 a23d
00000360: 76f8 d8bd 7582 e13c e787 00bd 9038 613d
00000370: 0874 56bc 629c 9cbd 0287 db3d a53c 88bd
00000380: f2a8 ae3d 4f4a 993d ae23 ac3d 9a3c 8f3d
00000390: eb0b 71ba 67e8 4d3d 48a0 493d ba36 603d
000003a0: 8fec 9ebd 8c3e cc3c e5f7 c9bd 59d6 8dbd
000003b0: 629f 49bd 891d ccbd 37b4 bd3a 8c37 8f3d
000003c0: 4e81 7f3a 1972 a93d 9f89 d43c 6895 9ebd
000003d0: 357a c2bd dafb 1abc cd9c d4bc 63c8 223c
000003e0: 1df9 26bd 4c2c 683d 32b5 babd 237b 653d
000003f0: e3d2 2a3d cd22 633d 6d82 dfbc a4b8 9c3d
-0.018319385 0.056167312 0.07570306 -0.022245372 -0.090892345 -0.09682684 -0.09547152 -0.041250557
-0.04867742 -0.10295706 0.062325872 0.024516266 0.0696178 0.031061018 0.046781294 0.0636567
0.04568134 0.07584661 0.00029885143 0.0049871774 0.053271733 0.11410033 0.010193028 -0.026115011
0.08827423 0.002663375 0.053506196 -0.027367372 -0.052766226 -0.078731485 -0.11103549 -0.04678536
0.13106349 0.042073123 0.043394275 0.107489996 -0.013474067 -0.081409976 -0.08550752 -0.01898704
-0.013725014 0.092278086 0.046206567 -0.065268375 0.022958124 -0.089859076 -0.070001915 -0.06692734
0.06811899 0.076271206 0.011233248 0.06672149 0.01329404 0.0067773736 -0.047721315 0.02473367
-0.036832124 0.036482055 0.101452656 -0.07248407 0.076890826 0.09635895 -0.021410424 -0.06880063
-0.11629539 -0.003370223 0.046006814 -0.004281729 0.044362705 -0.09745089 -0.09490623 -0.0050925133
-0.016399933 -0.07037085 0.028499534 0.113920905 0.055476304 0.05550923 0.048062947 0.015733892
0.07260904 -0.016282696 0.06691278 0.07737596 0.05935134 -0.043529473 0.03247372 -0.024498496
0.032083664 -0.081637114 0.035268217 -0.03346877 0.06842276 0.025369985 -0.10486906 -0.025744066
0.096085325 0.015904019 -0.07617731 0.096831106 -0.00059495156 0.074084386 0.05769536 0.0060181255
-0.09825124 -0.007592129 -0.029245464 -0.08875227 -0.098672844 -0.07015329 -0.028099908 -0.098891675
0.102201775 0.04603827 0.0646236 -0.009040228 -0.08069506 0.0021190678 0.012467516 -0.07609081
0.034772526 0.0955005 0.074363865 0.00073646085 0.0029366899 0.01899387 -0.015988305 -0.0767503
-0.032851446 0.08654693 0.083572984 -0.06470863 0.08756603 -0.0786894 0.010183352 -0.044476867
0.08804847 -0.037470464 0.052271154 0.07137433 -0.03341901 -0.03973957 -0.076803386 -0.059509
-0.029203866 0.019900117 -0.09016898 0.07584939 -0.032715593 -0.05923929 -0.017345585 0.06837612
-0.08338668 0.050423898 0.030356424 -0.09336368 -0.012294783 0.0942176 -0.0015870635 0.016637446
-0.07592144 -0.09246337 0.08159203 -0.0528501 -0.011950401 0.030286068 0.04167318 -0.0142730195
-0.012419136 -0.08142857 -0.08690019 -0.07833507 0.006649241 -0.051573005 -0.0374549 0.12334381
0.13096645 -0.033659134 -0.08719884 -0.066719666 0.07449508 0.10782071 -0.07424042 -0.021319734
-0.053799678 0.08262684 0.02329071 -0.00036614705 0.019613108 0.051491607 0.03014811 0.078789316
0.02689384 0.005688748 -0.09003623 0.032316636 0.048595134 0.067415155 -0.112530105 0.067961305
0.06389551 -0.040589 0.031147191 0.061131377 -0.03270841 -0.025746325 -0.048103403 0.08832251
0.0070801266 -0.00047769787 -0.082325295 -0.018268378 -0.076559335 0.031527475 0.046847127 0.07933331
-0.10594265 0.027528027 -0.031379607 0.054985583 -0.013089187 -0.07647015 0.1071911 -0.06652192
0.085283175 0.07484876 0.08405243 0.06993981 -0.00091951963 0.050270464 0.04922512 0.05473969
-0.07759964 0.024932168 -0.09861735 -0.06925649 -0.049224265 -0.09966571 0.0014473264 0.069930166
0.0009746746 0.082737155 0.02594453 -0.07743341 -0.094959654 -0.00945946 -0.025953675 0.009935471
-0.040764917 0.05668287 -0.091165915 0.056025635 0.041705023 0.05545311 -0.027283872 0.07652405

mlp2.0.bias f4 [100]
00000000: b5cb 70bd ad47 13bd b1f1 f83d 81fe 04bd
00000010: 5f62 43bc badd f83d 5ec4 bebd 3d59 b5bd
00000020: 6ff6 7ebd b13f 2e3e 8881 1f3c 88fb 423d
00000030: 95f2 fb3d 11c9 e83c 1c79 3f3c c43c a53d
00000040: 07f5 b03c 0186 f03d 5c4d 9ebc cc06 1c3d
00000050: e36e 573d 2637 ca3c 6a96 99bd 779c 16bd
00000060: ec15 273d 07f7 97bd 8120 0cbd 9231 793d
00000070: 4e33 7bbd 5568 373e 61a8 c8bd d427 b53c
00000080: 0251 6f3c c21d ac3b 73d3 ffbc cef6 563d
00000090: e7f9 f13c 4a51 893c df10 0d3d c074 883c
000000a0: 98ae 93bd 1037 9a3d 301d ae3d 8ea8 43bd
000000b0: 8f94 d5bd 9bae c43d b25e c8bc de3c c73d
000000c0: 2a4f 813c 230f 05bc 8d34 d2bc ae6d 3b3d
000000d0: 28c1 dd3d 5344 053e b21a 4ebc 238f 9c3d
000000e0: c624 aa3c ff3a 09bd 3973 f4bc f82c a03c
000000f0: 7ddd 6f3d 87eb 633d 17e2 54bd 1e69 2e3c
00000100: dcc1 293a 84f4 aabd 27bf 813d 602b b5bd
00000110: 63e4 b7bd 2a95 9cbc 1385 1dbd ce6c 30bd
00000120: 364c 99bc d654 2abc 6388 99bd 8c5a 04bd
00000130: 2aa1 c4bc 803d 9abd 3e88 5fbc 1c85 3bbd
00000140: 3434 ae3d 66d8 1e3d 69c6 103d a036 7ebd
00000150: c249 9dbc 2dde e93c 0941 913c 9672 f73d
00000160: 70df 713a b977 4f3c 5c8f 9a3d d9e2 b6bd
00000170: c97c 5a3d b4c9 f83d 4968 513d 97c6 693d
00000180: 064c 483d 0ecb a3bd f155 53bd 15a1 aa3d
-0.05878802 -0.035957027 0.12155474 -0.032469276 -0.011925309 0.12151666 -0.09314798 -0.088549115
-0.062246736 0.17016484 0.0097354725 0.04760316 0.12302128 0.028416188 0.01168659 0.08068231
0.021601213 0.11744309 -0.019323997 0.03809242 0.052595984 0.0246845 -0.07499392 -0.03677031
0.04079239 -0.074201636 -0.034210686 0.06083829 -0.061328225 0.17910893 -0.09797741 0.022113718
0.014606716 0.005252571 -0.031228757 0.052481465 0.029538108 0.016762394 0.034439918 0.016657233
-0.072110355 0.075300336 0.08501661 -0.04776817 -0.10428726 0.09603616 -0.024459217 0.09728406
0.015784819 -0.008121285 -0.025659824 0.045758896 0.10827857 0.13014345 -0.012579607 0.07644489
0.020769488 -0.03350353 -0.029840099 0.019552693 0.058560837 0.05564454 -0.05197343 0.010645179
0.00064757257 -0.08347419 0.063352875 -0.08846164 -0.08979108 -0.019114096 -0.038456988 -0.043072514
-0.018713098 -0.010396203 -0.07496717 -0.032312915 -0.02400263 -0.075312614 -0.0136433225 -0.04578124
0.08506051 0.038780592 0.03534547 -0.062063813 -0.01920021 0.028548324 0.017731206 0.120824024
0.0009226715 0.012662821 0.07546875 -0.089299865 0.05334166 0.12147847 0.051124845 0.057074156
0.048900627 -0.07997714 -0.051595632 0.08331505

mlp2.2.weight f4 [50, 100]
00000000: 3c23 88bb 2ea3 1e3d 5dc8 38bd f493 903d
00000010: f5c9 c4bd 8160 923d 4b92 c5bd b88e 853d
00000020: f702 7bbd 48f2 43bc e60b 163d ecd5 1e3d
00000030: 023e abbd 02f2 d83c 7823 b1bd 57dd c83c
00000040: 8822 8f3d 2166 153d 74de 843d 2d87 c8bd
00000050: ec89 733d 25e3 e4bc f694 853c 895d 0ebd
00000060: 4e18 bc3d 2384 b43d 246e 78bd f031 1cbc
00000070: c632 a73d d890 f03d d804 ca3d a745 bcbd
00000080: 38dd 02bd 605c 7fbd 2948 cf3d e1b5 033d
00000090: 206a d83c 1fab 43bd 7a31 8c3c d28b bd3d
000000a0: 66f3 db3c c66e 9a3d bb71 21bd a49b 813d
000000b0: 1a6f 763c 6083 76bd f835 cf3d 07d6 8bbc
000000c0: f00d 8abd e854 393d 8134 b8bd e692 5f3d
000000d0: af3a 4ebd cb2f 02bd 2727 25bd c64a 983d
000000e0: 11e8 ffb9 6a27 a33a c1e9 d83d c70d 323d
000000f0: 73ae cabc f782 c8bd 80a1 5d3d aaf6 9d3d
00000100: 84fe abbd e60a b53d 88d2 eabd 0afe cc3d
00000110: d9fc 813c 9ee9 be3d 5887 0c3b 4b52 9fbd
00000120: 4d04 363a 524e 4d3d 1a6f a3bc 6922 aa3d
00000130: e51e ae3d dff6 95bd 6ce3 abbb fe3d c5bd
00000140: 20a8 203d e513 aabd 4980 c9ba 6649 62bc
00000150: 8302 1d3d 792a 46bd ee22 e5bc 6534 b8bc
00000160: cdc8 093d ed66 bc3d 1175 603d f7a0 c53d
00000170: e693 20bc 8b33 ec3d c773 c73d 638d b33c
00000180: 3ac5 3ebd 772f 35bd 29dd 6b3d 1fdd 153d
00000190: abac 92bd 0507 2ebd 00f5 aa3d 8df1 06bd
000001a0: 44df 84bd dec6 313d a85f 943d 0e50 bcbd
000001b0: ba1c 83bd 59ad b73d b457 c83d 6a15 15bd
000001c0: b5ca 11bd f625 ca3d 9d8f e9bd 2c38 12bd
000001d0: 218b 7c3c 2f22 923d e069 ffbc 29f7 4bbb
000001e0: 433b cd3c 49d8 ed3c 8441 9bbd 0995 893d
000001f0: 1539 333d b9b6 723d 0dfe bc3d f963 4abc
00000200: abb7 9b3d f65b 633d 5ac0 6f3d 9404 e33b
00000210: a3eb 783d 1447 353d 1658 93bd 209b e13b
00000220: 0bae 55bd 1f8e 99bd 4426 34bd 0d2a 45bd
00000230: 269a 293d 7255 ba3b dc60 a4bc 3d2f aa3d
00000240: 85de 9fbd 7d38 adbc 6011 e73d 8902 863d
00000250: f983 33bd bf87 9e3c ec99 bfbc 5f47 eabd
00000260: da0a 67bd 3279 903d 761e c7bd 160e ecbd
00000270: a47f a23d a33f 883d 6cb5 3fbd e75d 8cbc
00000280: 60a2 9ebc 68d4 75bd ff12 8abd 7593 a8bd
00000290: 883f 1dbd 7143 753d 65ef f5bb eb50 b9bd
000002a0: eb4e 41bd 798b 2ebd 96b6 923d d6ee b1bd
000002b0: b786 623c cbc9 dc3d 1269 fdbc 212c 7d3d
000002c0: ff84 c13c 5303 a33d ac53 643d 82d3 493d
000002d0: 036b dbbd a1e3 e3bd 3582 91bd 2df0 84bd
000002e0: c9f2 883d 13f3 823d a4fb 7537 562e 76bd
000002f0: e253 8cbd 3151 b13d 1208 063c 4a9f 66bd
00000300: 7fac 0bbd ce5f b23d 8e7f 7f3d d0a7 bcba
00000310: eacb f23d 22bc b1bd a0d6 b33c 5239 503c
00000320: 1500 943d 48ae a23b bd81 373d 0d28 143b
00000330: 1af5 bfbb 4864 a93d c133 973d fd27 5bbd
00000340: a1e4 bf3b 2c89 103e edf0 95bd 9aef 2e3d
00000350: 8971 0d3c fb88 af3c 4921 54bc 687f 723c
00000360: b834 6fbc dd13 81bd 8779 c1bd 611d 24bc
00000370: c325 73bc 29b3 3dbd a141 86bd 4931 903c
00000380: f38e d03a 2825 a8bc 1ecd e53c 3e9f 9ebd
00000390: 801d 283d c755 163e e0db cb3d 2daa 253c
000003a0: d645 b23d 55a6 5abd 22d3 d7bc 795f dd3d
000003b0: 31ac 66bc 69f4 d03c cd80 d6bd cf70 9e3d
000003c0: c58e a6bc 6dc1 a1bd 335c e53b 97c0 bd3d
000003d0: a603 21bb 672e abbd d114 da3c 0fd2 89bc
000003e0: 7970 c6bd f1cd 31bc fd9f e33b 8d45 1a3d
000003f0: dc52 22bd 4084 923d b698 9dbd 9d62 9cbd
-0.004154591 0.03872984 -0.045112956 0.0705947 -0.09608833 0.07147313 -0.09647044 0.06521362
-0.061282124 -0.01195962 0.03663244 0.03877823 -0.083614364 0.026482586 -0.08649343 0.024519606
0.06989008 0.03647435 0.06487742 -0.09791408 0.059457704 -0.027940342 0.016306382 -0.03475717
0.09184323 0.088142656 -0.060651913 -0.00953339 0.08163981 0.11746377 0.09864205 -0.09192973
-0.031949252 -0.062343955 0.10121185 0.032155875 0.026417792 -0.047770616 0.017113436 0.09255184
0.02684946 0.075406596 -0.039415102 0.06328514 0.015041137 -0.060183883 0.101177156 -0.01706983
-0.067409396 0.04524699 -0.08994389 0.054583453 -0.050348934 -0.03178386 -0.04032054 0.07436137
-0.00048810293 0.0012447659 0.1059146 0.04347017 -0.024741387 -0.097906046 0.054109097 0.07713063
-0.083981544 0.08839969 -0.11465937 0.100093916 0.015867637 0.09321903 0.0021442976 -0.07779368
0.000694339 0.05012352 -0.019950438 0.083073445 0.085019864 -0.073224775 -0.0052456167 -0.09630965
0.039222836 -0.08304576 -0.0015373315 -0.013811445 0.038332473 -0.04838035 -0.027970757 -0.022485921
0.033638764 0.09199319 0.054799143 0.09649842 -0.009800887 0.115332685 0.0973888 0.021918004
-0.04657481 -0.04423472 0.05758396 0.03658783 -0.0716184 -0.042487163 0.08347511 -0.032945205
-0.06487897 0.043402545 0.072448075 -0.09194957 -0.064019635 0.0896861 0.09782353 -0.036397375
-0.035593707 0.09870522 -0.11404345 -0.0356981 0.01541403 0.07135426 -0.031178415 -0.003112266
0.025052672 0.029033797 -0.075808555 0.06717879 0.04375561 0.05925629 0.09228144 -0.012352937
0.07603391 0.055507623 0.05853305 0.006928036 0.060771596 0.04425724 -0.071945354 0.0068849474
-0.052167933 -0.074978106 -0.043981805 -0.048135806 0.041406773 0.0056864554 -0.020065717 0.08309791
-0.07806114 -0.0211451 0.11282611 0.06543452 -0.04382703 0.019351838 -0.023388825 -0.11439394
-0.056406833 0.07054366 -0.09722607 -0.11526124 0.07934502 0.06652763 -0.046803877 -0.01713462
-0.019364536 -0.06001702 -0.067419045 -0.0823125 -0.038390666 0.05987877 -0.0075053447 -0.09048637
-0.047194403 -0.04261348 0.07163732 -0.086881325 0.013826064 0.107806765 -0.03093389 0.061809663
0.023622988 0.079596184 0.05574386 0.049273975 -0.1071377 -0.11127401 -0.07104913 -0.064911224
0.066869326 0.06394019 1.4661728e-05 -0.060102783 -0.06851937 0.08658064 0.008180635 -0.056304254
-0.034100052 0.087096795 0.062377505 -0.0014393274 0.118553 -0.086784616 0.021952927 0.012708979
0.07226578 0.0049646236 0.044801462 0.002260688 -0.005858076 0.0827108 0.07382918 -0.053504933
0.005856112 0.14114827 -0.073213436 0.04270897 0.008633026 0.021427622 -0.012947389 0.014800884
-0.0145999715 -0.06302617 -0.094470076 -0.01001677 -0.014840546 -0.04631344 -0.065554865 0.017601626
0.0015911743 -0.02052553 0.028051909 -0.07745217 0.04104376 0.14681159 0.09954047 0.010111374
0.087047264 -0.053381283 -0.026345793 0.108092256 -0.01407914 0.025507169 -0.104737855 0.0773636
-0.02033175 -0.07898221 0.0069995164 0.09265249 -0.0024568825 -0.0835846 0.026621254 -0.016823797
-0.09689421 -0.010852323 0.0069465623 0.037663985 -0.039629802 0.07154131 -0.07695143 -0.076359965

mlp2.2.bias f4 [50]
00000000: cb2b 093d b878 15bd c1a6 9bbd 9fec a2bc
00000010: 04f0 adbc e3be c43d 21c5 eebc 7f0a 7d3a
00000020: 62f2 6bbc c9d5 863d 071d 36bd 928c 21bd
00000030: 0c2c 36bd 98d4 e13d 8da1 883d ca83 903c
00000040: b84d 88bc 7133 593c 930a 7d3d 8008 5abc
00000050: f449 bfbb 4919 8abd c7e0 1bbd c8f8 dd3c
00000060: c04d a63d 459c 563c 419f acbd 01da 163d
00000070: 33f9 b0bd 2d10 ec3d 7027 603d 278a 1c3e
00000080: 1d89 a43c c166 65ba c6b4 1b3d a342 82bd
00000090: f419 58bd 3400 8fbc 3cfd 1cbd 376b 2abd
000000a0: 84bf 28bc bc11 b037 7ce5 a53c 0042 2b3c
000000b0: 282c 8bbc f12d a6b9 e71a 70bd 0f30 84bd
000000c0: 7ae9 023a 18b0 b03c
0.03348903 -0.03649208 -0.07600165 -0.01988822 -0.021232612 0.09606721 -0.029146733 0.0009652748
-0.01440105 0.06583745 -0.044461276 -0.0394407 -0.0444756 0.11026877 0.06671438 0.017640967
-0.016638622 0.0132568935 0.061777662 -0.013307691 -0.0058376733 -0.06743104 -0.03805616 0.027096167
0.081202984 0.013098781 -0.08428813 0.036829 -0.08641281 0.11526523 0.05472511 0.15287076
0.020084912 -0.0008750968 0.038014196 -0.06360366 -0.052759126 -0.017456152 -0.03832744 -0.041606154
-0.010299567 2.0989093e-05 0.020251028 0.010452747 -0.016988829 -0.00031696216 -0.058619406 -0.06454479
0.0004993897 0.021568343

attention.0.weight f4 [100, 200]
00000000: eda7 8dbd 8503 373d cada 5b3b 4ec2 14bd
00000010: a973 c2bc cb0d 393c ad05 edbb beae b1bc
00000020: ea85 a73c a156 b5bc 75a6 7fbd 37f0 89bd
00000030: 0d94 463d 3288 223d 5a9b fcbc 547d 663d
00000040: c750 123d d561 cebc 3c44 c03c 1d84 283d
00000050: cef8 b7bc 87c9 0a3c 7bff 80bc 8e66 ff3c
00000060: 03ba 73bd f50f bdbb 2374 76bd cd1c 623d
00000070: 458a 7abd d85d 1ebd 866f 9dbc 5aa4 f83c
00000080: f75b 943d 0e64 23bd 8f01 533c 4c63 79bd
00000090: 7422 883d f720 6b3d ea04 b2bc 12f9 f33c
000000a0: 845a 17bd dbf5 f83c 604f 81bd bb97 0a3d
000000b0: b47f 53bd b495 933c 462f 763d 54c0 393d
000000c0: b280 f23c a936 833d a2d9 3c3c 3d65 58bc
000000d0: 39c6 82bd 47ac 32bd db36 593d 70e4 b5bc
000000e0: d4b0 2abc 18e8 5dbd 5136 083d 406b b2b9
000000f0: 7ede 4ebd 68b5 803d 86e7 3c3d 9adb d8bc
00000100: e95e 8abc bdb3 18bd 8af5 43bd 63da 0bbd
00000110: 9327 e83c 52b5 e3bb 7297 8d39 33e1 41bd
00000120: 4240 96bd 63c0 20bd 45ce c7bc cfaf 9bbc
00000130: 33a0 273d 9094 533c c7ba bc3c f36c a93b
00000140: 3720 4b3d f4cc 253c fdf2 5d3d a413 3cbd
00000150: e7b0 893d 766a 24bd 0d95 e43c c400 953d
00000160: aeec 42bb 3187 563d 7a3f 323d a272 ef3c
00000170: a8e6 963d 967b da3c f64b 02bd 8c25 163d
00000180: e7da 2ebd a5a6 82bc 219e 423d 528c 2fbd
00000190: 3823 8f3d e134 81bd 9473 103d 5aaa 213b
000001a0: 80a0 113d f494 22bd 3ce2 1fbd 17ed ea3c
000001b0: 91c3 66bd 1427 343d f384 083d e846 2c3d
000001c0: 7b6c 683c 15b0 293c ed5f a03c ae9d 14bd
000001d0: 0d95 34bd 7c64 da3c 52fe 6e3d 5531 013d
000001e0: f8e0 733d 03b4 b43b 80e2 373d 3bf8 553d
000001f0: e44f 5c3d 92d1 2cbd 4e90 73bd 05b5 663d
00000200: dc49 473c e255 84bc bcee 953c 6834 be3b
00000210: 05b8 55bd 1319 6dbd af39 e73c 597a aa3c
00000220: eca6 763c 9c3f 353d 88ca 9ebc 8ac4 d4bc
00000230: f9c2 8b3c 0e52 89bc 542b 423d 0628 e3bb
00000240: b0fa 933c 8d3c 2c3d a34d 28bc c482 00bd
00000250: 67e1 06bd 5471 2fbb dc59 8ebd 385d 4f3d
00000260: afc1 d9bc 4ac5 f8bc 2750 68bc 4157 dcbc
00000270: 2d12 413d 5b18 023c 943f 853c 52c7 8bbc
00000280: d240 603d 3e2c 1bbd b4ea 0bbc 82bf dfbc
00000290: c8e6 58bd 3d7a 17bd 26bd 113d bf97 f2bb
000002a0: 4e37 36bd 9bbe 693d 3399 8d3c 8b61 b13c
000002b0: d6c1 173d a3c5 903d d8da ed3c 1de7 313d
000002c0: 89fa 2d3c 8d1b 7cbd d2b4 053d 86bf 96bc
000002d0: 8ccc 453d f00a b63c 906c e7ba bd34 83bd
000002e0: ad93 923c d551 523d 3a18 78bc 3e2f 7ebd
000002f0: 349e 39bd 8885 39bd 3749 67bd fcdd 133d
00000300: 2f8e bdbc 706e 2a3d c5db 21bd 3da6 b6bc
00000310: f972 833d 6f45 56bc 5e4d 083d 7068 ddbc
00000320: 324d a33b 82bc 80bd 5579 3dbd 4e46 133d
00000330: 4fdd d0bc 07d9 1c3d 5e55 9a3d ccef 813d
00000340: bec2 06bd 5125 f9bc 9026 dbbc 43ca 013d
00000350: 10e5 4e3c b506 bd3c 6aa8 79bd 3ecf 2bbb
00000360: f149 983d d9a8 5d3c fdda 11bd a528 823b
00000370: 5121 39bd d928 b23c 6177 92bd d7f8 5f3d
00000380: 02a9 283d a316 b6bc 8d9a 7bbc 5435 633d
00000390: 1e2c 28bd 5fb6 bbbc 1b0e 243d b5cf 82bd
000003a0: 5e49 7c3d e539 b23c fad5 fa3b 1b27 49bd
000003b0: 971b 9bbc 679d 113d 288c 5939 48ff 013d
000003c0: d053 d2bc 782e a8bc 82d5 363d 82c7 6abc
000003d0: 3d1f 013d 3f29 2f3c 9576 233d 8608 f1bc
000003e0: 927b 7f3d 6b42 0ebd 7ce6 1fbd 869e 3f3b
000003f0: 9c4d 54bd 78e6 463d 9c08 85bc d116 f0bc
-0.06916795 0.04468109 0.0033547156 -0.036318116 -0.023736792 0.011294792 -0.0072333426 -0.021689769
0.020449597 -0.022136034 -0.062414605 -0.067352705 0.048481036 0.039680667 -0.030835796 0.056271866
0.035721567 -0.025193134 0.023470037 0.041141618 -0.022457507 0.008470899 -0.015746823 0.031176832
-0.059503566 -0.0057697245 -0.06016935 0.055203248 -0.06116702 -0.038663715 -0.019218218 0.030351806
0.072441034 -0.03989034 0.01287879 -0.060885713 0.066471964 0.057404485 -0.021730859 0.029781852
-0.036951557 0.03039067 -0.06313968 0.033836108 -0.05163546 0.01801572 0.060103677 0.045349434
0.029602382 0.0640691 0.011526497 -0.013207731 -0.06385464 -0.043621328 0.05303083 -0.022203654
-0.010418136 -0.05417642 0.033254925 -0.00034030713 -0.050505154 0.062846005 0.046119235 -0.026471902
-0.01689096 -0.037280787 -0.047841586 -0.034143817 0.028339183 -0.0069491053 0.0002700645 -0.047333907
-0.07336475 -0.039245974 -0.02439035 -0.01900473 0.040924262 0.012913838 0.023038281 0.0051704585
0.04959127 0.010119665 0.05418681 -0.04591717 0.067231946 -0.04014059 0.027903104 0.07275537
-0.0029743123 0.052375022 0.043517567 0.029229466 0.07368213 0.026670258 -0.031810723 0.0366569
-0.04268923 -0.015948603 0.047514085 -0.04285843 0.06989139 -0.06308914 0.035266474 0.0024668188
0.035553455 -0.039692834 -0.039034113 0.028677506 -0.05633885 0.04398258 0.033329915 0.04205981
0.01418602 0.010356923 0.019576991 -0.036283188 -0.04408746 0.026659243 0.058348008 0.031541187
0.05954072 0.005514623 0.04489374 0.052238684 0.053787127 -0.04219205 -0.05946379 0.056324977
0.012163606 -0.016154233 0.018302314 0.005804587 -0.052177448 -0.05788524 0.028225748 0.020810293
0.015054446 0.044250116 -0.019383684 -0.025972623 0.017060744 -0.01676276 0.047404602 -0.0069322614
0.018063873 0.042049933 -0.010272416 -0.031374708 -0.032929804 -0.002677043 -0.06950733 0.05062601
-0.026581613 -0.030367512 -0.014179266 -0.026897075 0.047136474 0.007940377 0.016265668 -0.017062817
0.054749317 -0.03788399 -0.008539844 -0.027312998 -0.052954465 -0.03698181 0.035580777 -0.0074033435
-0.044486336 0.05706654 0.017284965 0.021652957 0.03705009 0.07068946 0.029035017 0.043433297
0.010618814 -0.061549712 0.032643147 -0.018401872 0.048290774 0.022222012 -0.0017656256 -0.064065434
0.017892683 0.051347572 -0.015142495 -0.062056772 -0.04531689 -0.04529336 -0.056466307 0.036100373
-0.023139087 0.041609228 -0.03951623 -0.022296065 0.06418414 -0.013078078 0.033276908 -0.027027339
0.0049835676 -0.06285955 -0.04625829 0.03595572 -0.025496153 0.03829291 0.07535814 0.06344566
-0.032900564 -0.030413302 -0.026751786 0.031687032 0.012627855 0.023074487 -0.060951628 -0.0026216055
0.07435978 0.013529026 -0.035609234 0.0039721304 -0.04519779 0.021747993 -0.07151676 0.05468067
0.041176803 -0.02222759 -0.015356672 0.05547078 -0.0410577 -0.02291411 0.040052515 -0.06387273
0.061593406 0.021756122 0.0076549025 -0.04910956 -0.018934054 0.0355505 0.00020746945 0.031737596
-0.02567473 -0.02052997 0.04463721 -0.014329793 0.03152393 0.010690986 0.03990801 -0.02942301
0.062373705 -0.03473131 -0.039038166 0.0029238774 -0.051831827 0.048559636 -0.016239457 -0.029307755

attention.0.bias f4 [100]
00000000: afcd 263b a7cb e33a 4676 71bd 1193 993a
00000010: c2d2 733d 6141 20bd 359b 65bd 8afe aabc
00000020: 437b 233d 724a 4a3d 2286 92bd 6b91 1bbd
00000030: 8540 5fbd 632a 403c e8c9 55bd dcba 3dbd
00000040: 4588 38bd c0b8 68bc 5b51 413c 996b 25bd
00000050: a6be 023d 1a88 3abd 2d63 ecbb d82a 893c
00000060: 414e aabb e635 ac3d f96d 87bb 0a5b 79bb
00000070: 3055 7f3c 9900 453d b2bc 8f3d 754d 823d
00000080: 3e25 a1bc 5924 113c b997 66bd 2fe9 513d
00000090: 7adf d8bc 6248 6c3d 839f 2cbd 6fa2 6d3d
000000a0: 3489 2ebd dcc1 483c b748 aabc 3e79 413d
000000b0: 495e b5bc 2ba3 473d 97a9 32bd 01fd 7c3d
000000c0: 3b5c 20bb a1bd 6fbc 1588 d53b a35e 3abd
000000d0: 72e1 15bc b8ff 7e3c da31 11bc 84e8 853c
000000e0: 99b1 af3c 4061 3ebc 521b e5bc e567 7b3c
000000f0: 9acb 44bd c0ae d1bc fb9b 93bd ee2a a2bc
00000100: 23bb 473a 704b 603b 1690 913c 4668 df3c
00000110: 05c2 d6bc c883 5bbb 6dec 8ebc 8396 47bd
00000120: f07d 073d 5e5e 693d 12f7 68bc 4ed9 90bb
00000130: 0192 8dbb 63df 46bd 1b90 7a3d dc26 b93c
00000140: 3a8b 323d 7217 323d c479 c83c b2dc 863c
00000150: dfd8 33bd 85ae 90bc 53ed 363d 6f97 13bb
00000160: 6a31 c33b e47a 683d f54d 2d3d c6fd 9a3c
00000170: d5ae 65bc c682 763d 4c2f d63c 7c65 31bb
00000180: 2f5d 933d 6654 e5bc 22f2 10bc 136b 313b
0.0025452187 0.0017379419 -0.058950685 0.0011716803 0.059527166 -0.03912485 -0.05605622 -0.020873327
0.039912473 0.049387403 -0.0715449 -0.03798048 -0.05450489 0.011728856 -0.052194506 -0.04632078
-0.04505183 -0.014204204 0.011799182 -0.040385816 0.031920098 -0.045539953 -0.007213971 0.016744062
-0.005197317 0.08408718 -0.004132983 -0.0038048648 0.015584275 0.048096273 0.07018413 0.0636243
-0.019671079 0.008858764 -0.056297038 0.05124777 -0.02647375 0.057686217 -0.04214431 0.058016237
-0.042611316 0.012253251 -0.020786626 0.047234766 -0.022139685 0.048739593 -0.043618765 0.06176472
-0.0024469036 -0.014632613 0.0065164664 -0.04550041 -0.009147989 0.015563898 -0.008861983 0.016346224
0.02144699 -0.011619866 -0.027967129 0.015344595 -0.048045732 -0.025596023 -0.07207485 -0.019795861
0.0007619133 0.0034224652 0.0177689 0.027271401 -0.026215563 -0.0033495296 -0.017446721 -0.048727524
0.033079088 0.05697476 -0.014219062 -0.004420436 -0.0043203835 -0.048552882 0.061172586 0.022601537
0.043589808 0.04347939 0.024472125 0.016462658 -0.043907996 -0.017661342 0.044659924 -0.0022520681
0.0059568183 0.056757823 0.042310674 0.018919837 -0.014018734 0.06018331 0.0261456 -0.0027068546
0.07195508 -0.027994346 -0.008846791 0.0027071878

attention.2.weight f4 [100, 100]
00000000: e373 aabd cff5 61bd 3447 31bd 8445 aabc
00000010: 2d3b 083d 1706 9c3d b01e b5bd 74a0 c3bd
00000020: e7dc 233b 82bb c6bc 0dbd a33d e2db 74bd
00000030: 475c 303d 8638 bd3c da59 36bc 30e0 723d
00000040: 8d8e 343c 411b a13d f0a7 2ebd c609 823d
00000050: d4e1 ba3d 74ac 693d f72b 853d 4ed3 aa3c
00000060: 996b cf3c 4b82 05bd b547 cbbd ff91 e5bc
00000070: a54d 4dbd b94e 7b3d 4c7e e33c b2e3 c43d
00000080: e0b0 f9bb e7f3 7a3d 50b7 aa3d 2ba6 a1bd
00000090: 4d16 b83d 5f3d 2b3d 847b 3abd bbd5 eabc
000000a0: b317 8fbd acaf b43d 9cb5 a33d 501f 0d3d
000000b0: 0bb3 46bd d60e 823d 1ed3 1a3c 2613 b9bd
000000c0: 91fa 323b c5b0 b53b 64e1 a2bd 70b9 87bd
000000d0: 106d 23bd 336a 14bd b4c9 5fbd e4cd b63c
000000e0: d11e bbbc f74a 8abd c904 a9bd 1efe 95bd
000000f0: 6f43 2abd b1b7 adbb 5f89 8ebc 80d9 b1bc
00000100: 954c c73d 80a0 bc3d 0a4d e33c 2574 02bd
00000110: 7aea 6c3d 4ce9 773b af5b 863c 5778 323d
00000120: 4616 8f3d 804a 8a3d 98bf ab3d 593c 533c
00000130: 5ee8 31bd f5b1 b73d 2e85 4eba ac04 53bc
00000140: 4830 b4bd 33aa b43c f242 2ebd f595 933d
00000150: d371 93bc 3857 09bd 68bb 1a3c 35e7 78bc
00000160: c5cc db3b a847 15bd fbd4 58bd 1ba6 90bc
00000170: b593 8c3c 1b64 c6bd 9beb de3c c699 973d
00000180: 6437 573d 8989 ab3d 6255 a53d 634a 88bd
00000190: 7887 e83c 3732 d33d 5d44 843d 6747 393b
000001a0: 51f1 bdbd e15e 92b9 f5b0 1cbd fbb5 ca3d
000001b0: 21a1 693d 26b2 41bd 79f2 a8bd 892c bfbd
000001c0: c9fc 703d f515 a83d 8224 f0bc 5eab ecbc
000001d0: da21 adbd 929c fd3c 9a9b b53d 176a bcbd
000001e0: f625 803c 0437 22bd 1576 42bd e8e4 bc3c
000001f0: 9a80 9ebd 5093 b03d b913 4e3c 60d9 05bd
00000200: 77d3 3b3d 5d10 d5bc fd5c b93d 8495 8ebb
00000210: 0c49 c63d 3ac3 923d dbc4 a2bd de44 75bc
00000220: be95 1abd c017 bebd f66e 42bc fbdc 2dbd
00000230: 2b23 d13c 1e3b 07bc c929 ba3d 53eb 853c
00000240: e102 a13d 02e8 973d ead2 ce3d 15e9 afbd
00000250: f4c7 b33d 878b ce3d 6a58 7a3d 0f49 253b
00000260: 6561 a6bc dc81 87bc 69b6 34bd f51c 993d
00000270: 38d8 d93b 8b39 8abd 2f29 a6bd 768c 1abc
00000280: 5e01 a1bd 965b c1bd 5e93 11bd 892f 173d
00000290: f80d dc3c 9ad6 883d baa5 28bd 3844 bb3d
000002a0: 3e1b 9b3a c12b 843d f961 f2bb 92d7 063a
000002b0: 2497 60bd 5faf 55bd f1ea 113c 1a72 c93d
000002c0: 6951 a8bd 74d9 253d e84a adbd 58e9 473c
000002d0: ebcf 883d a3bb 18bc 4a68 27bd 1c8a 3e3d
000002e0: 9bcf 053d 14aa 90bd 58db 313b a60e e1bc
000002f0: 9018 653d 9b12 b63d 52b4 b7bc b955 4dbd
00000300: ad1b b0bd d704 0bbd c82a dfbc 494a b2bd
00000310: dab2 91bc 0dd7 a6bb b9c5 b4bd a71f 88bd
00000320: aa1e c2bc 4403 f93b b8dc a73c 671d 6fbd
00000330: ca40 bebd 7029 62bc 46c2 c13a e02a b93d
00000340: 50fc 5a3d e908 b6bd e3e8 6bbd ee98 ae3c
00000350: 5278 ef3c 236b a4bd da28 8cbd 4cc2 ffbc
00000360: bd3c a1bd 96b2 ae3d 2700 98bd c569 f53c
00000370: 0926 403d 1d19 963c 751c a33d c1af 943d
00000380: 8326 973d 070d 5cbd 1684 923d 6bab 843d
00000390: d4e4 bfbd 5d23 84bd 6630 2b3b dbf2 963c
000003a0: e2a9 9739 494d 4ebd 4a26 9c3d f072 aabc
000003b0: da53 19bd d36b 81bc 20e4 ad3d 398b 443d
000003c0: c6ab cfbb c041 c83d f31e a7bd 6bc6 86bd
000003d0: 2e4e a23d bdc7 a23d e23f 27bb 424e b73c
000003e0: e094 cabd 6f69 2cbc f13f 8cbd 6145 e8bc
000003f0: 3599 b3bd a29c 2b3d ba9f cd3c 8f9e 9dbd
-0.08322885 -0.055166062 -0.043280795 -0.0207851 0.03325956 0.07618349 -0.08843744 -0.095520884
0.0025003494 -0.024259333 0.07995043 -0.05978001 0.043056753 0.023098242 -0.011129821 0.059295833
0.011020315 0.078665264 -0.042640626 0.063495204 0.091251045 0.05704923 0.06502526 0.020852711
0.025319861 -0.03259496 -0.099257864 -0.028023718 -0.050122876 0.061354373 0.027770184 0.09613742
-0.007619962 0.06126776 0.08335745 -0.07893022 0.089886285 0.041806575 -0.04552795 -0.028666368
-0.06986942 0.08822569 0.079936236 0.03445369 -0.048510592 0.06350486 0.009449748 -0.090368554
0.0027309994 0.005544754 -0.07953146 -0.06627166 -0.039898932 -0.036234092 -0.05463572 0.022314973
-0.022841843 -0.0675258 -0.08252866 -0.0732386 -0.041568216 -0.0053014387 -0.017399488 -0.021710157
0.09731404 0.092103004 0.027746696 -0.031849045 0.0578408 0.0037828265 0.01640114 0.043571796
0.0698667 0.06752491 0.08386153 0.012892806 -0.043434493 0.089694895 -0.00078781217 -0.012879532
-0.087982714 0.022053814 -0.042544313 0.072063364 -0.017998612 -0.033530444 0.009444095 -0.015191843
0.00670776 -0.03644529 -0.05293749 -0.01765733 0.017160276 -0.09687062 0.027211955 0.07402377
0.05254306 0.08375842 0.08072926 -0.06654813 0.028384909 0.10312312 0.06458352 0.002827132
-0.09274543 -0.0002791798 -0.038254697 0.09897991 0.05703843 -0.047289036 -0.08249373 -0.09334666
0.058834825 0.08207313 -0.029314283 -0.028890308 -0.08453722 0.030958448 0.08867569 -0.091999225
0.015643101 -0.03960325 -0.047475893 0.02305837 -0.077393726 0.08621848 0.012577944 -0.032678008
0.045855965 -0.02600878 0.09050939 -0.0043513197 0.09681901 0.07166143 -0.079477035 -0.0149700325
-0.03774046 -0.09281874 -0.011867275 -0.04244707 0.025529465 -0.008253841 0.09090001 0.016347563
0.07861877 0.07417299 0.100988224 -0.08589379 0.087783724 0.100852065 0.061119474 0.0025220548
-0.020310113 -0.016541414 -0.044119272 0.07476226 0.0066480897 -0.06749257 -0.08113324 -0.009432903
-0.07861589 -0.09441297 -0.03554093 0.036910567 0.02686213 0.06681557 -0.041173674 0.09143871
0.001183368 0.06453658 -0.007396933 0.0005143817 -0.05483164 -0.0521692 0.008906112 0.09836216
-0.08218653 0.040490583 -0.08461553 0.01220163 0.06680282 -0.00932208 -0.040870942 0.04651843
0.03266869 -0.0706369 0.0027138796 -0.027472805 0.055931628 0.088902675 -0.02242485 -0.05013058
-0.08599029 -0.033940163 -0.02724208 -0.08705575 -0.017785478 -0.005091554 -0.08826775 -0.06646662
-0.023696262 0.0075992662 0.02049099 -0.05837765 -0.09289701 -0.013803825 0.001478263 0.09041381
0.05346328 -0.08888418 -0.057595145 0.021313157 0.029232178 -0.08028247 -0.06843729 -0.031220578
-0.07872913 0.08530156 -0.07421904 0.029957661 0.046911273 0.018322522 0.07964412 0.07260085
0.073803924 -0.05372336 0.071541 0.06478008 -0.093698174 -0.064520575 0.0026121377 0.01842635
0.00028927537 -0.050366674 0.076244906 -0.02080676 -0.037433483 -0.015798485 0.08490777 0.047984336
-0.0063376157 0.09778166 -0.081602 -0.06580814 0.07925068 0.07948253 -0.0025520255 0.022376183
-0.09891677 -0.010523184 -0.06848133 -0.028353395 -0.08769456 0.041897424 0.025100578 -0.07696258
