crowd_nav/data/output-torch-1.7.0-converted/rl_model.pth (torch_old, 389084 bytes, 20 tensors)

mlp1.0.weight f4 [150, 13]
0.04253002 0.31568316 0.09987679 -0.14901789 -0.28067136 0.13026924 -0.33965254 0.26891303
0.10426015 -0.16147797 0.084748715 -0.2479056 -0.18349661 0.12576357 0.06651508 0.12648301
-0.15460208 -0.15926437 0.22852162 -0.2446122 -0.13673598 -0.2503482 -0.33094665 0.056849066
0.15134172 -0.22332294 -0.058589417 0.08669736 0.025102828 0.14849876 0.07661918 -0.08820358
-0.5434964 -0.02857271 -0.44520283 -0.0073795496 0.07317944 0.34576195 -0.14732426 -0.25765985
-0.1977282 0.0149914585 0.23856445 0.27652812 0.1227761 0.27007523 -0.17572092 0.2326829
-0.06625677 -0.18177068 0.007929758 -0.13180575 0.08156582 0.13749036 -0.20222577 0.023122247
-0.23315966 -0.07857482 -0.24657765 0.30822402 -0.15926391 0.2606001 0.24116808 0.120029606
0.1259572 -0.17513187 0.18955046 -0.009904761 -0.022214241 0.010641093 0.15650608 -0.20419432
0.15914667 -0.07462581 0.20989266 0.02489572 -0.19606596 -0.033622865 -0.06766055 -0.05861889
0.13844292 0.14136085 -0.039058924 -0.20993802 0.15906517 -0.29802322 -0.048335392 0.124334686
-0.08199074 0.030374486 -0.27622896 0.04209958 0.10547919 0.21390577 -0.1120628 -0.039602377
0.19595127 -0.001037818 -0.022475323 -0.23300435 0.15658773 0.08662815 0.2065753 0.014853426
-0.05048472 -0.24517363 -0.14607233 0.17132223 0.24766558 0.07703173 0.17262492 -0.19262393
0.07726851 0.1692049 0.1181021 -0.22635755 0.08232218 -0.06541572 -0.15127231 0.07979827
-0.0068869106 0.20905471 -0.17146976 0.26586768 -0.06529165 0.2798887 -0.14310989 0.13733822
-0.18973924 0.196939 0.15126854 -0.13238609 0.15630803 0.04989431 -0.24131939 -0.2531281
-0.27272263 0.0867212 0.21622743 -0.24443339 0.22252531 0.21495743 -0.27769333 0.14076889
-0.3021326 -0.16853213 0.02909439 -0.08831945 0.119842425 -0.23359537 -0.016848153 0.0052100015
0.31230205 0.0086624725 0.13766038 -0.12172594 0.008407772 0.25682536 -0.0061204694 -0.018248187
0.058248688 0.09601551 0.1491734 -0.15275148 0.20608386 0.023932409 0.03421282 -0.022811674
-0.22956753 -0.0020202033 0.108333535 -0.21481423 -0.16511896 0.11155972 -0.18010603 -0.21564181
0.28765744 0.07911912 0.29505816 0.20198423 0.25177047 0.17696458 0.14058092 0.22188015
-0.13508324 -0.120476454 -0.19109567 -0.093436345 -0.0036540932 0.167691 -0.17332329 -0.29725745
-0.26921907 -0.1775197 0.17581731 0.25731257 -0.26139385 0.094454005 0.19464704 -0.13582471
0.37076315 0.032129373 0.17509986 0.3512115 -0.0496841 -0.18077882 -0.19321649 -0.06868956
0.09189546 -0.0030307195 0.14032127 0.17586142 -0.14303523 0.07060594 -0.05172004 -0.19773665
0.19362834 0.028841801 0.14042884 0.17873928 -0.23261088 -0.07240461 0.010081251 -0.044687588
0.22222707 0.17133701 0.076513946 0.24156874 -0.24334022 -0.062885955 -0.12290414 -0.24570197
-0.08275346 -0.16975856 0.19709855 -0.07979712 0.25093353 -0.22574547 -0.29127565 0.21275535
0.45702168 -0.015278424 -0.06331439 -0.19406721 0.11909921 -0.12114927 -0.22596902 -0.11744326
-0.09096834 -0.14411566 0.22801386 -0.019106708 -0.121830046 0.12080616 -0.068017125 -0.25018746
00000000: f533 2e3d 39a1 a13e 348c cc3d 2598 18be
00000010: 28b4 8fbe 4d65 053e f0e6 adbe f8ae 893e
00000020: 5886 d53d 7b5a 25be bc90 ad3d f7da 7dbe
00000030: 89e6 3bbe 2ac8 003e 0f39 883d c384 013e
00000040: 0250 1ebe 3316 23be 9201 6a3e 9f7b 7abe
00000050: 8404 0cbe a42d 80be d771 a9be 91da 683d
00000060: 53f9 1a3e c5ae 64be 75fb 6fbd 638e b13d
00000070: 72a4 cd3c 0f10 183e 84ea 9c3d 14a4 b4bd
00000080: 9422 0bbf 5111 eabc a0f1 e3be 26d0 f1bb
00000090: 1adf 953d b607 b13e 2cdc 16be feeb 83be
000000a0: 4379 4abe bc9e 753c 3d4a 743e 1895 8d3e
000000b0: 0972 fb3d 4d47 8a3e 2ff0 33be 6d44 6e3e
000000c0: a1b1 87bd 1822 3abe d1eb 013c 16f8 06be
000000d0: fb0b a73d 46ca 0c3e 4614 4fbe de6a bd3c
000000e0: 68c1 6ebe d6eb a0bd da7e 7cbe 8acf 9d3e
000000f0: 1416 23be 606d 853e c4f4 763e 15d2 f53d
00000100: edfa 003e c555 33be 8419 423e 9447 22bc
00000110: a4fa b5bc fb57 2e3c 2143 203e 5118 51be
00000120: 58f7 223e 6bd5 98bd 1aee 563e 1cf2 cb3c
00000130: 84c5 48be 21b8 09bd 9d91 8abd 5c1a 70bd
00000140: fbc3 0d3e e6c0 103e 40fc 1fbd fef9 56be
00000150: fbe1 223e 8096 98be 55fb 45bd 2fa3 fe3d
00000160: c3ea a7bd ead3 f83c e26d 8dbe 9c70 2c3d
00000170: 7905 d83d 1d0a 5b3e 2e81 e5bd 1a36 22bd
00000180: 73a7 483e 6507 88ba 2b1e b8bc b198 6ebe
00000190: 8958 203e 196a b13d 7a88 533e c95b 733c
000001a0: 11c9 4ebd cc0e 7bbe fc93 15be 186f 2f3e
000001b0: 0c9c 7d3e d0c2 9d3d 96c4 303e 353f 45be
000001c0: f43e 9e3d 0d44 2d3e 84df f13d 46ca 67be
000001d0: 8898 a83d adf8 85bd 21e7 1abe 466d a33d
000001e0: 98ab e1bb 7012 563e c595 2fbe cf1f 883e
000001f0: a1b7 85bd 924d 8f3e 668b 12be 64a2 0c3e
00000200: 014b 42be 61aa 493e 24e6 1a3e 3890 07be
00000210: 360f 203e fa5d 4c3d 6e1c 77be 029a 81be
00000220: 4da2 8bbe e29a b13d b96a 5d3e bf4c 7abe
00000230: addd 633e cd1d 5c3e d22d 8ebe b825 103e
00000240: 20b1 9abe b093 2cbe 5c57 ee3c d4e0 b4bd
00000250: f26f f53d a033 6fbe 2305 8abc a9b8 aa3b
00000260: 0ee6 9f3e 0bed 0d3c d8f6 0c3e 734b f9bd
00000270: c0c0 093c 9d7e 833e 388e c8bb 397d 95bc
00000280: 2d96 6e3d c8a3 c43d e9c0 183e e26a 1cbe
00000290: a607 533e e60d c43c be22 0c3d 8cdf babc
000002a0: c013 6bbe 6365 04bb f9dd dd3d 43f8 5bbe
000002b0: f214 29be 6c79 e43d b76d 38be 35d1 5cbe
000002c0: d647 933e 3509 a23d dd11 973e f4d4 4e3e
000002d0: 0fe8 803e 3436 353e 72f4 0f3e 8d34 633e
000002e0: 4353 0abe 5cbc f6bd 95ae 43be 8e5b bfbd
000002f0: 8379 6fbb 31b7 2b3e a97b 31be 2132 98be
00000300: 15d7 89be b9c7 35be 7409 343e 79be 833e
00000310: 6ad5 85be 1a71 c13d 8e51 473e a215 0bbe
00000320: abd4 bd3e 179a 033d 614d 333e fed1 b33e
00000330: 8e81 4bbd 151e 39be 8bda 45be 1dad 8cbd
00000340: b033 bc3d 099f 46bb 61b0 0f3e 0415 343e
00000350: d477 12be d999 903d 65d8 53bd 7a7b 4abe
00000360: 8246 463e a445 ec3c 94cc 0f3e 6e07 373e
00000370: 8c31 6ebe de48 94bd d52b 253c 550a 37bd
00000380: 7e8f 633e f872 2f3e 58b3 9c3d cc5d 773e
00000390: 2e2e 79be 5aca 80bd 2ab5 fbbd 4c99 7bbe
000003a0: a57a a9bd 30d5 2dbe 34d4 493e ac6c a3bd
000003b0: 5c7a 803e d229 67be 1522 95be 8adc 593e
000003c0: bffe e93e 5b52 7abc faaa 81bd 8eb9 46be
000003d0: 49ea f33d 1c1d f8bd 6c64 67be 1886 f0bd
000003e0: 9c4d babd 0e93 13be 777c 693e ac85 9cbc
000003f0: 0882 f9bd 3869 f73d 904c 8bbd 9218 80be

mlp1.0.bias f4 [150]
0.24369179 0.19610347 -0.02503254 0.09904305 0.024588957 0.17050235 0.06264059 0.055264447
0.11144229 -0.09515608 -0.037527766 -0.054501574 0.1867183 -0.06077346 0.27991715 0.011271957
-0.12132192 0.02897666 -0.2504239 -0.11655633 0.16369627 0.084297374 0.22015113 0.15062387
-0.15093745 -0.041276947 0.10144376 -0.27165562 -0.029603383 0.2677792 -0.29887232 -0.108818896
0.10340111 -0.1536258 -0.018949216 -0.017037492 -0.1568988 0.17349961 -0.10628026 -0.14043427
0.05342501 -0.22290024 -0.26126802 -0.0035727236 -0.29176947 0.13734086 -0.12311836 -0.24753335
-0.274064 -0.3054918 0.1814578 0.23586649 0.15206921 -0.097455114 0.088455506 0.08813671
-0.17045617 -0.28045204 -0.26215887 0.047419347 -0.1842927 0.05819616 0.11171164 -0.17757411
0.046400648 0.13958606 0.11318926 -0.26448157 0.1106423 0.29730758 0.20723192 -0.17745018
-0.081564225 -0.10523692 0.08883784 -0.045988914 0.14200483 -0.023087455 0.052431803 0.17321527
-0.1717818 -0.21536304 0.2688129 -0.06680155 0.29536292 0.103560165 0.20642607 -0.26180694
-0.15740919 -0.27348623 -0.21654145 0.14137597 0.27532148 0.032587957 0.26316574 0.17848298
0.26827955 -0.28429314 -0.071276695 0.14228734 -0.18732801 0.04298914 -0.27654463 0.0995008
-0.01712429 0.01747657 0.036215603 0.19497581 -0.102659054 -0.0653437 -0.26773772 0.17119634
0.25537914 0.22756794 -0.22982667 0.19658378 0.1771056 -0.29628947 -0.20130835 0.22492355
0.025066514 -0.026249519 -0.12148072 0.24313237 -0.20853037 0.10471016 0.12814376 -0.13207252
0.13396056 0.14162596 0.16099986 -0.10387466 -0.039639078 -0.24647836 0.2699551 0.040922347
0.09188791 -0.24263164 -0.17966273 0.02989136 0.024542205 -0.13555518 0.12500095 0.05244452
0.032939993 -0.053681586 0.20946452 0.10366387 -0.22126378 0.005182908
00000000: 578a 793e 59cf 483e 0b11 cdbc 15d7 ca3d
00000010: c86e c93c 2b98 2e3e b649 803d f95c 623d
00000020: db3b e43d 31e1 c2bd b7b6 19bd 0b3d 5fbd
00000030: 1533 3f3e 97ed 78bd 4d51 8f3e 04ae 383c
00000040: a077 f8bd 7660 ed3c 9037 80be 16b5 eebd
00000050: ff9f 273e 1aa4 ac3d 4c6f 613e 253d 1a3e
00000060: 598f 1abe 0412 29bd bfc1 cf3d 7216 8bbe
00000070: cb82 f2bc 5b1a 893e cb05 99be 71dc debd
00000080: f6c3 d33d 1550 1dbe 633b 9bbc 3692 8bbc
00000090: 14aa 20be e2a9 313e 77a9 d9bd 00ce 0fbe
000000a0: 2fd4 5a3d f63f 64be ecc4 85be 5b24 6abb
000000b0: cf62 95be 15a3 0c3e 7b25 fcbd 6279 7dbe
000000c0: 1e52 8cbe 6c69 9cbe 13d0 393e fc86 713e
000000d0: 08b8 1b3e 8c96 c7bd 2928 b53d 0581 b43d
000000e0: 108c 2ebe 6997 8fbe b039 86be ca3a 423d
000000f0: 3ab7 3cbe 195f 6e3d 13c9 e43d fdd5 35be
00000100: 9b0e 3e3d a6ef 0e3e c5cf e73d 216a 87be
00000110: 6e98 e23d b338 983e 9b34 543e 80b5 35be
00000120: 250b a7bd 7486 d7bd 9df0 b53d df5e 3cbd
00000130: b769 113e e721 bdbc bbc2 563d 585f 313e
00000140: 91e7 2fbe 2188 5cbe d8a1 893e 40cf 88bd
00000150: cf39 973e 5a17 d43d 5b61 533e 8f0b 86be
00000160: e02f 21be 6306 8cbe 0bbd 5dbe ddc4 103e
00000170: f0f6 8c3e f37a 053d a9bd 863e 3ec4 363e
00000180: f05b 893e df8e 91be 84f9 91bd c6b3 113e
00000190: ead2 3fbe 6115 303d 4297 8dbe 13c7 cb3d
000001a0: 3d48 8cbc 062b 8f3c d056 143d bda7 473e
000001b0: e93e d2bd ebd2 85bd eb14 89be 184e 2f3e
000001c0: 0ec1 823e 9207 693e af57 6bbe 424d 493e
000001d0: 2c5b 353e 41b3 97be c723 4ebe 5c52 663e
000001e0: 4a58 cd3c 3b09 d7bc e2ca f8bd b1f7 783e
000001f0: fc88 55be 4872 d63d 1e38 033e 053e 07be
00000200: f52c 093e 6506 113e 26dd 243e 3dbc d4bd
00000210: 965c 22bd d364 7cbe 8e37 8a3e 319e 273d
00000220: bb2f bc3d 6e74 78be 82f9 37be bade f43c
00000230: bc0c c93c face 0abe 4000 003e 11d0 563d
00000240: 16ec 063d 39e1 5bbd de7d 563e b94d d43d
00000250: f992 62be 62d5 a93b

mlp1.2.weight f4 [100, 150]
0.0733136 0.012847794 -0.020997602 0.059419848 -0.01323185 0.04563614 0.006681535 -0.074012525
0.060143035 0.018434633 -0.043595925 0.033478115 -0.046826445 -0.007956968 -0.06908933 0.11257469
0.016790586 0.012084091 -0.10442094 0.07204242 0.052510895 -0.018335719 -0.050748743 -0.04403807
-0.005254423 -0.038462415 0.024344958 0.030323466 0.011317887 0.0014830139 0.039367776 -0.06607315
0.09836774 -0.03806798 -0.024844386 0.061862744 0.11828022 0.04303114 -0.07226863 -0.07902825
-0.008413323 -0.113574736 0.008772847 -0.08246839 -0.0316131 3.0379917e-05 -0.0573107 0.05791269
-0.012200957 -0.018336363 -0.015873397 -0.03232748 -0.020980338 -0.03903609 0.050596505 -0.060971145
0.0026769927 -0.0642743 -0.009593681 0.060322054 0.05238367 -0.05435688 -0.051505357 -0.05465603
-0.011904213 0.027922925 -0.0007678485 0.04453242 -0.059927694 0.024637824 0.015323651 0.034149412
-0.08135408 -0.04630155 -0.030787231 0.07877613 0.024836631 -0.1451539 -0.039494462 0.058025032
-0.040175397 -0.027125672 0.059775747 0.072495654 -0.147722 0.078751996 -0.09476139 0.019470496
-0.0429407 -0.00845393 -0.045963734 0.057673596 0.06719682 0.0157297 0.024124 0.02141216
-0.041074265 -0.02564547 0.022731567 0.068815224 -0.05398193 0.08346158 -0.01428417 0.0044893874
0.0123829385 -0.1043235 0.06724145 0.090653196 -0.0049433196 -0.004589933 -0.07618433 0.01727254
0.07634366 0.003389395 -0.033086002 -0.06639626 -0.07212856 0.017250426 0.06768911 0.023296315
0.0053393464 -0.02731291 -0.080911756 0.032397203 -0.08646456 0.0026990226 -0.011440835 0.11390549
-0.056048114 -0.049713016 -0.007333309 -0.029055575 0.062050868 -0.06887323 0.0642839 0.0171262
-0.08507758 -0.09741993 0.09731889 -0.030199265 -0.050191242 0.053127594 0.10580143 0.047996346
-0.0058933506 0.061506744 0.06771571 -0.11242805 -0.04305215 0.084691755 0.024571672 -0.10219853
-0.10185612 0.02896498 0.080273256 -0.032748684 -0.07386008 -0.053636067 -0.054870427 -0.052810866
0.054688234 0.08408693 -0.041005857 -0.0559742 0.005897938 -0.052159373 0.06231662 0.06350411
0.009325843 0.06881772 0.001871949 0.041318364 0.039131757 -0.014285538 0.01028775 0.041128468
0.10248651 0.06812827 -0.069637604 0.05062171 -0.00037476767 -0.00808133 -0.031906486 -0.06415196
-0.02836978 0.05687353 0.08596866 0.019096402 0.0655581 0.015596792 -0.061307155 -0.047241166
-0.03615074 -0.012928183 0.03151243 -0.017387653 -0.042300157 -0.07974416 0.0846114 0.03641152
0.08008003 -0.03426517 0.0709725 0.012624577 -0.030881992 0.04900292 0.0031926273 -0.058538515
-0.0046045054 0.08586233 -0.021679299 0.006033507 -0.04220812 0.025796572 0.05755852 -0.06484645
0.0268734 0.036195766 0.029042209 -0.08486497 -0.0061235894 -0.02838257 0.048999634 0.045618262
0.040960945 -0.026800407 -0.09428427 0.038422618 -0.023043867 0.10086502 -0.07335115 -0.06861831
-0.035988722 -0.049680326 0.047108483 0.029380264 -0.054751106 0.026863154 -0.008215308 -0.025730481
-0.06673163 -0.011444704 -0.08252128 -0.011054714 -0.07827934 0.052022394 -0.024456093 0.0049746884
0.017897408 -0.012349851 0.018218834 0.05824835 0.05647058 -0.048905216 -0.069364354 -0.025500648
00000000: 7125 963d 8e7f 523c 2a03 acbc 3a62 733d
00000010: 67ca 58bc f6ec 3a3d c7f0 da3b e193 97bd
00000020: 8b58 763d 3a04 973c a491 32bd 5920 093d
00000030: 16cd 3fbd f15d 02bc b57e 8dbd 8f8d e63d
00000040: 698c 893c 5afc 453c a5da d5bd fa8a 933d
00000050: aa15 573d ca34 96bc eadd 4fbd 4361 34bd
00000060: 4b2d acbb c48a 1dbd 146f c73c eb68 f83c
00000070: a96e 393c b061 c23a 1b40 213d 5c51 87bd
00000080: 0775 c93d 2ced 1bbd 7486 cbbc ca63 7d3d
00000090: e63c f23d 6c41 303d 9301 94bd 90d9 a1bd
000000a0: 09d8 09bc df99 e8bd fdbb 0f3c 30e5 a8bd
000000b0: bd7c 01bd 60d8 fe37 a0be 6abd db35 6d3d
000000c0: 86e6 47bc 2436 96bc ed08 82bc d269 04bd
000000d0: f5de abbc 4fe4 1fbd 483e 4f3d e1bc 79bd
000000e0: 7c70 2f3b 3fa2 83bd d12e 1dbc 4214 773d
000000f0: 4290 563d 52a5 5ebd 48f7 52bd 00df 5fbd
00000100: e309 43bc 9ebe e43c 7149 49ba a067 363d
00000110: be76 75bd 43d5 c93c 0d10 7b3c 41e0 0b3d
00000120: f89c a6bd b2a6 3dbd 8135 fcbc 6155 a13d
00000130: 3176 cb3c 39a3 14be f2c4 21bd a8ab 6d3d
00000140: f58e 24bd a836 debc 6ad7 743d 9a78 943d
00000150: 7044 17be ba48 a13d 4212 c2bd 9780 9f3c
00000160: 96e2 2fbd 5a82 0abc 7844 3cbd 263b 6c3d
00000170: 7d9e 893d 92db 803c b29f c53c 8e68 af3c
00000180: 7d3d 28bd 7316 d2bc 8d37 ba3c ffee 8c3d
00000190: 281c 5dbd e8ed aa3d 2708 6abc b61b 933b
000001a0: cfe1 4a3c 8fa7 d5bd e3b5 893d 62a8 b93d
000001b0: 92fb a1bb 2667 96bb 8806 9cbd 247f 8d3c
000001c0: 115a 9c3d 9d20 5e3b 3085 07bd c3fa 87bd
000001d0: 23b8 93bd c450 8d3c 97a0 8a3d ead7 be3c
000001e0: aff5 ae3b 53bf dfbc 10b5 a5bd eeb2 043d
000001f0: 5514 b1bd 16e2 303b 5772 3bbc 4847 e93d
00000200: b592 65bd e09f 4bbd 414c f0bb f505 eebc
00000210: 0d29 7e3d 680d 8dbd 47a7 833d 3f4c 8c3c
00000220: 273d aebd 1a84 c7bd 204f c73d 7364 f7bc
00000230: 5595 4dbd 529c 593d 6cae d83d d197 443d
00000240: 021d c1bb 7fee 7b3d 89ae 8a3d ad40 e6bd
00000250: 7457 30bd df72 ad3d 884a c93c 774d d1bd
00000260: f199 d0bd f747 ed3c 4e66 a43d 7c23 06bd
00000270: f443 97bd 7eb1 5bbd d0bf 60bd 3550 58bd
00000280: c500 603d c535 ac3d c2f5 27bd 3445 65bd
00000290: 7d43 c13b 11a5 55bd b63f 7f3d 710e 823d
000002a0: 6ccb 183c 4ef0 8c3d 2f5c f53a 723d 293d
000002b0: 9f48 203d e40d 6abc f38d 283c 5376 283d
000002c0: 73e4 d13d d686 8b3d 299e 8ebd b658 4f3d
000002d0: 777c c4b9 8e67 04bc 60b0 02bd 1a62 83bd
000002e0: be67 e8bc 38f4 683d 5610 b03d 0f70 9c3c
000002f0: 5343 863d b089 7f3c 361d 7bbd f47f 41bd
00000300: cc12 14bd bbd0 53bc 2e13 013d 8d70 8ebc
00000310: ee42 2dbd e850 a3bd be48 ad3d 3f24 153d
00000320: 0001 a43d a359 0cbd 085a 913d 50d7 4e3c
00000330: 3bfc fcbc 49b7 483d 663b 513b 15c6 6fbd
00000340: 64e1 96bb 97d8 af3d c998 b1bc bab4 c53b
00000350: 6ce2 2cbd 5553 d33c 7cc2 6b3d 37ce 84bd
00000360: 9b25 dc3c 0342 143d ede9 ed3c afcd adbd
00000370: 64a8 c8bb 9082 e8bc d7b3 483d 37da 3a3d
00000380: aac6 273d 878c dbbc 1d18 c1bd 0961 1d3d
00000390: 7ec6 bcbc 5292 ce3d 2139 96bd c287 8cbd
000003a0: e968 13bd 997d 4bbd d3f4 403d e1ae f03c
000003b0: b242 60bd 1e10 dc3c 8099 06bc bbc8 d2bc
000003c0: 98aa 88bd 9182 3bbc eb00 a9bd d51e 35bc
000003d0: eb50 a0bd 6f15 553d 2558 c8bc b602 a33b
000003e0: 969d 923c 0857 4abc aa3f 953c d295 6e3d
000003f0: b24d 673d d650 48bd e60e 8ebd bce6 d0bc

mlp1.2.bias f4 [100]
-0.07149594 0.0148471305 -0.07647711 -0.048920963 0.011619361 0.036876623 -0.061543748 0.040050723
-0.010236354 -0.034900688 -0.06992812 -0.084899 -0.002004067 0.010656438 0.061984703 0.031588525
0.022796566 -0.029472798 0.044254646 -0.005557949 0.123225085 0.062359717 -0.052191913 -0.03784025
0.055956848 0.039318766 0.039187573 0.089858726 -0.044614203 0.023738544 -0.018212596 0.007859063
-0.04155273 -0.054284837 0.024101524 0.1306472 0.048571013 -0.037969124 0.08234602 -0.071702555
0.06795458 -0.055044424 0.023299333 0.007844505 -0.12844221 -0.05525186 0.007720445 0.0065567084
0.06951344 -0.08479948 0.09551325 -0.018818187 -0.047373526 -0.031602804 0.073119804 0.05492367
-0.015186379 -0.06829224 -0.059575297 -0.008723325 -0.098682195 -0.05571622 0.038615197 0.026427189
-0.04732209 0.05719236 -0.04001726 0.07782494 0.023647381 -0.052898988 0.01708455 0.031510282
-0.050038587 0.027918413 -0.048443437 -0.073044196 -0.075981125 -0.06688505 -0.028020537 -0.020814909
-0.06410779 0.07238718 -0.018580059 -0.0006320633 0.035261612 0.063921236 0.073128715 -0.09214076
0.05079265 0.04655163 0.01910025 0.0077196634 0.053738553 0.0043814736 -0.06344837 0.04901846
0.036780495 0.040331673 0.09065071 0.07548892
00000000: 776c 92bd 6141 733c 08a0 9cbd 5961 48bd
00000010: 225f 3e3c f10b 173d 4c15 7cbd 3a0c 243d
00000020: 61b6 27bc 06f4 0ebd 7936 8fbd 87df adbd
00000030: aa56 03bb 5798 2e3c ace3 7d3d f862 013d
00000040: ddbf ba3c f070 f1bc 5c44 353d 751f b6bb
00000050: 6f5d fc3d e76c 7f3d 30c7 55bd 61fe 1abd
00000060: 0233 653d b70c 213d 2683 203d da07 b83d
00000070: 62bd 36bd 5677 c23c 9532 95bc 4dc3 003c
00000080: 3233 2abd c759 5ebd 8f70 c53c 61c8 053e
00000090: 66f2 463d 8385 1bbd 08a5 a83d cad8 92bd
000000a0: c52b 8b3d 4376 61bd 3ede be3c 3d86 003c
000000b0: 5b86 03be c64f 62bd c9fb fc3b a8d9 d63b
000000c0: 105d 8e3d 5aab adbd 739c c33d 9928 9abc
000000d0: be0a 42bd f171 01bd d6bf 953d a4f7 603d
000000e0: 4ad0 78bc cddc 8bbd 3a05 74bd 47ec 0ebc
000000f0: e419 cabd b136 64bd f82a 1e3d d57d d83c
00000100: cfd4 41bd 8942 6a3d 23e9 23bd af62 9f3d
00000110: 27b8 c13c 9cac 58bd e6f4 8b3c ed10 013d
00000120: 43f5 4cbd 28b5 e43c a06c 46bd 3298 95bd
00000130: fe9b 9bbd 07fb 88bd 538b e5bc 0784 aabc
00000140: f24a 83bd bb3f 943d 3535 98bc 0db1 25ba
00000150: 7b6e 103d 23e9 823d 82c4 953d 4bb4 bcbd
00000160: f40b 503d ecac 3e3d 2178 9c3c 3bf5 fc3b
00000170: f51c 5c3d 7792 8f3b 38f1 81bd 95c7 483d
00000180: 25a7 163d d332 253d 14a7 b93d ef99 9a3d

mlp2.0.weight f4 [100, 100]
-0.018343972 0.050241582 0.06928314 -0.042823423 -0.10692718 -0.105198264 -0.08970027 -0.038709667
-0.04881568 -0.101851 0.062325872 0.024611404 0.06708454 0.03268923 0.047546696 0.057667043
0.04960785 0.07481986 0.00030172616 0.009995397 0.051639747 0.09777798 0.009714398 -0.021220785
0.089873746 -0.0031084905 0.05655395 -0.031860758 -0.06272683 -0.08049258 -0.11305629 -0.044422172
0.12068387 0.041050967 0.039634224 0.110766605 -0.02117031 -0.080507606 -0.091157064 -0.030150244
-0.026057467 0.09624014 0.04679854 -0.06952782 0.013564845 -0.089900784 -0.07436261 -0.07316517
0.06821165 0.06605281 0.01243461 0.06650441 0.013289487 0.007944843 -0.052864097 0.014040139
-0.02975557 0.03634986 0.10258497 -0.068870746 0.08670814 0.09695941 -0.02037315 -0.07131008
-0.11224335 -0.0024256022 0.046696767 -0.004462463 0.028637175 -0.09662341 -0.09715661 -0.010287991
-0.014623033 -0.07037085 0.02384122 0.10555465 0.05788002 0.05387581 0.044169307 0.018587824
0.06936302 -0.018542139 0.07091421 0.087061696 0.061086994 -0.04351012 0.025264101 -0.021593776
0.03144035 -0.082806855 0.035263065 -0.03017494 0.06480261 0.025100673 -0.10505915 -0.02565282
0.092879154 0.018180568 -0.07349529 0.09664147 -0.0025437195 0.069441944 0.054647002 0.00080682104
-0.098318 -0.011311463 -0.031508528 -0.09136896 -0.09867051 -0.071253546 -0.028099908 -0.09887252
0.0971291 0.042790357 0.06514667 -0.011444218 -0.08098646 0.0035256 0.012468195 -0.07583173
0.032497946 0.087613575 0.07594284 0.0037859406 0.0035545835 0.01676089 -0.015649125 -0.08019335
-0.03766378 0.084722996 0.080716975 -0.06558768 0.07901282 -0.079131365 0.005642674 -0.046619054
0.0851842 -0.036868997 0.051561702 0.06933445 -0.035341218 -0.039551992 -0.07680411 -0.06619737
-0.03465158 0.01983947 -0.09181153 0.07514802 -0.03625012 -0.06314345 -0.018350005 0.06842522
-0.08338668 0.05035054 0.028204365 -0.09918129 -0.015936559 0.09214755 -0.008385964 0.013156787
-0.07874219 -0.09394087 0.08158436 -0.053856924 -0.014014584 0.030164916 0.04018658 -0.014149064
-0.018259672 -0.081450924 -0.09068669 -0.08060557 0.0049301167 -0.051573005 -0.0428674 0.11853648
0.12588657 -0.033928927 -0.08769699 -0.0679075 0.06912155 0.10691829 -0.073140495 -0.01944995
-0.053916153 0.082625546 0.018905168 0.00013425085 0.019297145 0.052924454 0.030138722 0.07822015
0.025477944 0.0056895646 -0.09034586 0.032109357 0.050486717 0.06594649 -0.11460338 0.06795987
0.066490345 -0.038876347 0.03616931 0.06695274 -0.028367968 -0.022819342 -0.05035971 0.08795042
0.0071628885 -0.0013747099 -0.082325295 -0.018230801 -0.07564394 0.033983536 0.04658142 0.0798574
-0.1063988 0.027322887 -0.03136921 0.055770356 -0.012929931 -0.070161514 0.105788395 -0.0706731
0.08740924 0.0774259 0.080826774 0.07105013 0.0037105533 0.052421093 0.04607637 0.05770361
-0.073521055 0.025873892 -0.094690055 -0.067880996 -0.046313528 -0.101865344 -7.671604e-05 0.071272396
0.0033902188 0.084482655 0.026102737 -0.07748961 -0.09190953 -0.009422042 -0.02513684 0.010181971
-0.041925453 0.057441615 -0.08934957 0.056508243 0.041705023 0.055376496 -0.023883237 0.081629895
00000000: 1946 96bc 1eca 4d3d 52e4 8d3d 9d67 2fbd
00000010: a3fc dabd 3072 d7bd c6b4 b7bd 078e 1ebd
00000020: f3f2 47bd 4297 d0bd 6a49 7f3d db9d c93c
00000030: 9f63 893d 24e5 053d 53c0 423d 4734 6c3d
00000040: 9a31 4b3d 283b 993d 0031 9e39 bcc3 233c
00000050: 3384 533d d23f c83d 2329 1f3c 36d7 adbc
00000060: ba0f b83d d1b7 4bbb 1da5 673d 6d80 02bd
00000070: ed76 80bd 4bd9 a4bd 0e8a e7bd 06f4 35bd
00000080: 1b29 f73d 0f25 283d 7f57 223d 9ad9 e23d
00000090: 5c6d adbc 2ce1 a4bd 8eb0 babd a5fd f6bc
000000a0: 7876 d5bc 8d19 c53d d3af 3f3d 9a64 8ebd
000000b0: 153f 5e3c e71d b8bd 6d4b 98bd 9fd7 95bd
000000c0: 8db2 8b3d b246 873d 89ba 4b3c 7733 883d
000000d0: 26bc 593c 162b 023c 0688 58bd 9c08 663c
000000e0: f4c1 f3bc 97e3 143d 1218 d23d 1b0c 8dbd
000000f0: 0a94 b13d a892 c63d 98e5 a6bc 050b 92bd
00000100: d7df e5bd daf6 1ebb 1c45 3f3d da39 92bb
00000110: 8298 ea3c 7fe2 c5bd 0bfa c6bd f68e 28bc
00000120: 7295 6fbc 981e 90bd aa4e c33c 092d d83d
00000130: 9a13 6d3d e2ac 5c3d e0ea 343d 7e45 983c
00000140: 330e 8e3d afe5 97bc 783b 913d 674d b23d
00000150: 5b36 7a3d ab37 32bd a9f6 ce3c 6ee5 b0bc
00000160: 99c7 003d a496 a9bd 0170 103d 7031 f7bc
00000170: 3bb7 843d ed9f cd3c 4029 d7bd dd25 d2bc
00000180: 6d37 be3d 6aef 943c b384 96bd f7eb c53d
00000190: 88b4 26bb 9437 8e3d 89d5 5f3d d880 533a
000001a0: f35a c9bd b753 39bc 160f 01bd a61f bbbd
000001b0: c413 cabd 61ed 91bd c731 e6bc ad7d cabd
000001c0: 9feb c63d f144 2f3d 9e6b 853d 8880 3bbc
000001d0: 3bdc a5bd c10d 673b 6647 4c3c ab4d 9bbd
000001e0: 911c 053d bf6e b33d eb87 9b3d 8b1d 783b
000001f0: 04f4 683b 224e 893c 9832 80bc 693c a4bd
00000200: 5645 1abd 4083 ad3d f14e a53d d552 86bd
00000210: 79d1 a13d a00f a2bd 2ee6 b83b 9ff3 3ebd
00000220: 0e75 ae3d f203 17bd 5d32 533d 38ff 8d3d
00000230: f4c1 10bd 4501 22bd 794b 9dbd 7d92 87bd
00000240: d1ee 0dbd 6286 a23c af07 bcbd 35e7 993d
00000250: 017b 14bd 5a51 81bd c052 96bc 8622 8c3d
00000260: a3c6 aabd 5e3c 4e3d d70c e73c 8f1f cbbd
00000270: 638d 82bc dbb7 bc3d 4865 09bc 908f 573c
00000280: 9643 a1bd 1264 c0bd b315 a73d 1499 5cbd
00000290: 6d9d 65bc 6a1c f73c af9a 243d 7ad1 67bc
000002a0: 4f95 95bc becf a6bd f1b9 b9bd 8814 a5bd
000002b0: d18c a13b 373e 53bd ba95 2fbd 41c3 f23d
000002c0: 69e8 003e 0ff9 0abd 7b9a b3bd 1613 8bbd
000002d0: 998f 8d3d faf7 da3d afca 95bd 8055 9fbc
000002e0: 2fd7 5cbd 9537 a93d 03df 9a3c b0c5 0c39
000002f0: 0c15 9e3c 50c7 583d 7be5 f63c e331 a03d
00000300: 1fb7 d03c 876f ba3b 4007 b9bd 1a85 033d
00000310: 29cb 4e3d f40e 873d 2db5 eabd 8b2e 8b3d
00000320: 172c 883d ce3c 1fbd 4526 143d 851e 893d
00000330: f163 e8bc a1ef babc fc45 4ebd 5a1f b43d
00000340: aab6 ea3b 9c2f b4ba 2a9a a8bd c358 95bc
00000350: 36eb 9abd 5232 0b3d 29cc 3e3d 478c a33d
00000360: 9de7 d9bd 3fd4 df3c 007d 00bd 756f 643d
00000370: 10d8 53bc d7b0 8fbd 96a7 d83d 0fbd 90bd
00000380: 9e03 b33d 7891 9e3d 8288 a53d bb82 913d
00000390: c12c 733b 80b7 563d 93ba 3c3d 9f5a 6c3d
000003a0: 3592 96bd 7cf5 d33c dcec c1bd 3105 8bbd
000003b0: 41b3 3dbd c79e d0bd 9ce2 a0b8 43f7 913d
000003c0: 6f2e 5e3b 3e05 ad3d 68d5 d53c dfb2 9ebd
000003d0: 103b bcbd e95e 1abc c6eb cdbc 48d2 263c
000003e0: 06ba 2bbd e647 6b3d e8fc b6bd 3075 673d
000003f0: e3d2 2a3d 77d2 623d c7a6 c3bc 932d a73d

mlp2.0.bias f4 [100]
-0.06317272 -0.046864502 0.11985264 -0.030495023 -0.0011339705 0.11441855 -0.09338069 -0.09297372
-0.06335492 0.183174 0.024044061 0.04646429 0.12818052 0.0638554 0.028587436 0.08674236
0.023641616 0.115500174 -0.018488308 0.041349165 0.05084578 0.031756703 -0.065591894 -0.037449244
0.03927391 -0.06289716 -0.038887143 0.08742083 -0.062435433 0.13419236 -0.10800876 0.011628736
0.02085951 0.031201025 -0.015360176 0.059284575 0.03140027 0.016668767 0.037972774 0.015606107
-0.08259047 0.064627215 0.08674918 -0.045241643 -0.10429073 0.09902846 -0.03369488 0.1006626
0.012938492 -0.0024140393 -0.0152448425 0.05956297 0.09235808 0.1277412 -0.009115099 0.08623208
0.022305915 -0.024391757 -0.030232916 0.041496567 0.057159282 0.04798072 -0.05197343 0.008931703
0.0073891724 -0.08394746 0.06012996 -0.09017828 -0.090686984 -0.02152573 -0.022259977 -0.06967502
-0.019786144 -0.02060221 -0.087124765 -0.027341327 -0.0222608 -0.07368023 -0.002156486 -0.05218432
0.095439605 0.056376442 0.049126603 -0.057430655 -0.026065817 0.027184768 0.02278729 0.12880589
0.0009226715 0.0062540295 0.070243716 -0.089299865 0.057111144 0.10999932 0.05108572 0.039491083
0.04140158 -0.07767496 -0.052342862 0.097426526
00000000: b360 81bd fef4 3fbd 4d75 f53d b3d0 f9bc
00000010: bca1 94ba 4654 ea3d 603e bfbd 0169 bebd
00000020: 39c0 81bd f791 3b3e 0df8 c43c 5751 3e3d
00000030: c141 033e 9fc6 823d 3330 ea3c faa5 b13d
00000040: 10ac c13c 5b8b ec3d cb74 97bc be5d 293d
00000050: aa43 503d 5113 023d 0b55 86bd 6164 19bd
00000060: aedd 203d 3ad0 80bd 2048 1fbd b109 b33d
00000070: 4cbc 7fbd b969 093e b233 ddbd 7486 3e3c
00000080: 90e1 aa3c 4b99 ff3c 3fa9 7bbc 62d4 723d
00000090: 929d 003d f08c 883c 5789 1b3d c2b0 7f3c
000000a0: 3125 a9bd 465b 843d 8ea9 b13d 4d4f 39bd
000000b0: 6196 d5bd 6fcf ca3d a403 0abd 3128 ce3d
000000c0: f8fb 533c dc34 1ebb 81c5 79bc 4df8 733d
000000d0: 3c26 bd3d 97ce 023e 7f57 15bc 729a b03d
000000e0: e5ba b63c 39d1 c7bc 05ab f7bc 4ef8 293d
000000f0: da1f 6a3d 6e87 443d 17e2 54bd 4756 123c
00000100: df20 f23b a5ec abbd d54a 763d 64af b8bd
00000110: 19ba b9bd ba56 b0bc 8e5a b6bc c7b1 8ebd
00000120: 8d16 a2bc f7c5 a8bc 786e b2bd ebfa dfbc
00000130: 485c b6bc a9e5 96bd d553 0dbb 3abf 55bd
00000140: d775 c33d fcea 663d fa38 493d 683c 6bbd
00000150: fb87 d5bc 97b2 de3c 69ac ba3c b1e5 033e
00000160: 70df 713a 9aee cc3b f0db 8f3d d9e2 b6bd
00000170: 60ed 693d 5347 e13d 433f 513d 67c1 213d
00000180: b494 293d 0d14 9fbd 7865 56bd 8f87 c73d

mlp2.2.weight f4 [50, 100]
0.00015530354 0.037854522 -0.03885556 0.07087992 -0.09304015 0.0744508 -0.094854794 0.06867603
-0.059292953 -0.006318541 0.040289897 0.043334186 -0.080313705 0.02814343 -0.08336399 0.024735555
0.0698884 0.03547946 0.06487594 -0.09602055 0.05728203 -0.027731322 0.01554056 -0.03385702
0.09198067 0.088313706 -0.060878295 0.0018913005 0.08747236 0.12163782 0.099783756 -0.09069755
-0.033932734 -0.06100058 0.10216496 0.03767775 0.02890406 -0.048106797 0.026867535 0.09504812
0.0318325 0.076117024 -0.029140428 0.07508101 0.015041137 -0.06043614 0.10243678 -0.0058642253
-0.06713848 0.045348767 -0.088477276 0.05487036 -0.04934608 -0.028971044 -0.034352463 0.07385518
0.00050071185 0.0015439605 0.10795477 0.047568094 -0.023567986 -0.097597234 0.054109097 0.07671936
-0.081884645 0.088178925 -0.114337906 0.1012254 0.017513372 0.097598515 0.00870951 -0.0760437
0.002093189 0.054618765 -0.021457303 0.086462155 0.085454434 -0.0722227 -0.004802743 -0.09457591
0.044665083 -0.0810508 -0.002375788 -0.010934656 0.042650837 -0.048369553 -0.019891288 -0.020482663
0.033638764 0.09305082 0.057417538 0.09649842 -0.011741258 0.11569961 0.10270288 0.023515398
-0.044684254 -0.03775302 0.05610017 0.035891525 -0.06497611 -0.045826796 0.08045403 -0.032773037
-0.06433133 0.04702459 0.075459994 -0.083212115 -0.060819518 0.09573597 0.10551315 -0.033959527
-0.034383934 0.10484789 -0.10784404 -0.019361403 0.015377585 0.070359826 -0.03119229 -0.0030328378
0.025067845 0.027728688 -0.071145624 0.06708184 0.04342664 0.06144695 0.09239819 0.0017291977
0.088447064 0.057044357 0.063195996 0.006574099 0.07236767 0.050372165 -0.07016779 0.016005041
-0.0504177 -0.07520693 -0.039861094 -0.046218134 0.051789846 0.006186091 -0.008389718 0.094816625
-0.07806114 -0.016420824 0.10990556 0.07024441 -0.040754486 0.02275453 -0.025261136 -0.12168943
-0.057487275 0.06922763 -0.09285371 -0.11672048 0.081180274 0.06716286 -0.043626685 -0.017210327
-0.015962815 -0.05988747 -0.067419045 -0.081648335 -0.030986536 0.061987087 -0.014924803 -0.08911048
-0.04722927 -0.040327054 0.08483694 -0.0936865 0.022297692 0.10963024 -0.024148535 0.06973009
0.027560692 0.07928457 0.05712101 0.04981151 -0.10146683 -0.11906782 -0.071517415 -0.05389411
0.075067446 0.07434954 0.0074828337 -0.0633075 -0.06851937 0.09409494 0.0152705 -0.056304254
-0.03256733 0.08387442 0.06959768 0.0057521 0.12619588 -0.080824 0.026028033 0.011956194
0.07220899 0.009832022 0.04174788 0.002154128 -0.006588183 0.08981042 0.08116489 -0.046242397
0.009151209 0.15231605 -0.07160041 0.04612858 0.011265727 0.027705813 -0.009216428 0.022442816
-0.014542183 -0.061718117 -0.094474316 -0.01197893 -0.026955206 -0.049058534 -0.06870141 0.017572828
0.0021574278 -0.019681435 0.028189985 -0.07396037 0.04067961 0.15758318 0.09775789 0.010266851
0.07979204 -0.04466018 -0.019135773 0.10609214 -0.019198056 0.025477625 -0.10340899 0.071551524
-0.026361506 -0.07923681 0.006739984 0.097663365 -0.0024568804 -0.07839407 0.026782403 -0.021144353
-0.09613968 -0.005852504 0.005585183 0.035945866 -0.03813626 0.07854501 -0.071881816 -0.0818455
00000000: fad8 2239 580d 1b3d 0227 1fbd 7e29 913d
00000010: d68b bebd a979 983d 3b43 c2bd 05a6 8c3d
00000020: 2bdd 72bd c30b cfbb 0507 253d 307f 313d
00000030: 837b a4bd 0d8d e63c bdba aabd 38a2 ca3c
00000040: a621 8f3d e952 113d addd 843d 6ca6 c4bd
00000050: 90a0 6a3d cc2c e3bc d59d 7e3c a9ad 0abd
00000060: 5d60 bc3d d1dd b43d 855b 79bd 84e5 f73a
00000070: b524 b33d 401d f93d 6d5b cc3d a3bf b9bd
00000080: 0dfd 0abd bfdb 79bd dd3b d13d fc53 1a3d
00000090: 35c8 ec3c a20b 45bd 4e19 dc3c 97a8 c23d
000000a0: cc62 023d 3ee3 9b3d e8b7 eebc 13c4 993d
000000b0: 1a6f 763c e38b 77bd 60ca d13d b028 c0bb
000000c0: e67f 89bd a1bf 393d 9333 b5bd bebf 603d
000000d0: 1d1f 4abd af54 edbc 2bb5 0cbd 6241 973d
000000e0: 3442 033a b85e ca3a 6417 dd3d c3d6 423d
000000f0: a611 c1bc 0fe1 c7bd 80a1 5d3d 0a1f 9d3d
00000100: 23b3 a7bd 2797 b43d fe29 eabd 434f cf3d
00000110: 3478 8f3c bbe1 c73d 55b2 0e3c cdbc 9bbd
00000120: e22d 093b edb7 5f3d 3ac7 afbc 1213 b13d
00000130: bc02 af3d 7fe9 93bd 5460 9dbb 04b1 c1bd
00000140: bcf2 363d f6fd a5bd 1cb3 1bbb 4527 33bc
00000150: a5b2 2e3d 271f 46bd 0ef3 a2bc 42cb a7bc
00000160: cdc8 093d 6e91 be3d a72e 6b3d f7a0 c53d
00000170: 685e 40bc ebf3 ec3d e355 d23d 5da3 c03c
00000180: d606 37bd e9a2 1abd 4bc9 653d fe02 133d
00000190: 3212 85bd e1b4 3bbd 15c5 a43d 053d 06bd
000001a0: 25c0 83bd db9c 403d c58a 9a3d 1d6b aabd
000001b0: e31d 79bd 3811 c43d 4717 d83d 2519 0bbd
000001c0: 2bd6 0cbd 7eba d63d 56dd dcbd ce9b 9ebc
000001d0: 44f2 7b3c d018 903d f986 ffbc 93c2 46bb
000001e0: 155b cd3c 4627 e33c ccb4 91bd 3462 893d
000001f0: 22e0 313d ccaf 7b3d 433b bd3d 3fa6 e23a
00000200: bc23 b53d 58a7 693d e76c 813d 8a6b d73b
00000210: 8035 943d 0b53 4e3d 21b4 8fbd 011d 833c
00000220: ca82 4ebd 1706 9abd 6345 23bd 3a4f 3dbd
00000230: 9721 543d b1b4 ca3b 0775 09bc 382f c23d
00000240: 85de 9fbd f784 86bc 2b16 e13d 4ddc 8f3d
00000250: 2dee 26bd b567 ba3c 71f0 cebc 4f38 f9bd
00000260: c777 6bbd 37c7 8d3d 162a bebd 260b efbd
00000270: d841 a63d ae8c 893d e5b1 32bd acfc 8cbc
00000280: 73c4 82bc 904c 75bd ff12 8abd 3e37 a7bd
00000290: 7ad7 fdbc 2ce6 7d3d 2987 74bc 8e7f b6bd
000002a0: 7b73 41bd fb2d 25bd fdbe ad3d b5de bfbd
000002b0: a6a9 b63c d285 e03d 26d3 c5bc a6ce 8e3d
000002c0: f6c6 e13c f35f a23d b8f7 693d 2707 4c3d
000002d0: d7cd cfbd d4d9 f3bd b977 92bd 12c0 5cbd
000002e0: f6bc 993d 9244 983d 8f32 f53b 5da7 81bd
000002f0: e253 8cbd d9b4 c03d 1f31 7a3c 4a9f 66bd
00000300: 5265 05bd 5ac6 ab3d 3a89 8e3d 1d7c bc3b
00000310: 7e39 013e 0e87 a5bd be38 d53c eae3 433c
00000320: 4fe2 933d 7d16 213c d3ff 2a3d 452c 0d3b
00000330: afe1 d7bb 87ee b73d c739 a63d ab68 3dbd
00000340: f4ee 153c bdf8 1b3e 3ca3 92bd 52f1 3c3d
00000350: e293 383c 4df7 e23c 8000 17bc ffd9 b73c
00000360: 5642 6ebc 23cc 7cbd c07b c1bd 4643 44bc
00000370: 2ad1 dcbc 9af1 48bd 53b3 8cbd e4f4 8f3c
00000380: a263 0d3b f63a a1bc afee e63c 8978 97bd
00000390: aa9f 263d 7c5d 213e 4a35 c83d 4b36 283c
000003a0: 026a a33d 98ed 36bd a0c2 9cbc d646 d93d
000003b0: 3e45 9dbc 74b6 d03c 18c8 d3bd 9b89 923d
000003c0: 16f4 d7bc e946 a2bd 15db dc3b bb03 c83d
000003d0: 9d03 21bb 128d a0bd c566 db3c ec36 adbc
000003e0: e1e4 c4bd 5dc6 bfbb e903 b73b f93b 133d
000003f0: c434 1cbd 35dc a03d c636 93bd 9d9e a7bd

mlp2.2.bias f4 [50]
0.029229574 -0.03487229 -0.08118791 -0.013084789 -0.031579275 0.09287188 -0.014436078 -0.009079701
-0.023503104 0.05764081 -0.04009945 -0.042283352 -0.052226994 0.11409064 0.07410304 0.022376165
-0.0065558814 0.0077703153 0.077884 -0.007448913 0.005566856 -0.06523556 -0.023218244 0.022770412
0.0812593 0.004087423 -0.08169852 0.04625834 -0.0778053 0.12270699 0.054834977 0.14859748
0.028186826 -0.0039803777 0.02806617 -0.07737653 -0.06291595 -0.013202404 -0.032852016 -0.039304636
-0.018465191 0.002875736 0.023725461 0.0021698137 -0.008414964 -0.008814213 -0.050908208 -0.07435168
-0.0009741619 0.012460591
00000000: dc72 ef3c 3fd6 0ebd d945 a6bd 9561 56bc
00000010: 4559 01bd 9d33 be3d 4d85 6cbc 07c3 14bc
00000020: 9589 c0bc c518 6c3d 523f 24bd 4f31 2dbd
00000030: f9eb 55bd 5aa8 e93d 56c3 973d 384e b73c
00000040: b8d2 d6bb 219e fe3b a681 9f3d 0316 f4bb
00000050: 2c6a b63b 399a 85bd 3034 bebc 0489 ba3c
00000060: 476b a63d caef 853b 8e51 a7bd 6379 3d3d
00000070: 6358 9fbd cd4d fb3d a49a 603d f029 183e
00000080: 0fe8 e63c d46d 82bb 06eb e53c 9677 9ebd
00000090: 14da 80bd e54e 58bc d68f 06bd e6fd 20bd
000000a0: 5044 97bc d876 3c3b e65b c23c 6f33 0e3b
000000b0: ebde 09bc 7d69 10bc 2085 50bd b245 98bd
000000c0: e65e 7fba 8227 4c3c

attention.0.weight f4 [100, 200]
-0.071483076 0.044280924 0.007732872 -0.033575848 -0.018729936 0.017728237 -0.004151625 -0.01898576
0.020779898 -0.02356263 -0.062414605 -0.06744959 0.05280129 0.032873254 -0.031055786 0.06515227
0.035150494 -0.023536209 0.023470037 0.03282473 -0.018965388 0.015989993 -0.02072936 0.03393225
-0.06572457 -0.004124739 -0.05652905 0.047437973 -0.060343582 -0.04171792 -0.018500956 0.026352724
0.08107293 -0.039310813 0.013266316 -0.059779026 0.062202107 0.05702712 -0.02855442 0.03185913
-0.041225668 0.029352052 -0.06310822 0.034985747 -0.042007558 0.017998828 0.058781587 0.045870297
0.030555371 0.06446805 0.0090143215 -0.013185918 -0.06385464 -0.041864745 0.053943947 -0.021987434
-0.0036421814 -0.05297669 0.03656874 0.003520217 -0.041719142 0.06346679 0.0463577 -0.026427375
-0.018692257 -0.037317645 -0.048541576 -0.03424284 0.034795918 -0.010307297 5.4728393e-05 -0.047403134
-0.08034804 -0.039245974 -0.027673662 -0.02250107 0.043366604 0.011820878 0.023910554 0.0042020017
0.049606413 0.00489955 0.05213089 -0.04654614 0.06869853 -0.0401384 0.027524486 0.076575704
-0.0024653624 0.055507805 0.04351781 0.032581564 0.07319671 0.026669951 -0.031608876 0.036951315
-0.04939643 -0.016802678 0.047982194 -0.042851176 0.070181064 -0.063610606 0.035203107 0.0017096435
0.03711929 -0.038835164 -0.03949781 0.029898738 -0.056311022 0.044109672 0.033329915 0.04206004
0.014106857 0.010264542 0.019578425 -0.035900358 -0.04349869 0.02675775 0.058348008 0.031544995
0.060332973 0.0066088336 0.04463159 0.052454155 0.054228693 -0.04211431 -0.058221 0.055956416
0.0127278585 -0.01626699 0.017799964 0.0062647313 -0.05318696 -0.057683047 0.029675623 0.021401364
0.014950741 0.04421378 -0.018861849 -0.025962926 0.01625675 -0.016460221 0.04739498 -0.007384046
0.01717403 0.042049933 -0.010164877 -0.031538066 -0.033094354 -0.002492766 -0.06908707 0.0506907
-0.026581613 -0.030067805 -0.013818315 -0.02663204 0.04748815 0.007798311 0.016722938 -0.017639238
0.054862965 -0.037433363 -0.008713933 -0.027298164 -0.05323916 -0.03699999 0.035544295 -0.007455211
-0.0454008 0.057630207 0.017393302 0.021692483 0.037052635 0.07068946 0.028901402 0.042908374
0.010446582 -0.061592974 0.032732677 -0.017646112 0.048713557 0.021922199 -0.0017555569 -0.06360728
0.01794204 0.051347606 -0.015319664 -0.06089859 -0.045319162 -0.04490064 -0.056466307 0.03623716
-0.023602929 0.04161136 -0.03966535 -0.02222823 0.06432049 -0.013004702 0.03428177 -0.02701732
-0.0005362382 -0.06452684 -0.03596496 0.045561235 -0.017895104 0.048668634 0.08152755 0.07098018
-0.03232027 -0.03514397 -0.026751786 0.03162038 0.017879862 0.01794576 -0.061397966 0.011273592
0.073836796 0.017531883 -0.035616506 -0.0060244207 -0.042729776 0.02826645 -0.07704981 0.0619846
0.028035752 -0.020916209 0.00056576484 0.049197704 -0.040022522 -0.026265722 0.04424566 -0.06509619
0.07531624 0.02242308 0.008817569 -0.046919666 -0.015536801 0.036127448 -0.010542471 0.038505238
-0.030375304 -0.021104353 0.04478851 -0.016010521 0.049273 0.010682369 0.036811486 -0.0247256
0.063355446 -0.0306615 -0.03991096 0.0029853163 -0.051831827 0.050841954 -0.015782744 -0.028222118
00000000: b865 92bd ea5f 353d 0864 fd3b d486 09bd
00000010: 866f 99bc cf3a 913c 5b0a 88bb 0688 9bbc
00000020: 9b3a aa3c 6b06 c1bc 75a6 7fbd 0323 8abd
00000030: 2a46 583d 1ba6 063d b468 febc 8e6e 853d
00000040: f7f9 0f3d 02cf c0bc 3c44 c03c 3973 063d
00000050: 4d5d 9bbc 72fd 823c 9ed0 a9bc 8bfc 0a3d
00000060: 9a9a 86bd d228 87bb 018b 67bd 524e 423d
00000070: d52a 77bd 69e0 2abd 518f 97bc abe1 d73c
00000080: 9009 a63d 6004 21bd f65a 593c dada 74bd
00000090: a3c7 7e3d 4595 693d f6ea e9bc b87e 023d
000000a0: 3fdc 28bd b773 f03c e23e 81bd 374d 0f3d
000000b0: 1e10 2cbd 4772 933c f6c4 703d 7ee2 3b3d
000000c0: 424f fa3c d307 843d ceb0 133c c009 58bc
000000d0: 39c6 82bd 5e7a 2bbd 54f4 5c3d fe1e b4bc
000000e0: aab1 6ebb 16fe 58bd 1ac9 153d 71b3 663b
000000f0: b1e1 2abd e0fa 813d 92e1 3d3d 397e d8bc
00000100: 8120 99bc 63da 18bd 88d3 46bd 3842 0cbd
00000110: 2a86 0e3d f0df 28bc 2a8c 6538 ca29 42bd
00000120: 838d a4bd 63c0 20bd e0b3 e2bc 2a54 b8bc
00000130: 2ea1 313d 5bac 413c 11e0 c33c f2b0 893b
00000140: 1830 4b3d 688c a03b 3387 553d 2aa7 3ebd
00000150: d1b1 8c3d 2a68 24bd 087b e13c b9d3 9c3d
00000160: eb91 21bb 275c 633d bb3f 323d 3f74 053d
00000170: 28e8 953d f17a da3c 4f78 01bd 435a 173d
00000180: e953 4abd c5a5 89bc fa88 443d b784 2fbd
00000190: 17bb 8f3d 4746 82bd 2231 103d 1e16 e03a
000001a0: 660a 183d 9f11 1fbd 75c8 21bd 33ee f43c
000001b0: 63a6 66bd 58ac 343d f384 083d 2647 2c3d
000001c0: 7220 673c 9c2c 283c ef62 a03c 410c 13bd
000001d0: af2b 32bd 1233 db3c 52fe 6e3d 5335 013d
000001e0: b51f 773d ea8e d83b 9dcf 363d 2bda 563d
000001f0: e81e 5e3d 0e80 2cbd 2579 6ebd 8e32 653d
00000200: 8288 503c 5a42 85bc 3bd1 913c 6048 cd3b
00000210: 92da 59bd 0f45 6cbd 4b1a f33c ea51 af3c
00000220: f4f3 743c 8219 353d 2a84 9abc 34b0 d4bc
00000230: e02c 853c 96d7 86bc 3d21 423d def5 f1bb
00000240: 8db0 8c3c 8d3c 2c3d 968a 26bc 0f2e 01bd
00000250: f28d 07bd ac5d 23bb 867d 8dbd 0da1 4f3d
00000260: afc1 d9bc c250 f6bc 3766 62bc 702b dabc
00000270: ef82 423d f988 ff3b 8bfe 883c 2a80 90bc
00000280: fdb7 603d ba53 19bd e2c4 0ebc 66a0 dfbc
00000290: 4e11 5abd 4d8d 17bd e596 113d d84a f4bb
000002a0: 30f6 39bd a70d 6c3d 667c 8e3c 6fb4 b13c
000002b0: 81c4 173d a3c5 903d a2c2 ec3c b1c0 2f3d
000002c0: 2428 2b3c ea48 7cbd b312 063d 948e 90bc
000002d0: de87 473d 2f96 b33c b71a e6ba 8944 82bd
000002e0: 2ffb 923c de51 523d 54ff 7abc cd70 79bd
000002f0: 96a0 39bd bce9 37bd 3749 67bd 6b6d 143d
00000300: ee5a c1bc ac70 2a3d 2278 22bd fa17 b6bc
00000310: 76ba 833d ac11 55bc 0b6b 0c3d 6d53 ddbc
00000320: 5692 0cba a626 84bd fe4f 13bd 6b9e 3a3d
00000330: c198 92bc c358 473d ebf7 a63d 0e5e 913d
00000340: 4262 04bd 20f3 0fbd 9026 dbbc 5f84 013d
00000350: ca78 923c fd02 933c 6f7c 7bbd dfb4 383c
00000360: bf37 973d 069f 8f3c 9de2 11bd 8168 c5bb
00000370: 6b05 2fbd 0b8f e73c 4acc 9dbd 90e3 7d3d
00000380: 3cab e53c 7858 abbc d64f 143a 8883 493d
00000390: a8ee 23bd 362b d7bc f03a 353d 2751 85bd
000003a0: 673f 9a3d 9bb0 b73c 9177 103c d62e 40bd
000003b0: 118e 7ebc 60fa 133d 54ba 2cbc abb7 1d3d
000003c0: a1d5 f8bc 09e3 acbc 2874 373d 7f28 83bc
000003d0: 7cd2 493d 1a05 2f3c a4c7 163d 578d cabc
000003e0: 80c0 813d d32d fbbc ad79 23bd 4ca5 433b
000003f0: 9c4d 54bd a73f 503d d04a 81bc 1232 e7bc

attention.0.bias f4 [100]
0.0027031384 0.009481584 -0.057161327 0.002587763 0.06241337 -0.038124345 -0.056127757 -0.019020177
0.040114183 0.050331235 -0.07115356 -0.038420916 -0.05237441 0.012892091 -0.050063275 -0.045580883
-0.04505183 -0.014508572 0.01185882 -0.04065695 0.03313494 -0.043862775 -0.00063324504 0.01453816
-0.0069663716 0.08593995 -0.011128686 0.0016564303 0.01552202 0.052180402 0.0701876 0.06808771
-0.022620915 0.008893738 -0.04819655 0.050740894 -0.026622426 0.052183315 -0.042307954 0.061123017
-0.036138184 0.012342659 -0.019304618 0.04779358 -0.031982493 0.05349348 -0.03842161 0.06910592
0.000111492234 -0.01101517 0.00675032 -0.046295352 -0.009580204 0.014501254 -0.008754709 0.01043513
0.029971253 -0.006955862 -0.021755116 0.017133549 -0.04811315 -0.012119634 -0.07260182 -0.020431804
-0.00090756576 0.0017855566 0.019583251 0.024544341 -0.025850428 -0.0051847515 -0.017443124 -0.049265202
0.036383197 0.054195773 -0.014655351 -0.005789073 -0.005541567 -0.039599683 0.063653804 0.024342582
0.047230512 0.042723104 0.02473812 0.013628495 -0.04396292 -0.017750861 0.04630695 -0.0022526137
0.003572147 0.056781497 0.04878311 0.01578106 -0.014171507 0.061620325 0.026384378 0.0026823408
0.079536 -0.027306251 -0.0070980275 0.0036507642
00000000: 2327 313b a558 1b3c ff21 6abd 7597 293b
00000010: 29a5 7f3d 4628 1cbd 38e6 65bd 34d0 9bbc
00000020: c54e 243d 2028 4e3d f5b8 91bd 405f 1dbd
00000030: 8d86 56bd 5939 533c 260f 4dbd 05b3 3abd
00000040: 4588 38bd 5db5 6dbc 7f4b 423c e787 26bd
00000050: 81b8 073d 74a9 33bd 5b00 26ba 7631 6e3c
00000060: 2946 e4bb 4901 b03d 1855 36bc 941c d93a
00000070: 1250 7e3c 1ebb 553d 84be 8f3d 9271 8b3d
00000080: 7f4f b9bc 0ab7 113c bf69 45bd afd5 4f3d
00000090: 4617 dabc 2cbe 553d 1b4b 2dbd 215c 7a3d
000000a0: a205 14bd dd38 4a3c b824 9ebc 33c3 433d
000000b0: 1300 03bd fb1b 5b3d fa5f 1dbd 6887 8d3d
000000c0: f0d0 e938 f978 34bc ca31 dd3b 32a0 3dbd
000000d0: 4af6 1cbc ab96 6d3c e96f 0fbc 1cf8 2a3c
000000e0: 4686 f53c 00ee e3bb c937 b2bc a85b 8c3c
000000f0: 4b12 45bd 6e91 46bc 43b0 94bd 9960 a7bc
00000100: b5e9 6dba 5609 ea3a 0e6d a03c 3711 c93c
00000110: 47c4 d3bc d9e4 a9bb e2e4 8ebc 4fca 49bd
00000120: 8c06 153d 63fc 5d3d ff1c 70bc 44b2 bdbb
00000130: 0996 b5bb 4733 22bd ed5c 823d 186a c73c
00000140: c874 413d 6cfe 2e3d 99a7 ca3c 0d4a 5f3c
00000150: 7612 34bd 416a 91bc 5bac 3d3d 96a0 13bb
00000160: af1a 6a3b b793 683d ccd0 473d 4847 813c
00000170: 9c2f 68bc 9865 7c3d 0d24 d83c 36ca 2f3b
00000180: c5e3 a23d 5cb1 dfbc 9296 e8bb a941 6f3b

attention.2.weight f4 [100, 100]
-0.08340131 -0.05539698 -0.043280784 -0.020918509 0.032994196 0.0761967 -0.08844004 -0.09579873
0.0022944044 -0.024269745 0.07994511 -0.060299933 0.043040883 0.022951428 -0.011255715 0.05925506
0.011020315 0.0782101 -0.042640626 0.06349028 0.090703905 0.056837175 0.064537905 0.020850165
0.025075423 -0.032775443 -0.09939062 -0.027908627 -0.050566394 0.06134181 0.027302371 0.095635265
-0.00763972 0.061283734 0.08289789 -0.07903782 0.08988628 0.04154604 -0.045538574 -0.028733894
-0.07033651 0.08819602 0.07993288 0.034139365 -0.048802048 0.06324863 0.009164559 -0.09057044
0.002627855 0.0053203544 -0.079538144 -0.06627166 -0.04024478 -0.036370676 -0.05463605 0.022330964
-0.023134878 -0.06789994 -0.082886495 -0.07327634 -0.041562088 -0.0053738775 -0.017369816 -0.021712892
0.097100414 0.09197839 0.02754845 -0.032018792 0.05783346 0.0037956473 0.01640114 0.043571796
0.06927875 0.067221984 0.083861455 0.012741429 -0.043772668 0.089439005 -0.0011030233 -0.012769363
-0.08813924 0.021838814 -0.042746317 0.071622774 -0.017998476 -0.033878844 0.009412479 -0.015191843
0.006436437 -0.036871 -0.05297793 -0.01778992 0.017177371 -0.09687062 0.027128216 0.07347521
0.05222072 0.083767034 0.08053948 -0.06666013 0.030329779 0.10794553 0.06471149 0.004010667
-0.09226255 0.00070499285 -0.0366225 0.10557927 0.057534005 -0.047530994 -0.08234142 -0.093004696
0.059507955 0.08413563 -0.026993115 -0.029096985 -0.08453722 0.032120552 0.08867569 -0.092053324
0.015298158 -0.03977884 -0.045856744 0.024012558 -0.074627005 0.08993194 0.01567569 -0.037345633
0.051663402 -0.030411469 0.09356575 -0.0024598483 0.09725839 0.0717878 -0.07514563 -0.014280684
-0.037660323 -0.09000931 -0.01187171 -0.04345763 0.029765153 -0.008150126 0.090853505 0.016909176
0.07953071 0.069472514 0.10568677 -0.08142732 0.08815652 0.103078336 0.061363462 0.0024679129
-0.019585747 -0.014756168 -0.044128012 0.07278233 0.00064718624 -0.06366886 -0.08397911 -0.008794446
-0.07851711 -0.097212516 -0.03547795 0.03704905 0.02736473 0.066489235 -0.04396659 0.09043599
0.0011393763 0.06477452 -0.007396935 0.0005249913 -0.052644342 -0.05129486 0.009297522 0.09830772
-0.0820732 0.038536422 -0.085862264 0.011905479 0.06833448 -0.0066907424 -0.036720797 0.04869287
0.032669466 -0.071099885 0.0026355372 -0.027472818 0.059616636 0.091837734 -0.028996436 -0.04953554
-0.08595948 -0.033148825 -0.029251626 -0.08766891 -0.021011857 -0.004678565 -0.08670676 -0.067386486
-0.02425845 0.0066980603 0.020565625 -0.058516156 -0.09373661 -0.014237804 0.0015140752 0.08976276
0.05317818 -0.08892852 -0.05763462 0.020610172 0.029320449 -0.08212421 -0.06879337 -0.031331714
-0.07872913 0.08434718 -0.07421904 0.029919334 0.045906976 0.017956337 0.077228524 0.072562136
0.072729886 -0.05376752 0.07103652 0.06252385 -0.09475914 -0.06532469 0.00219601 0.015736997
0.00014677408 -0.050366566 0.07531333 -0.020959752 -0.037410703 -0.016250055 0.084889844 0.047077615
-0.008636012 0.09778661 -0.081602074 -0.06677021 0.07859417 0.07629382 -0.0029273503 0.021833587
-0.099144496 -0.012577449 -0.06868066 -0.028387425 -0.08875835 0.04172672 0.025100578 -0.078036696
00000000: 4ece aabd f2e7 62bd 3147 31bd 4b5d abbc
00000010: ec24 073d 040d 9c3d 0d20 b5bd 2032 c4bd
00000020: b85d 163b 58d1 c6bc 43ba a33d 10fd 76bd
00000030: a34b 303d a204 bc3c e469 38bc 6fb5 723d
00000040: 8d8e 343c 9e2c a03d f0a7 2ebd 3107 823d
00000050: f8c2 b93d 19ce 683d 732c 843d f7cd aa3c
00000060: f96a cd3c 8b3f 06bd 4f8d cbbd a2a0 e4bc
00000070: b51e 4fbd 8d41 7b3d 39a9 df3c 6cdc c33d
00000080: 9e56 fabb a704 7b3d 5ec6 a93d 95de a1bd
00000090: 4c16 b83d 2e2c 2a3d a886 3abd 5863 ebbc
000000a0: 970c 90bd 1da0 b43d dab3 a33d b8d5 0b3d
000000b0: a8e4 47bd 7f88 813d f226 163c ff7c b9bd
000000c0: 1738 2c3b 5e56 ae3b e5e4 a2bd 70b9 87bd
000000d0: b6d7 24bd 6bf9 14bd 0dca 5fbd 6def b63c
000000e0: 5b85 bdbc 200f 8bbd 65c0 a9bd e811 96bd
000000f0: 023d 2abd 5a17 b0bb 254b 8ebc 3cdf b1bc
00000100: 95dc c63d 2b5f bc3d 49ad e13c 2326 03bd
00000110: c7e2 6c3d 65c0 783b af5b 863c 5778 323d
00000120: 04e2 8d3d aeab 893d 8ebf ab3d 6dc1 503c
00000130: f84a 33bd cc2b b73d 5293 90ba 9736 51bc
00000140: 5982 b4bd 50e7 b23c c316 2fbd f6ae 923d
00000150: 8a71 93bc 8bc4 0abd cc36 1a3c 35e7 78bc
00000160: bfe8 d23b 0c06 17bd 63ff 58bd 2bbc 91bc
00000170: 8fb7 8c3c 1b64 c6bd fe3b de3c 2c7a 963d
00000180: 65e5 553d 0d8e ab3d e2f1 a43d 1b85 88bd
00000190: 2876 f83c 8c12 dd3d 7587 843d ea6b 833b
000001a0: 26f4 bcbd 45cf 383a 7901 16bd f239 d83d
000001b0: c7a8 6b3d dcaf 42bd 9ea2 a8bd 3f79 bebd
000001c0: 9dbe 733d 4d4f ac3d aa20 ddbc cd5c eebc
000001d0: da21 adbd d790 033d 9a9b b53d 7486 bcbd
000001e0: 20a5 7a3c 23ef 22bd 48d4 3bbd fcb5 c43c
000001f0: 0bd6 98bd 3d2e b83d 4e6a 803c bcf7 18bd
00000200: 019d 533d 7921 f9bc 669f bf3d 6835 21bb
00000210: 682f c73d 7b05 933d f4e5 99bd 88f9 69bc
00000220: b641 1abd cd56 b8bd 9081 42bc a100 32bd
00000230: 0dd6 f33c 1b88 05bc 6711 ba3d 1d85 8a3c
00000240: ffe0 a23d 9b47 8e3d 4e72 d83d 5ec3 a6bd
00000250: 688b b43d bc1a d33d 4158 7b3d b5bc 213b
00000260: 4a72 a0bc dbc3 71bc 93bf 34bd e70e 953d
00000270: efa7 293a d264 82bd 3dfd abbd 9416 10bc
00000280: 94cd a0bd 5b17 c7bd 5451 11bd bfc0 173d
00000290: 002c e03c 822b 883d 5016 34bd 8136 b93d
000002a0: 2057 953a 81a8 843d fd61 f2bb 929f 093a
000002b0: 98a1 57bd 8f1a 52bd a254 183c 8f55 c93d
000002c0: fe15 a8bd 5ed8 1d3d 8ed8 afbd 330f 433c
000002d0: f3f2 8b3d 043e dbbb 8c68 16bd 2d72 473d
000002e0: 6bd0 053d d19c 91bd fab8 2c3b ad0e e1bc
000002f0: 9330 743d 6c15 bc3d ef89 edbc c7e5 4abd
00000300: 860b b0bd 10c7 07bd 1ba1 efbc c28b b3bd
00000310: 0f21 acbc a64e 99bb 5093 b1bd ed01 8abd
00000320: a8b9 c6bc 677b db3b 3e79 a83c a3ae 6fbd
00000330: fbf8 bfbd ae45 69bc ef73 c63a 8ad5 b73d
00000340: 5dd1 593d 2820 b6bd 4812 6cbd aad6 a83c
00000350: 7031 f03c bd30 a8bd 8ae3 8cbd af55 00bd
00000360: bd3c a1bd 37be ac3d 2700 98bd 6419 f53c
00000370: f408 3c3d 2b19 933c fd29 9e3d 759b 943d
00000380: 68f3 943d 553b 5cbd 987b 913d 810c 803d
00000390: 1411 c2bd f3c8 85bd efea 0f3b e0ea 803c
000003a0: 5ee7 1939 2c4d 4ebd e03d 9a3d c9b3 abbc
000003b0: f73b 19bd d61e 85bc bada ad3d 75d4 403d
000003c0: 0f7e 0dbc 5944 c83d fd1e a7bd d2be 88bd
000003d0: fbf5 a03d ef3f 9c3d cad8 3fbb 5adc b23c
000003e0: 450c cbbd a511 4ebc 72a8 8cbd bf8c e8bc
000003f0: f0c6 b5bd a3e9 2a3d ba9f cd3c b4d1 9fbd
